name: "ssdJacintoNetV2"
layer {
  name: "data"
  type: "AnnotatedData"
  top: "data"
  top: "label"
  include {
    phase: TRAIN
  }
  transform_param {
    mirror: true
    mean_value: 0.0
    mean_value: 0.0
    mean_value: 0.0
    force_color: false
    resize_param {
      prob: 1.0
      resize_mode: WARP
      height: 320
      width: 768
      interp_mode: LINEAR
      interp_mode: AREA
      interp_mode: NEAREST
      interp_mode: CUBIC
      interp_mode: LANCZOS4
    }
    emit_constraint {
      emit_type: CENTER
    }
    crop_h: 320
    crop_w: 768
    distort_param {
      brightness_prob: 0.5
      brightness_delta: 32.0
      contrast_prob: 0.5
      contrast_lower: 0.5
      contrast_upper: 1.5
      hue_prob: 0.5
      hue_delta: 18.0
      saturation_prob: 0.5
      saturation_lower: 0.5
      saturation_upper: 1.5
      random_order_prob: 0.0
    }
    expand_param {
      prob: 0.5
      max_expand_ratio: 4.0
    }
  }
  data_param {
    source: "/workspace/data/lmdb/EYES/EYES_trainval_lmdb"
    batch_size: 16
    backend: LMDB
    threads: 4
    parser_threads: 4
  }
  annotated_data_param {
    batch_sampler {
      max_sample: 1
      max_trials: 1
    }
    batch_sampler {
      sampler {
        min_scale: 0.300000011921
        max_scale: 1.0
        min_aspect_ratio: 0.5
        max_aspect_ratio: 2.0
      }
      sample_constraint {
        min_jaccard_overlap: 0.10000000149
      }
      max_sample: 1
      max_trials: 50
    }
    batch_sampler {
      sampler {
        min_scale: 0.300000011921
        max_scale: 1.0
        min_aspect_ratio: 0.5
        max_aspect_ratio: 2.0
      }
      sample_constraint {
        min_jaccard_overlap: 0.300000011921
      }
      max_sample: 1
      max_trials: 50
    }
    batch_sampler {
      sampler {
        min_scale: 0.300000011921
        max_scale: 1.0
        min_aspect_ratio: 0.5
        max_aspect_ratio: 2.0
      }
      sample_constraint {
        min_jaccard_overlap: 0.5
      }
      max_sample: 1
      max_trials: 50
    }
    batch_sampler {
      sampler {
        min_scale: 0.300000011921
        max_scale: 1.0
        min_aspect_ratio: 0.5
        max_aspect_ratio: 2.0
      }
      sample_constraint {
        min_jaccard_overlap: 0.699999988079
      }
      max_sample: 1
      max_trials: 50
    }
    batch_sampler {
      sampler {
        min_scale: 0.300000011921
        max_scale: 1.0
        min_aspect_ratio: 0.5
        max_aspect_ratio: 2.0
      }
      sample_constraint {
        min_jaccard_overlap: 0.899999976158
      }
      max_sample: 1
      max_trials: 50
    }
    batch_sampler {
      sampler {
        min_scale: 0.300000011921
        max_scale: 1.0
        min_aspect_ratio: 0.5
        max_aspect_ratio: 2.0
      }
      sample_constraint {
        max_jaccard_overlap: 1.0
      }
      max_sample: 1
      max_trials: 50
    }
    label_map_file: "/workspace/caffe-jacinto/data/EYES/labelmap_eye.prototxt"
  }
}
layer {
  name: "data/bias"
  type: "Bias"
  bottom: "data"
  top: "data/bias"
  param {
    lr_mult: 0.0
    decay_mult: 0.0
  }
  bias_param {
    filler {
      type: "constant"
      value: -128.0
    }
  }
}
layer {
  name: "conv1a"
  type: "Convolution"
  bottom: "data/bias"
  top: "conv1a"
  param {
    lr_mult: 1.0
    decay_mult: 1.0
  }
  param {
    lr_mult: 2.0
    decay_mult: 0.0
  }
  convolution_param {
    num_output: 32
    bias_term: true
    pad: 2
    kernel_size: 5
    group: 1
    stride: 2
    weight_filler {
      type: "msra"
    }
    bias_filler {
      type: "constant"
      value: 0.0
    }
    dilation: 1
  }
}
layer {
  name: "conv1a/bn"
  type: "BatchNorm"
  bottom: "conv1a"
  top: "conv1a"
  batch_norm_param {
    moving_average_fraction: 0.990000009537
    eps: 9.99999974738e-05
    scale_bias: true
  }
}
layer {
  name: "conv1a/relu"
  type: "ReLU"
  bottom: "conv1a"
  top: "conv1a"
}
layer {
  name: "conv1b"
  type: "Convolution"
  bottom: "conv1a"
  top: "conv1b"
  param {
    lr_mult: 1.0
    decay_mult: 1.0
  }
  param {
    lr_mult: 2.0
    decay_mult: 0.0
  }
  convolution_param {
    num_output: 32
    bias_term: true
    pad: 1
    kernel_size: 3
    group: 4
    stride: 1
    weight_filler {
      type: "msra"
    }
    bias_filler {
      type: "constant"
      value: 0.0
    }
    dilation: 1
  }
}
layer {
  name: "conv1b/bn"
  type: "BatchNorm"
  bottom: "conv1b"
  top: "conv1b"
  batch_norm_param {
    moving_average_fraction: 0.990000009537
    eps: 9.99999974738e-05
    scale_bias: true
  }
}
layer {
  name: "conv1b/relu"
  type: "ReLU"
  bottom: "conv1b"
  top: "conv1b"
}
layer {
  name: "pool1"
  type: "Pooling"
  bottom: "conv1b"
  top: "pool1"
  pooling_param {
    pool: MAX
    kernel_size: 2
    stride: 2
  }
}
layer {
  name: "res2a_branch2a"
  type: "Convolution"
  bottom: "pool1"
  top: "res2a_branch2a"
  param {
    lr_mult: 1.0
    decay_mult: 1.0
  }
  param {
    lr_mult: 2.0
    decay_mult: 0.0
  }
  convolution_param {
    num_output: 64
    bias_term: true
    pad: 1
    kernel_size: 3
    group: 1
    stride: 1
    weight_filler {
      type: "msra"
    }
    bias_filler {
      type: "constant"
      value: 0.0
    }
    dilation: 1
  }
}
layer {
  name: "res2a_branch2a/bn"
  type: "BatchNorm"
  bottom: "res2a_branch2a"
  top: "res2a_branch2a"
  batch_norm_param {
    moving_average_fraction: 0.990000009537
    eps: 9.99999974738e-05
    scale_bias: true
  }
}
layer {
  name: "res2a_branch2a/relu"
  type: "ReLU"
  bottom: "res2a_branch2a"
  top: "res2a_branch2a"
}
layer {
  name: "res2a_branch2b"
  type: "Convolution"
  bottom: "res2a_branch2a"
  top: "res2a_branch2b"
  param {
    lr_mult: 1.0
    decay_mult: 1.0
  }
  param {
    lr_mult: 2.0
    decay_mult: 0.0
  }
  convolution_param {
    num_output: 64
    bias_term: true
    pad: 1
    kernel_size: 3
    group: 4
    stride: 1
    weight_filler {
      type: "msra"
    }
    bias_filler {
      type: "constant"
      value: 0.0
    }
    dilation: 1
  }
}
layer {
  name: "res2a_branch2b/bn"
  type: "BatchNorm"
  bottom: "res2a_branch2b"
  top: "res2a_branch2b"
  batch_norm_param {
    moving_average_fraction: 0.990000009537
    eps: 9.99999974738e-05
    scale_bias: true
  }
}
layer {
  name: "res2a_branch2b/relu"
  type: "ReLU"
  bottom: "res2a_branch2b"
  top: "res2a_branch2b"
}
layer {
  name: "pool2"
  type: "Pooling"
  bottom: "res2a_branch2b"
  top: "pool2"
  pooling_param {
    pool: MAX
    kernel_size: 2
    stride: 2
  }
}
layer {
  name: "res3a_branch2a"
  type: "Convolution"
  bottom: "pool2"
  top: "res3a_branch2a"
  param {
    lr_mult: 1.0
    decay_mult: 1.0
  }
  param {
    lr_mult: 2.0
    decay_mult: 0.0
  }
  convolution_param {
    num_output: 128
    bias_term: true
    pad: 1
    kernel_size: 3
    group: 1
    stride: 1
    weight_filler {
      type: "msra"
    }
    bias_filler {
      type: "constant"
      value: 0.0
    }
    dilation: 1
  }
}
layer {
  name: "res3a_branch2a/bn"
  type: "BatchNorm"
  bottom: "res3a_branch2a"
  top: "res3a_branch2a"
  batch_norm_param {
    moving_average_fraction: 0.990000009537
    eps: 9.99999974738e-05
    scale_bias: true
  }
}
layer {
  name: "res3a_branch2a/relu"
  type: "ReLU"
  bottom: "res3a_branch2a"
  top: "res3a_branch2a"
}
layer {
  name: "res3a_branch2b"
  type: "Convolution"
  bottom: "res3a_branch2a"
  top: "res3a_branch2b"
  param {
    lr_mult: 1.0
    decay_mult: 1.0
  }
  param {
    lr_mult: 2.0
    decay_mult: 0.0
  }
  convolution_param {
    num_output: 128
    bias_term: true
    pad: 1
    kernel_size: 3
    group: 4
    stride: 1
    weight_filler {
      type: "msra"
    }
    bias_filler {
      type: "constant"
      value: 0.0
    }
    dilation: 1
  }
}
layer {
  name: "res3a_branch2b/bn"
  type: "BatchNorm"
  bottom: "res3a_branch2b"
  top: "res3a_branch2b"
  batch_norm_param {
    moving_average_fraction: 0.990000009537
    eps: 9.99999974738e-05
    scale_bias: true
  }
}
layer {
  name: "res3a_branch2b/relu"
  type: "ReLU"
  bottom: "res3a_branch2b"
  top: "res3a_branch2b"
}
layer {
  name: "pool3"
  type: "Pooling"
  bottom: "res3a_branch2b"
  top: "pool3"
  pooling_param {
    pool: MAX
    kernel_size: 2
    stride: 2
  }
}
layer {
  name: "res4a_branch2a"
  type: "Convolution"
  bottom: "pool3"
  top: "res4a_branch2a"
  param {
    lr_mult: 1.0
    decay_mult: 1.0
  }
  param {
    lr_mult: 2.0
    decay_mult: 0.0
  }
  convolution_param {
    num_output: 256
    bias_term: true
    pad: 1
    kernel_size: 3
    group: 1
    stride: 1
    weight_filler {
      type: "msra"
    }
    bias_filler {
      type: "constant"
      value: 0.0
    }
    dilation: 1
  }
}
layer {
  name: "res4a_branch2a/bn"
  type: "BatchNorm"
  bottom: "res4a_branch2a"
  top: "res4a_branch2a"
  batch_norm_param {
    moving_average_fraction: 0.990000009537
    eps: 9.99999974738e-05
    scale_bias: true
  }
}
layer {
  name: "res4a_branch2a/relu"
  type: "ReLU"
  bottom: "res4a_branch2a"
  top: "res4a_branch2a"
}
layer {
  name: "res4a_branch2b"
  type: "Convolution"
  bottom: "res4a_branch2a"
  top: "res4a_branch2b"
  param {
    lr_mult: 1.0
    decay_mult: 1.0
  }
  param {
    lr_mult: 2.0
    decay_mult: 0.0
  }
  convolution_param {
    num_output: 256
    bias_term: true
    pad: 1
    kernel_size: 3
    group: 4
    stride: 1
    weight_filler {
      type: "msra"
    }
    bias_filler {
      type: "constant"
      value: 0.0
    }
    dilation: 1
  }
}
layer {
  name: "res4a_branch2b/bn"
  type: "BatchNorm"
  bottom: "res4a_branch2b"
  top: "res4a_branch2b"
  batch_norm_param {
    moving_average_fraction: 0.990000009537
    eps: 9.99999974738e-05
    scale_bias: true
  }
}
layer {
  name: "res4a_branch2b/relu"
  type: "ReLU"
  bottom: "res4a_branch2b"
  top: "res4a_branch2b"
}
layer {
  name: "pool4"
  type: "Pooling"
  bottom: "res4a_branch2b"
  top: "pool4"
  pooling_param {
    pool: MAX
    kernel_size: 2
    stride: 2
  }
}
layer {
  name: "res5a_branch2a"
  type: "Convolution"
  bottom: "pool4"
  top: "res5a_branch2a"
  param {
    lr_mult: 1.0
    decay_mult: 1.0
  }
  param {
    lr_mult: 2.0
    decay_mult: 0.0
  }
  convolution_param {
    num_output: 512
    bias_term: true
    pad: 1
    kernel_size: 3
    group: 1
    stride: 1
    weight_filler {
      type: "msra"
    }
    bias_filler {
      type: "constant"
      value: 0.0
    }
    dilation: 1
  }
}
layer {
  name: "res5a_branch2a/bn"
  type: "BatchNorm"
  bottom: "res5a_branch2a"
  top: "res5a_branch2a"
  batch_norm_param {
    moving_average_fraction: 0.990000009537
    eps: 9.99999974738e-05
    scale_bias: true
  }
}
layer {
  name: "res5a_branch2a/relu"
  type: "ReLU"
  bottom: "res5a_branch2a"
  top: "res5a_branch2a"
}
layer {
  name: "res5a_branch2b"
  type: "Convolution"
  bottom: "res5a_branch2a"
  top: "res5a_branch2b"
  param {
    lr_mult: 1.0
    decay_mult: 1.0
  }
  param {
    lr_mult: 2.0
    decay_mult: 0.0
  }
  convolution_param {
    num_output: 512
    bias_term: true
    pad: 1
    kernel_size: 3
    group: 4
    stride: 1
    weight_filler {
      type: "msra"
    }
    bias_filler {
      type: "constant"
      value: 0.0
    }
    dilation: 1
  }
}
layer {
  name: "res5a_branch2b/bn"
  type: "BatchNorm"
  bottom: "res5a_branch2b"
  top: "res5a_branch2b"
  batch_norm_param {
    moving_average_fraction: 0.990000009537
    eps: 9.99999974738e-05
    scale_bias: true
  }
}
layer {
  name: "res5a_branch2b/relu"
  type: "ReLU"
  bottom: "res5a_branch2b"
  top: "res5a_branch2b"
}
layer {
  name: "pool6"
  type: "Pooling"
  bottom: "res5a_branch2b"
  top: "pool6"
  pooling_param {
    pool: MAX
    kernel_size: 2
    stride: 2
    pad: 0
  }
}
layer {
  name: "pool7"
  type: "Pooling"
  bottom: "pool6"
  top: "pool7"
  pooling_param {
    pool: MAX
    kernel_size: 2
    stride: 2
    pad: 0
  }
}
layer {
  name: "pool8"
  type: "Pooling"
  bottom: "pool7"
  top: "pool8"
  pooling_param {
    pool: MAX
    kernel_size: 2
    stride: 2
    pad: 0
  }
}
layer {
  name: "pool9"
  type: "Pooling"
  bottom: "pool8"
  top: "pool9"
  pooling_param {
    pool: MAX
    kernel_size: 2
    stride: 2
    pad: 0
  }
}
layer {
  name: "ctx_output1"
  type: "Convolution"
  bottom: "res3a_branch2b"
  top: "ctx_output1"
  param {
    lr_mult: 1.0
    decay_mult: 1.0
  }
  param {
    lr_mult: 2.0
    decay_mult: 0.0
  }
  convolution_param {
    num_output: 256
    bias_term: true
    pad: 0
    kernel_size: 1
    group: 1
    stride: 1
    weight_filler {
      type: "msra"
    }
    bias_filler {
      type: "constant"
      value: 0.0
    }
    dilation: 1
  }
}
layer {
  name: "ctx_output1/relu"
  type: "ReLU"
  bottom: "ctx_output1"
  top: "ctx_output1"
}
layer {
  name: "ctx_output2"
  type: "Convolution"
  bottom: "res5a_branch2b"
  top: "ctx_output2"
  param {
    lr_mult: 1.0
    decay_mult: 1.0
  }
  param {
    lr_mult: 2.0
    decay_mult: 0.0
  }
  convolution_param {
    num_output: 256
    bias_term: true
    pad: 0
    kernel_size: 1
    group: 1
    stride: 1
    weight_filler {
      type: "msra"
    }
    bias_filler {
      type: "constant"
      value: 0.0
    }
    dilation: 1
  }
}
layer {
  name: "ctx_output2/relu"
  type: "ReLU"
  bottom: "ctx_output2"
  top: "ctx_output2"
}
layer {
  name: "ctx_output3"
  type: "Convolution"
  bottom: "pool6"
  top: "ctx_output3"
  param {
    lr_mult: 1.0
    decay_mult: 1.0
  }
  param {
    lr_mult: 2.0
    decay_mult: 0.0
  }
  convolution_param {
    num_output: 256
    bias_term: true
    pad: 0
    kernel_size: 1
    group: 1
    stride: 1
    weight_filler {
      type: "msra"
    }
    bias_filler {
      type: "constant"
      value: 0.0
    }
    dilation: 1
  }
}
layer {
  name: "ctx_output3/relu"
  type: "ReLU"
  bottom: "ctx_output3"
  top: "ctx_output3"
}
layer {
  name: "ctx_output4"
  type: "Convolution"
  bottom: "pool7"
  top: "ctx_output4"
  param {
    lr_mult: 1.0
    decay_mult: 1.0
  }
  param {
    lr_mult: 2.0
    decay_mult: 0.0
  }
  convolution_param {
    num_output: 256
    bias_term: true
    pad: 0
    kernel_size: 1
    group: 1
    stride: 1
    weight_filler {
      type: "msra"
    }
    bias_filler {
      type: "constant"
      value: 0.0
    }
    dilation: 1
  }
}
layer {
  name: "ctx_output4/relu"
  type: "ReLU"
  bottom: "ctx_output4"
  top: "ctx_output4"
}
layer {
  name: "ctx_output5"
  type: "Convolution"
  bottom: "pool8"
  top: "ctx_output5"
  param {
    lr_mult: 1.0
    decay_mult: 1.0
  }
  param {
    lr_mult: 2.0
    decay_mult: 0.0
  }
  convolution_param {
    num_output: 256
    bias_term: true
    pad: 0
    kernel_size: 1
    group: 1
    stride: 1
    weight_filler {
      type: "msra"
    }
    bias_filler {
      type: "constant"
      value: 0.0
    }
    dilation: 1
  }
}
layer {
  name: "ctx_output5/relu"
  type: "ReLU"
  bottom: "ctx_output5"
  top: "ctx_output5"
}
layer {
  name: "ctx_output6"
  type: "Convolution"
  bottom: "pool9"
  top: "ctx_output6"
  param {
    lr_mult: 1.0
    decay_mult: 1.0
  }
  param {
    lr_mult: 2.0
    decay_mult: 0.0
  }
  convolution_param {
    num_output: 256
    bias_term: true
    pad: 0
    kernel_size: 1
    group: 1
    stride: 1
    weight_filler {
      type: "msra"
    }
    bias_filler {
      type: "constant"
      value: 0.0
    }
    dilation: 1
  }
}
layer {
  name: "ctx_output6/relu"
  type: "ReLU"
  bottom: "ctx_output6"
  top: "ctx_output6"
}
layer {
  name: "ctx_output1/relu_mbox_loc"
  type: "Convolution"
  bottom: "ctx_output1"
  top: "ctx_output1/relu_mbox_loc"
  param {
    lr_mult: 1.0
    decay_mult: 1.0
  }
  param {
    lr_mult: 2.0
    decay_mult: 0.0
  }
  convolution_param {
    num_output: 16
    bias_term: true
    pad: 0
    kernel_size: 1
    group: 1
    stride: 1
    weight_filler {
      type: "msra"
    }
    bias_filler {
      type: "constant"
      value: 0.0
    }
    dilation: 1
  }
}
layer {
  name: "ctx_output1/relu_mbox_loc_perm"
  type: "Permute"
  bottom: "ctx_output1/relu_mbox_loc"
  top: "ctx_output1/relu_mbox_loc_perm"
  permute_param {
    order: 0
    order: 2
    order: 3
    order: 1
  }
}
layer {
  name: "ctx_output1/relu_mbox_loc_flat"
  type: "Flatten"
  bottom: "ctx_output1/relu_mbox_loc_perm"
  top: "ctx_output1/relu_mbox_loc_flat"
  flatten_param {
    axis: 1
  }
}
layer {
  name: "ctx_output1/relu_mbox_conf"
  type: "Convolution"
  bottom: "ctx_output1"
  top: "ctx_output1/relu_mbox_conf"
  param {
    lr_mult: 1.0
    decay_mult: 1.0
  }
  param {
    lr_mult: 2.0
    decay_mult: 0.0
  }
  convolution_param {
    num_output: 16
    bias_term: true
    pad: 0
    kernel_size: 1
    group: 1
    stride: 1
    weight_filler {
      type: "msra"
    }
    bias_filler {
      type: "constant"
      value: 0.0
    }
    dilation: 1
  }
}
layer {
  name: "ctx_output1/relu_mbox_conf_perm"
  type: "Permute"
  bottom: "ctx_output1/relu_mbox_conf"
  top: "ctx_output1/relu_mbox_conf_perm"
  permute_param {
    order: 0
    order: 2
    order: 3
    order: 1
  }
}
layer {
  name: "ctx_output1/relu_mbox_conf_flat"
  type: "Flatten"
  bottom: "ctx_output1/relu_mbox_conf_perm"
  top: "ctx_output1/relu_mbox_conf_flat"
  flatten_param {
    axis: 1
  }
}
layer {
  name: "ctx_output1/relu_mbox_priorbox"
  type: "PriorBox"
  bottom: "ctx_output1"
  bottom: "data"
  top: "ctx_output1/relu_mbox_priorbox"
  prior_box_param {
    min_size: 14.720000267
    max_size: 36.7999992371
    aspect_ratio: 2.0
    flip: true
    clip: false
    variance: 0.10000000149
    variance: 0.10000000149
    variance: 0.20000000298
    variance: 0.20000000298
    offset: 0.5
  }
}
layer {
  name: "ctx_output2/relu_mbox_loc"
  type: "Convolution"
  bottom: "ctx_output2"
  top: "ctx_output2/relu_mbox_loc"
  param {
    lr_mult: 1.0
    decay_mult: 1.0
  }
  param {
    lr_mult: 2.0
    decay_mult: 0.0
  }
  convolution_param {
    num_output: 24
    bias_term: true
    pad: 0
    kernel_size: 1
    group: 1
    stride: 1
    weight_filler {
      type: "msra"
    }
    bias_filler {
      type: "constant"
      value: 0.0
    }
    dilation: 1
  }
}
layer {
  name: "ctx_output2/relu_mbox_loc_perm"
  type: "Permute"
  bottom: "ctx_output2/relu_mbox_loc"
  top: "ctx_output2/relu_mbox_loc_perm"
  permute_param {
    order: 0
    order: 2
    order: 3
    order: 1
  }
}
layer {
  name: "ctx_output2/relu_mbox_loc_flat"
  type: "Flatten"
  bottom: "ctx_output2/relu_mbox_loc_perm"
  top: "ctx_output2/relu_mbox_loc_flat"
  flatten_param {
    axis: 1
  }
}
layer {
  name: "ctx_output2/relu_mbox_conf"
  type: "Convolution"
  bottom: "ctx_output2"
  top: "ctx_output2/relu_mbox_conf"
  param {
    lr_mult: 1.0
    decay_mult: 1.0
  }
  param {
    lr_mult: 2.0
    decay_mult: 0.0
  }
  convolution_param {
    num_output: 24
    bias_term: true
    pad: 0
    kernel_size: 1
    group: 1
    stride: 1
    weight_filler {
      type: "msra"
    }
    bias_filler {
      type: "constant"
      value: 0.0
    }
    dilation: 1
  }
}
layer {
  name: "ctx_output2/relu_mbox_conf_perm"
  type: "Permute"
  bottom: "ctx_output2/relu_mbox_conf"
  top: "ctx_output2/relu_mbox_conf_perm"
  permute_param {
    order: 0
    order: 2
    order: 3
    order: 1
  }
}
layer {
  name: "ctx_output2/relu_mbox_conf_flat"
  type: "Flatten"
  bottom: "ctx_output2/relu_mbox_conf_perm"
  top: "ctx_output2/relu_mbox_conf_flat"
  flatten_param {
    axis: 1
  }
}
layer {
  name: "ctx_output2/relu_mbox_priorbox"
  type: "PriorBox"
  bottom: "ctx_output2"
  bottom: "data"
  top: "ctx_output2/relu_mbox_priorbox"
  prior_box_param {
    min_size: 36.7999992371
    max_size: 110.400001526
    aspect_ratio: 2.0
    aspect_ratio: 3.0
    flip: true
    clip: false
    variance: 0.10000000149
    variance: 0.10000000149
    variance: 0.20000000298
    variance: 0.20000000298
    offset: 0.5
  }
}
layer {
  name: "ctx_output3/relu_mbox_loc"
  type: "Convolution"
  bottom: "ctx_output3"
  top: "ctx_output3/relu_mbox_loc"
  param {
    lr_mult: 1.0
    decay_mult: 1.0
  }
  param {
    lr_mult: 2.0
    decay_mult: 0.0
  }
  convolution_param {
    num_output: 24
    bias_term: true
    pad: 0
    kernel_size: 1
    group: 1
    stride: 1
    weight_filler {
      type: "msra"
    }
    bias_filler {
      type: "constant"
      value: 0.0
    }
    dilation: 1
  }
}
layer {
  name: "ctx_output3/relu_mbox_loc_perm"
  type: "Permute"
  bottom: "ctx_output3/relu_mbox_loc"
  top: "ctx_output3/relu_mbox_loc_perm"
  permute_param {
    order: 0
    order: 2
    order: 3
    order: 1
  }
}
layer {
  name: "ctx_output3/relu_mbox_loc_flat"
  type: "Flatten"
  bottom: "ctx_output3/relu_mbox_loc_perm"
  top: "ctx_output3/relu_mbox_loc_flat"
  flatten_param {
    axis: 1
  }
}
layer {
  name: "ctx_output3/relu_mbox_conf"
  type: "Convolution"
  bottom: "ctx_output3"
  top: "ctx_output3/relu_mbox_conf"
  param {
    lr_mult: 1.0
    decay_mult: 1.0
  }
  param {
    lr_mult: 2.0
    decay_mult: 0.0
  }
  convolution_param {
    num_output: 24
    bias_term: true
    pad: 0
    kernel_size: 1
    group: 1
    stride: 1
    weight_filler {
      type: "msra"
    }
    bias_filler {
      type: "constant"
      value: 0.0
    }
    dilation: 1
  }
}
layer {
  name: "ctx_output3/relu_mbox_conf_perm"
  type: "Permute"
  bottom: "ctx_output3/relu_mbox_conf"
  top: "ctx_output3/relu_mbox_conf_perm"
  permute_param {
    order: 0
    order: 2
    order: 3
    order: 1
  }
}
layer {
  name: "ctx_output3/relu_mbox_conf_flat"
  type: "Flatten"
  bottom: "ctx_output3/relu_mbox_conf_perm"
  top: "ctx_output3/relu_mbox_conf_flat"
  flatten_param {
    axis: 1
  }
}
layer {
  name: "ctx_output3/relu_mbox_priorbox"
  type: "PriorBox"
  bottom: "ctx_output3"
  bottom: "data"
  top: "ctx_output3/relu_mbox_priorbox"
  prior_box_param {
    min_size: 110.400001526
    max_size: 184.0
    aspect_ratio: 2.0
    aspect_ratio: 3.0
    flip: true
    clip: false
    variance: 0.10000000149
    variance: 0.10000000149
    variance: 0.20000000298
    variance: 0.20000000298
    offset: 0.5
  }
}
layer {
  name: "ctx_output4/relu_mbox_loc"
  type: "Convolution"
  bottom: "ctx_output4"
  top: "ctx_output4/relu_mbox_loc"
  param {
    lr_mult: 1.0
    decay_mult: 1.0
  }
  param {
    lr_mult: 2.0
    decay_mult: 0.0
  }
  convolution_param {
    num_output: 24
    bias_term: true
    pad: 0
    kernel_size: 1
    group: 1
    stride: 1
    weight_filler {
      type: "msra"
    }
    bias_filler {
      type: "constant"
      value: 0.0
    }
    dilation: 1
  }
}
layer {
  name: "ctx_output4/relu_mbox_loc_perm"
  type: "Permute"
  bottom: "ctx_output4/relu_mbox_loc"
  top: "ctx_output4/relu_mbox_loc_perm"
  permute_param {
    order: 0
    order: 2
    order: 3
    order: 1
  }
}
layer {
  name: "ctx_output4/relu_mbox_loc_flat"
  type: "Flatten"
  bottom: "ctx_output4/relu_mbox_loc_perm"
  top: "ctx_output4/relu_mbox_loc_flat"
  flatten_param {
    axis: 1
  }
}
layer {
  name: "ctx_output4/relu_mbox_conf"
  type: "Convolution"
  bottom: "ctx_output4"
  top: "ctx_output4/relu_mbox_conf"
  param {
    lr_mult: 1.0
    decay_mult: 1.0
  }
  param {
    lr_mult: 2.0
    decay_mult: 0.0
  }
  convolution_param {
    num_output: 24
    bias_term: true
    pad: 0
    kernel_size: 1
    group: 1
    stride: 1
    weight_filler {
      type: "msra"
    }
    bias_filler {
      type: "constant"
      value: 0.0
    }
    dilation: 1
  }
}
layer {
  name: "ctx_output4/relu_mbox_conf_perm"
  type: "Permute"
  bottom: "ctx_output4/relu_mbox_conf"
  top: "ctx_output4/relu_mbox_conf_perm"
  permute_param {
    order: 0
    order: 2
    order: 3
    order: 1
  }
}
layer {
  name: "ctx_output4/relu_mbox_conf_flat"
  type: "Flatten"
  bottom: "ctx_output4/relu_mbox_conf_perm"
  top: "ctx_output4/relu_mbox_conf_flat"
  flatten_param {
    axis: 1
  }
}
layer {
  name: "ctx_output4/relu_mbox_priorbox"
  type: "PriorBox"
  bottom: "ctx_output4"
  bottom: "data"
  top: "ctx_output4/relu_mbox_priorbox"
  prior_box_param {
    min_size: 184.0
    max_size: 257.600006104
    aspect_ratio: 2.0
    aspect_ratio: 3.0
    flip: true
    clip: false
    variance: 0.10000000149
    variance: 0.10000000149
    variance: 0.20000000298
    variance: 0.20000000298
    offset: 0.5
  }
}
layer {
  name: "ctx_output5/relu_mbox_loc"
  type: "Convolution"
  bottom: "ctx_output5"
  top: "ctx_output5/relu_mbox_loc"
  param {
    lr_mult: 1.0
    decay_mult: 1.0
  }
  param {
    lr_mult: 2.0
    decay_mult: 0.0
  }
  convolution_param {
    num_output: 16
    bias_term: true
    pad: 0
    kernel_size: 1
    group: 1
    stride: 1
    weight_filler {
      type: "msra"
    }
    bias_filler {
      type: "constant"
      value: 0.0
    }
    dilation: 1
  }
}
layer {
  name: "ctx_output5/relu_mbox_loc_perm"
  type: "Permute"
  bottom: "ctx_output5/relu_mbox_loc"
  top: "ctx_output5/relu_mbox_loc_perm"
  permute_param {
    order: 0
    order: 2
    order: 3
    order: 1
  }
}
layer {
  name: "ctx_output5/relu_mbox_loc_flat"
  type: "Flatten"
  bottom: "ctx_output5/relu_mbox_loc_perm"
  top: "ctx_output5/relu_mbox_loc_flat"
  flatten_param {
    axis: 1
  }
}
layer {
  name: "ctx_output5/relu_mbox_conf"
  type: "Convolution"
  bottom: "ctx_output5"
  top: "ctx_output5/relu_mbox_conf"
  param {
    lr_mult: 1.0
    decay_mult: 1.0
  }
  param {
    lr_mult: 2.0
    decay_mult: 0.0
  }
  convolution_param {
    num_output: 16
    bias_term: true
    pad: 0
    kernel_size: 1
    group: 1
    stride: 1
    weight_filler {
      type: "msra"
    }
    bias_filler {
      type: "constant"
      value: 0.0
    }
    dilation: 1
  }
}
layer {
  name: "ctx_output5/relu_mbox_conf_perm"
  type: "Permute"
  bottom: "ctx_output5/relu_mbox_conf"
  top: "ctx_output5/relu_mbox_conf_perm"
  permute_param {
    order: 0
    order: 2
    order: 3
    order: 1
  }
}
layer {
  name: "ctx_output5/relu_mbox_conf_flat"
  type: "Flatten"
  bottom: "ctx_output5/relu_mbox_conf_perm"
  top: "ctx_output5/relu_mbox_conf_flat"
  flatten_param {
    axis: 1
  }
}
layer {
  name: "ctx_output5/relu_mbox_priorbox"
  type: "PriorBox"
  bottom: "ctx_output5"
  bottom: "data"
  top: "ctx_output5/relu_mbox_priorbox"
  prior_box_param {
    min_size: 257.600006104
    max_size: 331.200012207
    aspect_ratio: 2.0
    flip: true
    clip: false
    variance: 0.10000000149
    variance: 0.10000000149
    variance: 0.20000000298
    variance: 0.20000000298
    offset: 0.5
  }
}
layer {
  name: "ctx_output6/relu_mbox_loc"
  type: "Convolution"
  bottom: "ctx_output6"
  top: "ctx_output6/relu_mbox_loc"
  param {
    lr_mult: 1.0
    decay_mult: 1.0
  }
  param {
    lr_mult: 2.0
    decay_mult: 0.0
  }
  convolution_param {
    num_output: 16
    bias_term: true
    pad: 0
    kernel_size: 1
    group: 1
    stride: 1
    weight_filler {
      type: "msra"
    }
    bias_filler {
      type: "constant"
      value: 0.0
    }
    dilation: 1
  }
}
layer {
  name: "ctx_output6/relu_mbox_loc_perm"
  type: "Permute"
  bottom: "ctx_output6/relu_mbox_loc"
  top: "ctx_output6/relu_mbox_loc_perm"
  permute_param {
    order: 0
    order: 2
    order: 3
    order: 1
  }
}
layer {
  name: "ctx_output6/relu_mbox_loc_flat"
  type: "Flatten"
  bottom: "ctx_output6/relu_mbox_loc_perm"
  top: "ctx_output6/relu_mbox_loc_flat"
  flatten_param {
    axis: 1
  }
}
layer {
  name: "ctx_output6/relu_mbox_conf"
  type: "Convolution"
  bottom: "ctx_output6"
  top: "ctx_output6/relu_mbox_conf"
  param {
    lr_mult: 1.0
    decay_mult: 1.0
  }
  param {
    lr_mult: 2.0
    decay_mult: 0.0
  }
  convolution_param {
    num_output: 16
    bias_term: true
    pad: 0
    kernel_size: 1
    group: 1
    stride: 1
    weight_filler {
      type: "msra"
    }
    bias_filler {
      type: "constant"
      value: 0.0
    }
    dilation: 1
  }
}
layer {
  name: "ctx_output6/relu_mbox_conf_perm"
  type: "Permute"
  bottom: "ctx_output6/relu_mbox_conf"
  top: "ctx_output6/relu_mbox_conf_perm"
  permute_param {
    order: 0
    order: 2
    order: 3
    order: 1
  }
}
layer {
  name: "ctx_output6/relu_mbox_conf_flat"
  type: "Flatten"
  bottom: "ctx_output6/relu_mbox_conf_perm"
  top: "ctx_output6/relu_mbox_conf_flat"
  flatten_param {
    axis: 1
  }
}
layer {
  name: "ctx_output6/relu_mbox_priorbox"
  type: "PriorBox"
  bottom: "ctx_output6"
  bottom: "data"
  top: "ctx_output6/relu_mbox_priorbox"
  prior_box_param {
    min_size: 331.200012207
    max_size: 404.799987793
    aspect_ratio: 2.0
    flip: true
    clip: false
    variance: 0.10000000149
    variance: 0.10000000149
    variance: 0.20000000298
    variance: 0.20000000298
    offset: 0.5
  }
}
layer {
  name: "mbox_loc"
  type: "Concat"
  bottom: "ctx_output1/relu_mbox_loc_flat"
  bottom: "ctx_output2/relu_mbox_loc_flat"
  bottom: "ctx_output3/relu_mbox_loc_flat"
  bottom: "ctx_output4/relu_mbox_loc_flat"
  bottom: "ctx_output5/relu_mbox_loc_flat"
  bottom: "ctx_output6/relu_mbox_loc_flat"
  top: "mbox_loc"
  concat_param {
    axis: 1
  }
}
layer {
  name: "mbox_conf"
  type: "Concat"
  bottom: "ctx_output1/relu_mbox_conf_flat"
  bottom: "ctx_output2/relu_mbox_conf_flat"
  bottom: "ctx_output3/relu_mbox_conf_flat"
  bottom: "ctx_output4/relu_mbox_conf_flat"
  bottom: "ctx_output5/relu_mbox_conf_flat"
  bottom: "ctx_output6/relu_mbox_conf_flat"
  top: "mbox_conf"
  concat_param {
    axis: 1
  }
}
layer {
  name: "mbox_priorbox"
  type: "Concat"
  bottom: "ctx_output1/relu_mbox_priorbox"
  bottom: "ctx_output2/relu_mbox_priorbox"
  bottom: "ctx_output3/relu_mbox_priorbox"
  bottom: "ctx_output4/relu_mbox_priorbox"
  bottom: "ctx_output5/relu_mbox_priorbox"
  bottom: "ctx_output6/relu_mbox_priorbox"
  top: "mbox_priorbox"
  concat_param {
    axis: 2
  }
}
layer {
  name: "mbox_loss"
  type: "MultiBoxLoss"
  bottom: "mbox_loc"
  bottom: "mbox_conf"
  bottom: "mbox_priorbox"
  bottom: "label"
  top: "mbox_loss"
  include {
    phase: TRAIN
  }
  propagate_down: true
  propagate_down: true
  propagate_down: false
  propagate_down: false
  loss_param {
    normalization: VALID
  }
  multibox_loss_param {
    loc_loss_type: SMOOTH_L1
    conf_loss_type: SOFTMAX
    loc_weight: 1.0
    num_classes: 4
    share_location: true
    match_type: PER_PREDICTION
    overlap_threshold: 0.5
    use_prior_for_matching: true
    background_label_id: 0
    use_difficult_gt: false
    neg_pos_ratio: 3.0
    neg_overlap: 0.5
    code_type: CENTER_SIZE
    ignore_cross_boundary_bbox: false
    mining_type: MAX_NEGATIVE
    ignore_difficult_gt: false
  }
}

