Logging output to training/EYES/JDetNet/20200513_03-00_ssdSize512x512_dsFac32_dsTypePSP_rWidthHeight768x320_batchNorm0/train-log_20200513_03-00.txt
training/EYES/JDetNet/20200513_03-00_ssdSize512x512_dsFac32_dsTypePSP_rWidthHeight768x320_batchNorm0/test
{'type':'Adam','base_lr':1e-2,'max_iter':120000,'lr_policy':'poly','power':4.0,'stepvalue':[30000,45000,300000],'regularization_type':'L1','weight_decay':1e-5,'sparse_mode':1,'display_sparsity':1000}
{'config_name':'training/EYES/JDetNet/20200513_03-00_ssdSize512x512_dsFac32_dsTypePSP_rWidthHeight768x320_batchNorm0/test','model_name':'ssdJacintoNetV2','dataset':'EYES','gpus':'0','train_data':'/workspace/data/lmdb/EYES/EYES_trainval_lmdb','test_data':'/workspace/data/lmdb/EYES/official_test_850images','name_size_file':'/workspace/caffe-jacinto/data/EYES/test_name_size.txt','label_map_file':'/workspace/caffe-jacinto/data/EYES/labelmap_eye.prototxt','num_test_image':1151,'num_classes':4,'min_ratio':10,'max_ratio':90,
'log_space_steps':2,'use_difficult_gt':0,'ignore_difficult_gt':0,'evaluate_difficult_gt':0,'pretrain_model':'/workspace/caffe-jacinto-models/scripts/training/EYES/JDetNet/20200511_10-37_ssdSize512x512_dsFac32_dsTypePSP_rWidthHeight768x320_batchNorm0/sparse/EYES_ssdJacintoNetV2_iter_20000.caffemodel','use_image_list':0,'shuffle':0,'num_output':8,'resize_width':768,'resize_height':320,'crop_width':768,'crop_height':320,'batch_size':16,'test_batch_size':10,'caffe_cmd':'test_detection','display_sparsity':1,'aspect_ratios_type':1,'ssd_size':'512x512','small_objs':1,'min_dim':368,'concat_reg_head':0,
'fully_conv_at_end':0,'first_hd_same_op_ch':1,'ker_mbox_loc_conf':1,'base_nw_3_head':0,'reg_head_at_ds8':1,'ds_fac':32,'ds_type':'PSP','rhead_name_non_linear':0,'force_color':0,'num_intermediate':512,'use_batchnorm_mbox':0,'chop_num_heads':0}
caffe_root = :  /workspace/caffe-jacinto/build/tools/caffe.bin
config_param.ds_fac : 32
config_param.stride_list : [2, 2, 2, 2, 2]
num_gpus: 1  gpulist: ['0']
min_dim = 368
ratio_step_size: 20
minsizes = [14.72, 36.8, 110.4, 184.0, 257.6, 331.2]
maxsizes = [36.8, 110.4, 184.0, 257.6, 331.2, 404.8]
ARs: [[2], [2, 3], [2, 3], [2, 3], [2], [2]]
training/EYES/JDetNet/20200513_03-00_ssdSize512x512_dsFac32_dsTypePSP_rWidthHeight768x320_batchNorm0/test/train.prototxt
training/EYES/JDetNet/20200513_03-00_ssdSize512x512_dsFac32_dsTypePSP_rWidthHeight768x320_batchNorm0/test_quantize
{'type':'Adam','base_lr':1e-2,'max_iter':120000,'lr_policy':'poly','power':4.0,'stepvalue':[30000,45000,300000],'regularization_type':'L1','weight_decay':1e-5,'sparse_mode':1,'display_sparsity':1000}
{'config_name':'training/EYES/JDetNet/20200513_03-00_ssdSize512x512_dsFac32_dsTypePSP_rWidthHeight768x320_batchNorm0/test_quantize','model_name':'ssdJacintoNetV2','dataset':'EYES','gpus':'0','train_data':'/workspace/data/lmdb/EYES/EYES_trainval_lmdb','test_data':'/workspace/data/lmdb/EYES/official_test_850images','name_size_file':'/workspace/caffe-jacinto/data/EYES/test_name_size.txt','label_map_file':'/workspace/caffe-jacinto/data/EYES/labelmap_eye.prototxt','num_test_image':1151,'num_classes':4,'min_ratio':10,'max_ratio':90,
'log_space_steps':2,'use_difficult_gt':0,'ignore_difficult_gt':0,'evaluate_difficult_gt':0,'pretrain_model':'/workspace/caffe-jacinto-models/scripts/training/EYES/JDetNet/20200511_10-37_ssdSize512x512_dsFac32_dsTypePSP_rWidthHeight768x320_batchNorm0/sparse/EYES_ssdJacintoNetV2_iter_20000.caffemodel','use_image_list':0,'shuffle':0,'num_output':8,'resize_width':768,'resize_height':320,'crop_width':768,'crop_height':320,'batch_size':16,'test_batch_size':10,'caffe_cmd':'test_detection','aspect_ratios_type':1,'ssd_size':'512x512','small_objs':1,'min_dim':368,'concat_reg_head':0,
'fully_conv_at_end':0,'first_hd_same_op_ch':1,'ker_mbox_loc_conf':1,'base_nw_3_head':0,'reg_head_at_ds8':1,'ds_fac':32,'ds_type':'PSP','rhead_name_non_linear':0,'force_color':0,'num_intermediate':512,'use_batchnorm_mbox':0,'chop_num_heads':0}
caffe_root = :  /workspace/caffe-jacinto/build/tools/caffe.bin
config_param.ds_fac : 32
config_param.stride_list : [2, 2, 2, 2, 2]
num_gpus: 1  gpulist: ['0']
min_dim = 368
ratio_step_size: 20
minsizes = [14.72, 36.8, 110.4, 184.0, 257.6, 331.2]
maxsizes = [36.8, 110.4, 184.0, 257.6, 331.2, 404.8]
ARs: [[2], [2, 3], [2, 3], [2, 3], [2], [2]]
training/EYES/JDetNet/20200513_03-00_ssdSize512x512_dsFac32_dsTypePSP_rWidthHeight768x320_batchNorm0/test_quantize/train.prototxt
I0513 03:00:05.239436   597 caffe.cpp:902] This is NVCaffe 0.17.0 started at Wed May 13 03:00:05 2020
I0513 03:00:05.503688   597 caffe.cpp:904] CuDNN version: 7605
I0513 03:00:05.503693   597 caffe.cpp:905] CuBLAS version: 10202
I0513 03:00:05.503697   597 caffe.cpp:906] CUDA version: 10020
I0513 03:00:05.503700   597 caffe.cpp:907] CUDA driver version: 10020
I0513 03:00:05.503703   597 caffe.cpp:908] Arguments: 
[0]: /workspace/caffe-jacinto/build/tools/caffe.bin
[1]: test_detection
[2]: --model=training/EYES/JDetNet/20200513_03-00_ssdSize512x512_dsFac32_dsTypePSP_rWidthHeight768x320_batchNorm0/test/test.prototxt
[3]: --iterations=116
[4]: --display_sparsity=1
[5]: --weights=/workspace/caffe-jacinto-models/scripts/training/EYES/JDetNet/20200511_10-37_ssdSize512x512_dsFac32_dsTypePSP_rWidthHeight768x320_batchNorm0/sparse/EYES_ssdJacintoNetV2_iter_20000.caffemodel
[6]: --gpu
[7]: 0
I0513 03:00:05.524830   597 gpu_memory.cpp:105] GPUMemory::Manager initialized
I0513 03:00:05.524859   597 gpu_memory.cpp:107] Total memory: 16900227072, Free: 16697655296, dev_info[0]: total=16900227072 free=16697655296
I0513 03:00:05.525058   597 caffe.cpp:406] Use GPU with device ID 0
I0513 03:00:05.525173   597 caffe.cpp:409] GPU device name: Quadro RTX 5000
I0513 03:00:05.536568   597 net.cpp:80] Initializing net from parameters: 
name: "ssdJacintoNetV2_test"
state {
  phase: TEST
  level: 0
}
layer {
  name: "data"
  type: "AnnotatedData"
  top: "data"
  top: "label"
  include {
    phase: TEST
  }
  transform_param {
    mean_value: 0
    mean_value: 0
    mean_value: 0
    force_color: false
    resize_param {
      prob: 1
      resize_mode: WARP
      height: 320
      width: 768
      interp_mode: LINEAR
    }
    crop_h: 320
    crop_w: 768
  }
  data_param {
    source: "/workspace/data/lmdb/EYES/official_test_850images"
    batch_size: 10
    backend: LMDB
    threads: 4
    parser_threads: 4
  }
  annotated_data_param {
    batch_sampler {
    }
    label_map_file: "/workspace/caffe-jacinto/data/EYES/labelmap_eye.prototxt"
  }
}
layer {
  name: "data/bias"
  type: "Bias"
  bottom: "data"
  top: "data/bias"
  param {
    lr_mult: 0
    decay_mult: 0
  }
  bias_param {
    filler {
      type: "constant"
      value: -128
    }
  }
}
layer {
  name: "conv1a"
  type: "Convolution"
  bottom: "data/bias"
  top: "conv1a"
  param {
    lr_mult: 1
    decay_mult: 1
  }
  param {
    lr_mult: 2
    decay_mult: 0
  }
  convolution_param {
    num_output: 32
    bias_term: true
    pad: 2
    kernel_size: 5
    group: 1
    stride: 2
    weight_filler {
      type: "msra"
    }
    bias_filler {
      type: "constant"
      value: 0
    }
    dilation: 1
  }
}
layer {
  name: "conv1a/bn"
  type: "BatchNorm"
  bottom: "conv1a"
  top: "conv1a"
  batch_norm_param {
    moving_average_fraction: 0.99
    eps: 0.0001
    scale_bias: true
  }
}
layer {
  name: "conv1a/relu"
  type: "ReLU"
  bottom: "conv1a"
  top: "conv1a"
}
layer {
  name: "conv1b"
  type: "Convolution"
  bottom: "conv1a"
  top: "conv1b"
  param {
    lr_mult: 1
    decay_mult: 1
  }
  param {
    lr_mult: 2
    decay_mult: 0
  }
  convolution_param {
    num_output: 32
    bias_term: true
    pad: 1
    kernel_size: 3
    group: 4
    stride: 1
    weight_filler {
      type: "msra"
    }
    bias_filler {
      type: "constant"
      value: 0
    }
    dilation: 1
  }
}
layer {
  name: "conv1b/bn"
  type: "BatchNorm"
  bottom: "conv1b"
  top: "conv1b"
  batch_norm_param {
    moving_average_fraction: 0.99
    eps: 0.0001
    scale_bias: true
  }
}
layer {
  name: "conv1b/relu"
  type: "ReLU"
  bottom: "conv1b"
  top: "conv1b"
}
layer {
  name: "pool1"
  type: "Pooling"
  bottom: "conv1b"
  top: "pool1"
  pooling_param {
    pool: MAX
    kernel_size: 2
    stride: 2
  }
}
layer {
  name: "res2a_branch2a"
  type: "Convolution"
  bottom: "pool1"
  top: "res2a_branch2a"
  param {
    lr_mult: 1
    decay_mult: 1
  }
  param {
    lr_mult: 2
    decay_mult: 0
  }
  convolution_param {
    num_output: 64
    bias_term: true
    pad: 1
    kernel_size: 3
    group: 1
    stride: 1
    weight_filler {
      type: "msra"
    }
    bias_filler {
      type: "constant"
      value: 0
    }
    dilation: 1
  }
}
layer {
  name: "res2a_branch2a/bn"
  type: "BatchNorm"
  bottom: "res2a_branch2a"
  top: "res2a_branch2a"
  batch_norm_param {
    moving_average_fraction: 0.99
    eps: 0.0001
    scale_bias: true
  }
}
layer {
  name: "res2a_branch2a/relu"
  type: "ReLU"
  bottom: "res2a_branch2a"
  top: "res2a_branch2a"
}
layer {
  name: "res2a_branch2b"
  type: "Convolution"
  bottom: "res2a_branch2a"
  top: "res2a_branch2b"
  param {
    lr_mult: 1
    decay_mult: 1
  }
  param {
    lr_mult: 2
    decay_mult: 0
  }
  convolution_param {
    num_output: 64
    bias_term: true
    pad: 1
    kernel_size: 3
    group: 4
    stride: 1
    weight_filler {
      type: "msra"
    }
    bias_filler {
      type: "constant"
      value: 0
    }
    dilation: 1
  }
}
layer {
  name: "res2a_branch2b/bn"
  type: "BatchNorm"
  bottom: "res2a_branch2b"
  top: "res2a_branch2b"
  batch_norm_param {
    moving_average_fraction: 0.99
    eps: 0.0001
    scale_bias: true
  }
}
layer {
  name: "res2a_branch2b/relu"
  type: "ReLU"
  bottom: "res2a_branch2b"
  top: "res2a_branch2b"
}
layer {
  name: "pool2"
  type: "Pooling"
  bottom: "res2a_branch2b"
  top: "pool2"
  pooling_param {
    pool: MAX
    kernel_size: 2
    stride: 2
  }
}
layer {
  name: "res3a_branch2a"
  type: "Convolution"
  bottom: "pool2"
  top: "res3a_branch2a"
  param {
    lr_mult: 1
    decay_mult: 1
  }
  param {
    lr_mult: 2
    decay_mult: 0
  }
  convolution_param {
    num_output: 128
    bias_term: true
    pad: 1
    kernel_size: 3
    group: 1
    stride: 1
    weight_filler {
      type: "msra"
    }
    bias_filler {
      type: "constant"
      value: 0
    }
    dilation: 1
  }
}
layer {
  name: "res3a_branch2a/bn"
  type: "BatchNorm"
  bottom: "res3a_branch2a"
  top: "res3a_branch2a"
  batch_norm_param {
    moving_average_fraction: 0.99
    eps: 0.0001
    scale_bias: true
  }
}
layer {
  name: "res3a_branch2a/relu"
  type: "ReLU"
  bottom: "res3a_branch2a"
  top: "res3a_branch2a"
}
layer {
  name: "res3a_branch2b"
  type: "Convolution"
  bottom: "res3a_branch2a"
  top: "res3a_branch2b"
  param {
    lr_mult: 1
    decay_mult: 1
  }
  param {
    lr_mult: 2
    decay_mult: 0
  }
  convolution_param {
    num_output: 128
    bias_term: true
    pad: 1
    kernel_size: 3
    group: 4
    stride: 1
    weight_filler {
      type: "msra"
    }
    bias_filler {
      type: "constant"
      value: 0
    }
    dilation: 1
  }
}
layer {
  name: "res3a_branch2b/bn"
  type: "BatchNorm"
  bottom: "res3a_branch2b"
  top: "res3a_branch2b"
  batch_norm_param {
    moving_average_fraction: 0.99
    eps: 0.0001
    scale_bias: true
  }
}
layer {
  name: "res3a_branch2b/relu"
  type: "ReLU"
  bottom: "res3a_branch2b"
  top: "res3a_branch2b"
}
layer {
  name: "pool3"
  type: "Pooling"
  bottom: "res3a_branch2b"
  top: "pool3"
  pooling_param {
    pool: MAX
    kernel_size: 2
    stride: 2
  }
}
layer {
  name: "res4a_branch2a"
  type: "Convolution"
  bottom: "pool3"
  top: "res4a_branch2a"
  param {
    lr_mult: 1
    decay_mult: 1
  }
  param {
    lr_mult: 2
    decay_mult: 0
  }
  convolution_param {
    num_output: 256
    bias_term: true
    pad: 1
    kernel_size: 3
    group: 1
    stride: 1
    weight_filler {
      type: "msra"
    }
    bias_filler {
      type: "constant"
      value: 0
    }
    dilation: 1
  }
}
layer {
  name: "res4a_branch2a/bn"
  type: "BatchNorm"
  bottom: "res4a_branch2a"
  top: "res4a_branch2a"
  batch_norm_param {
    moving_average_fraction: 0.99
    eps: 0.0001
    scale_bias: true
  }
}
layer {
  name: "res4a_branch2a/relu"
  type: "ReLU"
  bottom: "res4a_branch2a"
  top: "res4a_branch2a"
}
layer {
  name: "res4a_branch2b"
  type: "Convolution"
  bottom: "res4a_branch2a"
  top: "res4a_branch2b"
  param {
    lr_mult: 1
    decay_mult: 1
  }
  param {
    lr_mult: 2
    decay_mult: 0
  }
  convolution_param {
    num_output: 256
    bias_term: true
    pad: 1
    kernel_size: 3
    group: 4
    stride: 1
    weight_filler {
      type: "msra"
    }
    bias_filler {
      type: "constant"
      value: 0
    }
    dilation: 1
  }
}
layer {
  name: "res4a_branch2b/bn"
  type: "BatchNorm"
  bottom: "res4a_branch2b"
  top: "res4a_branch2b"
  batch_norm_param {
    moving_average_fraction: 0.99
    eps: 0.0001
    scale_bias: true
  }
}
layer {
  name: "res4a_branch2b/relu"
  type: "ReLU"
  bottom: "res4a_branch2b"
  top: "res4a_branch2b"
}
layer {
  name: "pool4"
  type: "Pooling"
  bottom: "res4a_branch2b"
  top: "pool4"
  pooling_param {
    pool: MAX
    kernel_size: 2
    stride: 2
  }
}
layer {
  name: "res5a_branch2a"
  type: "Convolution"
  bottom: "pool4"
  top: "res5a_branch2a"
  param {
    lr_mult: 1
    decay_mult: 1
  }
  param {
    lr_mult: 2
    decay_mult: 0
  }
  convolution_param {
    num_output: 512
    bias_term: true
    pad: 1
    kernel_size: 3
    group: 1
    stride: 1
    weight_filler {
      type: "msra"
    }
    bias_filler {
      type: "constant"
      value: 0
    }
    dilation: 1
  }
}
layer {
  name: "res5a_branch2a/bn"
  type: "BatchNorm"
  bottom: "res5a_branch2a"
  top: "res5a_branch2a"
  batch_norm_param {
    moving_average_fraction: 0.99
    eps: 0.0001
    scale_bias: true
  }
}
layer {
  name: "res5a_branch2a/relu"
  type: "ReLU"
  bottom: "res5a_branch2a"
  top: "res5a_branch2a"
}
layer {
  name: "res5a_branch2b"
  type: "Convolution"
  bottom: "res5a_branch2a"
  top: "res5a_branch2b"
  param {
    lr_mult: 1
    decay_mult: 1
  }
  param {
    lr_mult: 2
    decay_mult: 0
  }
  convolution_param {
    num_output: 512
    bias_term: true
    pad: 1
    kernel_size: 3
    group: 4
    stride: 1
    weight_filler {
      type: "msra"
    }
    bias_filler {
      type: "constant"
      value: 0
    }
    dilation: 1
  }
}
layer {
  name: "res5a_branch2b/bn"
  type: "BatchNorm"
  bottom: "res5a_branch2b"
  top: "res5a_branch2b"
  batch_norm_param {
    moving_average_fraction: 0.99
    eps: 0.0001
    scale_bias: true
  }
}
layer {
  name: "res5a_branch2b/relu"
  type: "ReLU"
  bottom: "res5a_branch2b"
  top: "res5a_branch2b"
}
layer {
  name: "pool6"
  type: "Pooling"
  bottom: "res5a_branch2b"
  top: "pool6"
  pooling_param {
    pool: MAX
    kernel_size: 2
    stride: 2
    pad: 0
  }
}
layer {
  name: "pool7"
  type: "Pooling"
  bottom: "pool6"
  top: "pool7"
  pooling_param {
    pool: MAX
    kernel_size: 2
    stride: 2
    pad: 0
  }
}
layer {
  name: "pool8"
  type: "Pooling"
  bottom: "pool7"
  top: "pool8"
  pooling_param {
    pool: MAX
    kernel_size: 2
    stride: 2
    pad: 0
  }
}
layer {
  name: "pool9"
  type: "Pooling"
  bottom: "pool8"
  top: "pool9"
  pooling_param {
    pool: MAX
    kernel_size: 2
    stride: 2
    pad: 0
  }
}
layer {
  name: "ctx_output1"
  type: "Convolution"
  bottom: "res3a_branch2b"
  top: "ctx_output1"
  param {
    lr_mult: 1
    decay_mult: 1
  }
  param {
    lr_mult: 2
    decay_mult: 0
  }
  convolution_param {
    num_output: 256
    bias_term: true
    pad: 0
    kernel_size: 1
    group: 1
    stride: 1
    weight_filler {
      type: "msra"
    }
    bias_filler {
      type: "constant"
      value: 0
    }
    dilation: 1
  }
}
layer {
  name: "ctx_output1/relu"
  type: "ReLU"
  bottom: "ctx_output1"
  top: "ctx_output1"
}
layer {
  name: "ctx_output2"
  type: "Convolution"
  bottom: "res5a_branch2b"
  top: "ctx_output2"
  param {
    lr_mult: 1
    decay_mult: 1
  }
  param {
    lr_mult: 2
    decay_mult: 0
  }
  convolution_param {
    num_output: 256
    bias_term: true
    pad: 0
    kernel_size: 1
    group: 1
    stride: 1
    weight_filler {
      type: "msra"
    }
    bias_filler {
      type: "constant"
      value: 0
    }
    dilation: 1
  }
}
layer {
  name: "ctx_output2/relu"
  type: "ReLU"
  bottom: "ctx_output2"
  top: "ctx_output2"
}
layer {
  name: "ctx_output3"
  type: "Convolution"
  bottom: "pool6"
  top: "ctx_output3"
  param {
    lr_mult: 1
    decay_mult: 1
  }
  param {
    lr_mult: 2
    decay_mult: 0
  }
  convolution_param {
    num_output: 256
    bias_term: true
    pad: 0
    kernel_size: 1
    group: 1
    stride: 1
    weight_filler {
      type: "msra"
    }
    bias_filler {
      type: "constant"
      value: 0
    }
    dilation: 1
  }
}
layer {
  name: "ctx_output3/relu"
  type: "ReLU"
  bottom: "ctx_output3"
  top: "ctx_output3"
}
layer {
  name: "ctx_output4"
  type: "Convolution"
  bottom: "pool7"
  top: "ctx_output4"
  param {
    lr_mult: 1
    decay_mult: 1
  }
  param {
    lr_mult: 2
    decay_mult: 0
  }
  convolution_param {
    num_output: 256
    bias_term: true
    pad: 0
    kernel_size: 1
    group: 1
    stride: 1
    weight_filler {
      type: "msra"
    }
    bias_filler {
      type: "constant"
      value: 0
    }
    dilation: 1
  }
}
layer {
  name: "ctx_output4/relu"
  type: "ReLU"
  bottom: "ctx_output4"
  top: "ctx_output4"
}
layer {
  name: "ctx_output5"
  type: "Convolution"
  bottom: "pool8"
  top: "ctx_output5"
  param {
    lr_mult: 1
    decay_mult: 1
  }
  param {
    lr_mult: 2
    decay_mult: 0
  }
  convolution_param {
    num_output: 256
    bias_term: true
    pad: 0
    kernel_size: 1
    group: 1
    stride: 1
    weight_filler {
      type: "msra"
    }
    bias_filler {
      type: "constant"
      value: 0
    }
    dilation: 1
  }
}
layer {
  name: "ctx_output5/relu"
  type: "ReLU"
  bottom: "ctx_output5"
  top: "ctx_output5"
}
layer {
  name: "ctx_output6"
  type: "Convolution"
  bottom: "pool9"
  top: "ctx_output6"
  param {
    lr_mult: 1
    decay_mult: 1
  }
  param {
    lr_mult: 2
    decay_mult: 0
  }
  convolution_param {
    num_output: 256
    bias_term: true
    pad: 0
    kernel_size: 1
    group: 1
    stride: 1
    weight_filler {
      type: "msra"
    }
    bias_filler {
      type: "constant"
      value: 0
    }
    dilation: 1
  }
}
layer {
  name: "ctx_output6/relu"
  type: "ReLU"
  bottom: "ctx_output6"
  top: "ctx_output6"
}
layer {
  name: "ctx_output1/relu_mbox_loc"
  type: "Convolution"
  bottom: "ctx_output1"
  top: "ctx_output1/relu_mbox_loc"
  param {
    lr_mult: 1
    decay_mult: 1
  }
  param {
    lr_mult: 2
    decay_mult: 0
  }
  convolution_param {
    num_output: 16
    bias_term: true
    pad: 0
    kernel_size: 1
    group: 1
    stride: 1
    weight_filler {
      type: "msra"
    }
    bias_filler {
      type: "constant"
      value: 0
    }
    dilation: 1
  }
}
layer {
  name: "ctx_output1/relu_mbox_loc_perm"
  type: "Permute"
  bottom: "ctx_output1/relu_mbox_loc"
  top: "ctx_output1/relu_mbox_loc_perm"
  permute_param {
    order: 0
    order: 2
    order: 3
    order: 1
  }
}
layer {
  name: "ctx_output1/relu_mbox_loc_flat"
  type: "Flatten"
  bottom: "ctx_output1/relu_mbox_loc_perm"
  top: "ctx_output1/relu_mbox_loc_flat"
  flatten_param {
    axis: 1
  }
}
layer {
  name: "ctx_output1/relu_mbox_conf"
  type: "Convolution"
  bottom: "ctx_output1"
  top: "ctx_output1/relu_mbox_conf"
  param {
    lr_mult: 1
    decay_mult: 1
  }
  param {
    lr_mult: 2
    decay_mult: 0
  }
  convolution_param {
    num_output: 16
    bias_term: true
    pad: 0
    kernel_size: 1
    group: 1
    stride: 1
    weight_filler {
      type: "msra"
    }
    bias_filler {
      type: "constant"
      value: 0
    }
    dilation: 1
  }
}
layer {
  name: "ctx_output1/relu_mbox_conf_perm"
  type: "Permute"
  bottom: "ctx_output1/relu_mbox_conf"
  top: "ctx_output1/relu_mbox_conf_perm"
  permute_param {
    order: 0
    order: 2
    order: 3
    order: 1
  }
}
layer {
  name: "ctx_output1/relu_mbox_conf_flat"
  type: "Flatten"
  bottom: "ctx_output1/relu_mbox_conf_perm"
  top: "ctx_output1/relu_mbox_conf_flat"
  flatten_param {
    axis: 1
  }
}
layer {
  name: "ctx_output1/relu_mbox_priorbox"
  type: "PriorBox"
  bottom: "ctx_output1"
  bottom: "data"
  top: "ctx_output1/relu_mbox_priorbox"
  prior_box_param {
    min_size: 14.72
    max_size: 36.8
    aspect_ratio: 2
    flip: true
    clip: false
    variance: 0.1
    variance: 0.1
    variance: 0.2
    variance: 0.2
    offset: 0.5
  }
}
layer {
  name: "ctx_output2/relu_mbox_loc"
  type: "Convolution"
  bottom: "ctx_output2"
  top: "ctx_output2/relu_mbox_loc"
  param {
    lr_mult: 1
    decay_mult: 1
  }
  param {
    lr_mult: 2
    decay_mult: 0
  }
  convolution_param {
    num_output: 24
    bias_term: true
    pad: 0
    kernel_size: 1
    group: 1
    stride: 1
    weight_filler {
      type: "msra"
    }
    bias_filler {
      type: "constant"
      value: 0
    }
    dilation: 1
  }
}
layer {
  name: "ctx_output2/relu_mbox_loc_perm"
  type: "Permute"
  bottom: "ctx_output2/relu_mbox_loc"
  top: "ctx_output2/relu_mbox_loc_perm"
  permute_param {
    order: 0
    order: 2
    order: 3
    order: 1
  }
}
layer {
  name: "ctx_output2/relu_mbox_loc_flat"
  type: "Flatten"
  bottom: "ctx_output2/relu_mbox_loc_perm"
  top: "ctx_output2/relu_mbox_loc_flat"
  flatten_param {
    axis: 1
  }
}
layer {
  name: "ctx_output2/relu_mbox_conf"
  type: "Convolution"
  bottom: "ctx_output2"
  top: "ctx_output2/relu_mbox_conf"
  param {
    lr_mult: 1
    decay_mult: 1
  }
  param {
    lr_mult: 2
    decay_mult: 0
  }
  convolution_param {
    num_output: 24
    bias_term: true
    pad: 0
    kernel_size: 1
    group: 1
    stride: 1
    weight_filler {
      type: "msra"
    }
    bias_filler {
      type: "constant"
      value: 0
    }
    dilation: 1
  }
}
layer {
  name: "ctx_output2/relu_mbox_conf_perm"
  type: "Permute"
  bottom: "ctx_output2/relu_mbox_conf"
  top: "ctx_output2/relu_mbox_conf_perm"
  permute_param {
    order: 0
    order: 2
    order: 3
    order: 1
  }
}
layer {
  name: "ctx_output2/relu_mbox_conf_flat"
  type: "Flatten"
  bottom: "ctx_output2/relu_mbox_conf_perm"
  top: "ctx_output2/relu_mbox_conf_flat"
  flatten_param {
    axis: 1
  }
}
layer {
  name: "ctx_output2/relu_mbox_priorbox"
  type: "PriorBox"
  bottom: "ctx_output2"
  bottom: "data"
  top: "ctx_output2/relu_mbox_priorbox"
  prior_box_param {
    min_size: 36.8
    max_size: 110.4
    aspect_ratio: 2
    aspect_ratio: 3
    flip: true
    clip: false
    variance: 0.1
    variance: 0.1
    variance: 0.2
    variance: 0.2
    offset: 0.5
  }
}
layer {
  name: "ctx_output3/relu_mbox_loc"
  type: "Convolution"
  bottom: "ctx_output3"
  top: "ctx_output3/relu_mbox_loc"
  param {
    lr_mult: 1
    decay_mult: 1
  }
  param {
    lr_mult: 2
    decay_mult: 0
  }
  convolution_param {
    num_output: 24
    bias_term: true
    pad: 0
    kernel_size: 1
    group: 1
    stride: 1
    weight_filler {
      type: "msra"
    }
    bias_filler {
      type: "constant"
      value: 0
    }
    dilation: 1
  }
}
layer {
  name: "ctx_output3/relu_mbox_loc_perm"
  type: "Permute"
  bottom: "ctx_output3/relu_mbox_loc"
  top: "ctx_output3/relu_mbox_loc_perm"
  permute_param {
    order: 0
    order: 2
    order: 3
    order: 1
  }
}
layer {
  name: "ctx_output3/relu_mbox_loc_flat"
  type: "Flatten"
  bottom: "ctx_output3/relu_mbox_loc_perm"
  top: "ctx_output3/relu_mbox_loc_flat"
  flatten_param {
    axis: 1
  }
}
layer {
  name: "ctx_output3/relu_mbox_conf"
  type: "Convolution"
  bottom: "ctx_output3"
  top: "ctx_output3/relu_mbox_conf"
  param {
    lr_mult: 1
    decay_mult: 1
  }
  param {
    lr_mult: 2
    decay_mult: 0
  }
  convolution_param {
    num_output: 24
    bias_term: true
    pad: 0
    kernel_size: 1
    group: 1
    stride: 1
    weight_filler {
      type: "msra"
    }
    bias_filler {
      type: "constant"
      value: 0
    }
    dilation: 1
  }
}
layer {
  name: "ctx_output3/relu_mbox_conf_perm"
  type: "Permute"
  bottom: "ctx_output3/relu_mbox_conf"
  top: "ctx_output3/relu_mbox_conf_perm"
  permute_param {
    order: 0
    order: 2
    order: 3
    order: 1
  }
}
layer {
  name: "ctx_output3/relu_mbox_conf_flat"
  type: "Flatten"
  bottom: "ctx_output3/relu_mbox_conf_perm"
  top: "ctx_output3/relu_mbox_conf_flat"
  flatten_param {
    axis: 1
  }
}
layer {
  name: "ctx_output3/relu_mbox_priorbox"
  type: "PriorBox"
  bottom: "ctx_output3"
  bottom: "data"
  top: "ctx_output3/relu_mbox_priorbox"
  prior_box_param {
    min_size: 110.4
    max_size: 184
    aspect_ratio: 2
    aspect_ratio: 3
    flip: true
    clip: false
    variance: 0.1
    variance: 0.1
    variance: 0.2
    variance: 0.2
    offset: 0.5
  }
}
layer {
  name: "ctx_output4/relu_mbox_loc"
  type: "Convolution"
  bottom: "ctx_output4"
  top: "ctx_output4/relu_mbox_loc"
  param {
    lr_mult: 1
    decay_mult: 1
  }
  param {
    lr_mult: 2
    decay_mult: 0
  }
  convolution_param {
    num_output: 24
    bias_term: true
    pad: 0
    kernel_size: 1
    group: 1
    stride: 1
    weight_filler {
      type: "msra"
    }
    bias_filler {
      type: "constant"
      value: 0
    }
    dilation: 1
  }
}
layer {
  name: "ctx_output4/relu_mbox_loc_perm"
  type: "Permute"
  bottom: "ctx_output4/relu_mbox_loc"
  top: "ctx_output4/relu_mbox_loc_perm"
  permute_param {
    order: 0
    order: 2
    order: 3
    order: 1
  }
}
layer {
  name: "ctx_output4/relu_mbox_loc_flat"
  type: "Flatten"
  bottom: "ctx_output4/relu_mbox_loc_perm"
  top: "ctx_output4/relu_mbox_loc_flat"
  flatten_param {
    axis: 1
  }
}
layer {
  name: "ctx_output4/relu_mbox_conf"
  type: "Convolution"
  bottom: "ctx_output4"
  top: "ctx_output4/relu_mbox_conf"
  param {
    lr_mult: 1
    decay_mult: 1
  }
  param {
    lr_mult: 2
    decay_mult: 0
  }
  convolution_param {
    num_output: 24
    bias_term: true
    pad: 0
    kernel_size: 1
    group: 1
    stride: 1
    weight_filler {
      type: "msra"
    }
    bias_filler {
      type: "constant"
      value: 0
    }
    dilation: 1
  }
}
layer {
  name: "ctx_output4/relu_mbox_conf_perm"
  type: "Permute"
  bottom: "ctx_output4/relu_mbox_conf"
  top: "ctx_output4/relu_mbox_conf_perm"
  permute_param {
    order: 0
    order: 2
    order: 3
    order: 1
  }
}
layer {
  name: "ctx_output4/relu_mbox_conf_flat"
  type: "Flatten"
  bottom: "ctx_output4/relu_mbox_conf_perm"
  top: "ctx_output4/relu_mbox_conf_flat"
  flatten_param {
    axis: 1
  }
}
layer {
  name: "ctx_output4/relu_mbox_priorbox"
  type: "PriorBox"
  bottom: "ctx_output4"
  bottom: "data"
  top: "ctx_output4/relu_mbox_priorbox"
  prior_box_param {
    min_size: 184
    max_size: 257.6
    aspect_ratio: 2
    aspect_ratio: 3
    flip: true
    clip: false
    variance: 0.1
    variance: 0.1
    variance: 0.2
    variance: 0.2
    offset: 0.5
  }
}
layer {
  name: "ctx_output5/relu_mbox_loc"
  type: "Convolution"
  bottom: "ctx_output5"
  top: "ctx_output5/relu_mbox_loc"
  param {
    lr_mult: 1
    decay_mult: 1
  }
  param {
    lr_mult: 2
    decay_mult: 0
  }
  convolution_param {
    num_output: 16
    bias_term: true
    pad: 0
    kernel_size: 1
    group: 1
    stride: 1
    weight_filler {
      type: "msra"
    }
    bias_filler {
      type: "constant"
      value: 0
    }
    dilation: 1
  }
}
layer {
  name: "ctx_output5/relu_mbox_loc_perm"
  type: "Permute"
  bottom: "ctx_output5/relu_mbox_loc"
  top: "ctx_output5/relu_mbox_loc_perm"
  permute_param {
    order: 0
    order: 2
    order: 3
    order: 1
  }
}
layer {
  name: "ctx_output5/relu_mbox_loc_flat"
  type: "Flatten"
  bottom: "ctx_output5/relu_mbox_loc_perm"
  top: "ctx_output5/relu_mbox_loc_flat"
  flatten_param {
    axis: 1
  }
}
layer {
  name: "ctx_output5/relu_mbox_conf"
  type: "Convolution"
  bottom: "ctx_output5"
  top: "ctx_output5/relu_mbox_conf"
  param {
    lr_mult: 1
    decay_mult: 1
  }
  param {
    lr_mult: 2
    decay_mult: 0
  }
  convolution_param {
    num_output: 16
    bias_term: true
    pad: 0
    kernel_size: 1
    group: 1
    stride: 1
    weight_filler {
      type: "msra"
    }
    bias_filler {
      type: "constant"
      value: 0
    }
    dilation: 1
  }
}
layer {
  name: "ctx_output5/relu_mbox_conf_perm"
  type: "Permute"
  bottom: "ctx_output5/relu_mbox_conf"
  top: "ctx_output5/relu_mbox_conf_perm"
  permute_param {
    order: 0
    order: 2
    order: 3
    order: 1
  }
}
layer {
  name: "ctx_output5/relu_mbox_conf_flat"
  type: "Flatten"
  bottom: "ctx_output5/relu_mbox_conf_perm"
  top: "ctx_output5/relu_mbox_conf_flat"
  flatten_param {
    axis: 1
  }
}
layer {
  name: "ctx_output5/relu_mbox_priorbox"
  type: "PriorBox"
  bottom: "ctx_output5"
  bottom: "data"
  top: "ctx_output5/relu_mbox_priorbox"
  prior_box_param {
    min_size: 257.6
    max_size: 331.2
    aspect_ratio: 2
    flip: true
    clip: false
    variance: 0.1
    variance: 0.1
    variance: 0.2
    variance: 0.2
    offset: 0.5
  }
}
layer {
  name: "ctx_output6/relu_mbox_loc"
  type: "Convolution"
  bottom: "ctx_output6"
  top: "ctx_output6/relu_mbox_loc"
  param {
    lr_mult: 1
    decay_mult: 1
  }
  param {
    lr_mult: 2
    decay_mult: 0
  }
  convolution_param {
    num_output: 16
    bias_term: true
    pad: 0
    kernel_size: 1
    group: 1
    stride: 1
    weight_filler {
      type: "msra"
    }
    bias_filler {
      type: "constant"
      value: 0
    }
    dilation: 1
  }
}
layer {
  name: "ctx_output6/relu_mbox_loc_perm"
  type: "Permute"
  bottom: "ctx_output6/relu_mbox_loc"
  top: "ctx_output6/relu_mbox_loc_perm"
  permute_param {
    order: 0
    order: 2
    order: 3
    order: 1
  }
}
layer {
  name: "ctx_output6/relu_mbox_loc_flat"
  type: "Flatten"
  bottom: "ctx_output6/relu_mbox_loc_perm"
  top: "ctx_output6/relu_mbox_loc_flat"
  flatten_param {
    axis: 1
  }
}
layer {
  name: "ctx_output6/relu_mbox_conf"
  type: "Convolution"
  bottom: "ctx_output6"
  top: "ctx_output6/relu_mbox_conf"
  param {
    lr_mult: 1
    decay_mult: 1
  }
  param {
    lr_mult: 2
    decay_mult: 0
  }
  convolution_param {
    num_output: 16
    bias_term: true
    pad: 0
    kernel_size: 1
    group: 1
    stride: 1
    weight_filler {
      type: "msra"
    }
    bias_filler {
      type: "constant"
      value: 0
    }
    dilation: 1
  }
}
layer {
  name: "ctx_output6/relu_mbox_conf_perm"
  type: "Permute"
  bottom: "ctx_output6/relu_mbox_conf"
  top: "ctx_output6/relu_mbox_conf_perm"
  permute_param {
    order: 0
    order: 2
    order: 3
    order: 1
  }
}
layer {
  name: "ctx_output6/relu_mbox_conf_flat"
  type: "Flatten"
  bottom: "ctx_output6/relu_mbox_conf_perm"
  top: "ctx_output6/relu_mbox_conf_flat"
  flatten_param {
    axis: 1
  }
}
layer {
  name: "ctx_output6/relu_mbox_priorbox"
  type: "PriorBox"
  bottom: "ctx_output6"
  bottom: "data"
  top: "ctx_output6/relu_mbox_priorbox"
  prior_box_param {
    min_size: 331.2
    max_size: 404.8
    aspect_ratio: 2
    flip: true
    clip: false
    variance: 0.1
    variance: 0.1
    variance: 0.2
    variance: 0.2
    offset: 0.5
  }
}
layer {
  name: "mbox_loc"
  type: "Concat"
  bottom: "ctx_output1/relu_mbox_loc_flat"
  bottom: "ctx_output2/relu_mbox_loc_flat"
  bottom: "ctx_output3/relu_mbox_loc_flat"
  bottom: "ctx_output4/relu_mbox_loc_flat"
  bottom: "ctx_output5/relu_mbox_loc_flat"
  bottom: "ctx_output6/relu_mbox_loc_flat"
  top: "mbox_loc"
  concat_param {
    axis: 1
  }
}
layer {
  name: "mbox_conf"
  type: "Concat"
  bottom: "ctx_output1/relu_mbox_conf_flat"
  bottom: "ctx_output2/relu_mbox_conf_flat"
  bottom: "ctx_output3/relu_mbox_conf_flat"
  bottom: "ctx_output4/relu_mbox_conf_flat"
  bottom: "ctx_output5/relu_mbox_conf_flat"
  bottom: "ctx_output6/relu_mbox_conf_flat"
  top: "mbox_conf"
  concat_param {
    axis: 1
  }
}
layer {
  name: "mbox_priorbox"
  type: "Concat"
  bottom: "ctx_output1/relu_mbox_priorbox"
  bottom: "ctx_output2/relu_mbox_priorbox"
  bottom: "ctx_output3/relu_mbox_priorbox"
  bottom: "ctx_output4/relu_mbox_priorbox"
  bottom: "ctx_output5/relu_mbox_priorbox"
  bottom: "ctx_output6/relu_mbox_priorbox"
  top: "mbox_priorbox"
  concat_param {
    axis: 2
  }
}
layer {
  name: "mbox_conf_reshape"
  type: "Reshape"
  bottom: "mbox_conf"
  top: "mbox_conf_reshape"
  reshape_param {
    shape {
      dim: 0
      dim: -1
      dim: 4
    }
  }
}
layer {
  name: "mbox_conf_softmax"
  type: "Softmax"
  bottom: "mbox_conf_reshape"
  top: "mbox_conf_softmax"
  softmax_param {
    axis: 2
  }
}
layer {
  name: "mbox_conf_flatten"
  type: "Flatten"
  bottom: "mbox_conf_softmax"
  top: "mbox_conf_flatten"
  flatten_param {
    axis: 1
  }
}
layer {
  name: "detection_out"
  type: "DetectionOutput"
  bottom: "mbox_loc"
  bottom: "mbox_conf_flatten"
  bottom: "mbox_priorbox"
  top: "detection_out"
  include {
    phase: TEST
  }
  detection_output_param {
    num_classes: 4
    share_location: true
    background_label_id: 0
    nms_param {
      nms_threshold: 0.45
      top_k: 400
    }
    save_output_param {
      output_directory: ""
      output_name_prefix: "comp4_det_test_"
      output_format: "VOC"
      label_map_file: "/workspace/caffe-jacinto/data/EYES/labelmap_eye.prototxt"
      name_size_file: "/workspace/caffe-jacinto/data/EYES/test_name_size.txt"
      num_test_image: 1151
    }
    code_type: CENTER_SIZE
    keep_top_k: 200
    confidence_threshold: 0.01
  }
}
layer {
  name: "detection_eval"
  type: "DetectionEvaluate"
  bottom: "detection_out"
  bottom: "label"
  top: "detection_eval"
  include {
    phase: TEST
  }
  detection_evaluate_param {
    num_classes: 4
    background_label_id: 0
    overlap_threshold: 0.5
    evaluate_difficult_gt: false
    name_size_file: "/workspace/caffe-jacinto/data/EYES/test_name_size.txt"
  }
}
I0513 03:00:05.537626   597 net.cpp:110] Using FLOAT as default forward math type
I0513 03:00:05.537649   597 net.cpp:116] Using FLOAT as default backward math type
I0513 03:00:05.537665   597 layer_factory.hpp:172] Creating layer 'data' of type 'AnnotatedData'
I0513 03:00:05.537672   597 layer_factory.hpp:184] Layer's types are Ftype:FLOAT Btype:FLOAT Fmath:FLOAT Bmath:FLOAT
I0513 03:00:05.537848   597 internal_thread.cpp:19] Starting 1 internal thread(s) on device 0
I0513 03:00:05.538023   597 net.cpp:200] Created Layer data (0)
I0513 03:00:05.538033   597 net.cpp:542] data -> data
I0513 03:00:05.538070   597 net.cpp:542] data -> label
I0513 03:00:05.538095   597 data_reader.cpp:58] Data Reader threads: 1, out queues: 1, depth: 10
I0513 03:00:05.538117   597 internal_thread.cpp:19] Starting 1 internal thread(s) on device 0
F0513 03:00:05.538558   603 db_lmdb.hpp:16] Check failed: mdb_status == 0 (2 vs. 0) No such file or directory
*** Check failure stack trace: ***
I0513 03:00:05.538772   602 blocking_queue.cpp:40] Data layer prefetch queue empty
    @     0x7f99b54234dd  google::LogMessage::Fail()
    @     0x7f99b542b071  google::LogMessage::SendToLog()
    @     0x7f99b5422ecd  google::LogMessage::Flush()
    @     0x7f99b542476a  google::LogMessageFatal::~LogMessageFatal()
    @     0x7f99b326557a  caffe::db::LMDB::Open()
    @     0x7f99b2dcecd3  caffe::DataReader<>::InternalThreadEntryN()
    @     0x7f99b2df67ee  caffe::InternalThread::entry()
    @     0x7f99b2df854b  boost::detail::thread_data<>::run()
    @     0x7f99b24307ee  thread_proxy
    @     0x7f99b0fc26db  start_thread
    @     0x7f99b12fb88f  clone
    @              (nil)  (unknown)
I0513 03:00:05.737556   605 caffe.cpp:902] This is NVCaffe 0.17.0 started at Wed May 13 03:00:05 2020
I0513 03:00:06.008342   605 caffe.cpp:904] CuDNN version: 7605
I0513 03:00:06.008347   605 caffe.cpp:905] CuBLAS version: 10202
I0513 03:00:06.008350   605 caffe.cpp:906] CUDA version: 10020
I0513 03:00:06.008353   605 caffe.cpp:907] CUDA driver version: 10020
I0513 03:00:06.008356   605 caffe.cpp:908] Arguments: 
[0]: /workspace/caffe-jacinto/build/tools/caffe.bin
[1]: test_detection
[2]: --model=training/EYES/JDetNet/20200513_03-00_ssdSize512x512_dsFac32_dsTypePSP_rWidthHeight768x320_batchNorm0/test_quantize/test.prototxt
[3]: --iterations=116
[4]: --weights=/workspace/caffe-jacinto-models/scripts/training/EYES/JDetNet/20200511_10-37_ssdSize512x512_dsFac32_dsTypePSP_rWidthHeight768x320_batchNorm0/sparse/EYES_ssdJacintoNetV2_iter_20000.caffemodel
[5]: --gpu
[6]: 0
I0513 03:00:06.028311   605 gpu_memory.cpp:105] GPUMemory::Manager initialized
I0513 03:00:06.028338   605 gpu_memory.cpp:107] Total memory: 16900227072, Free: 16697655296, dev_info[0]: total=16900227072 free=16697655296
I0513 03:00:06.028548   605 caffe.cpp:406] Use GPU with device ID 0
I0513 03:00:06.028679   605 caffe.cpp:409] GPU device name: Quadro RTX 5000
I0513 03:00:06.040122   605 net.cpp:80] Initializing net from parameters: 
name: "ssdJacintoNetV2_test"
state {
  phase: TEST
  level: 0
}
layer {
  name: "data"
  type: "AnnotatedData"
  top: "data"
  top: "label"
  include {
    phase: TEST
  }
  transform_param {
    mean_value: 0
    mean_value: 0
    mean_value: 0
    force_color: false
    resize_param {
      prob: 1
      resize_mode: WARP
      height: 320
      width: 768
      interp_mode: LINEAR
    }
    crop_h: 320
    crop_w: 768
  }
  data_param {
    source: "/workspace/data/lmdb/EYES/official_test_850images"
    batch_size: 10
    backend: LMDB
    threads: 4
    parser_threads: 4
  }
  annotated_data_param {
    batch_sampler {
    }
    label_map_file: "/workspace/caffe-jacinto/data/EYES/labelmap_eye.prototxt"
  }
}
layer {
  name: "data/bias"
  type: "Bias"
  bottom: "data"
  top: "data/bias"
  param {
    lr_mult: 0
    decay_mult: 0
  }
  bias_param {
    filler {
      type: "constant"
      value: -128
    }
  }
}
layer {
  name: "conv1a"
  type: "Convolution"
  bottom: "data/bias"
  top: "conv1a"
  param {
    lr_mult: 1
    decay_mult: 1
  }
  param {
    lr_mult: 2
    decay_mult: 0
  }
  convolution_param {
    num_output: 32
    bias_term: true
    pad: 2
    kernel_size: 5
    group: 1
    stride: 2
    weight_filler {
      type: "msra"
    }
    bias_filler {
      type: "constant"
      value: 0
    }
    dilation: 1
  }
}
layer {
  name: "conv1a/bn"
  type: "BatchNorm"
  bottom: "conv1a"
  top: "conv1a"
  batch_norm_param {
    moving_average_fraction: 0.99
    eps: 0.0001
    scale_bias: true
  }
}
layer {
  name: "conv1a/relu"
  type: "ReLU"
  bottom: "conv1a"
  top: "conv1a"
}
layer {
  name: "conv1b"
  type: "Convolution"
  bottom: "conv1a"
  top: "conv1b"
  param {
    lr_mult: 1
    decay_mult: 1
  }
  param {
    lr_mult: 2
    decay_mult: 0
  }
  convolution_param {
    num_output: 32
    bias_term: true
    pad: 1
    kernel_size: 3
    group: 4
    stride: 1
    weight_filler {
      type: "msra"
    }
    bias_filler {
      type: "constant"
      value: 0
    }
    dilation: 1
  }
}
layer {
  name: "conv1b/bn"
  type: "BatchNorm"
  bottom: "conv1b"
  top: "conv1b"
  batch_norm_param {
    moving_average_fraction: 0.99
    eps: 0.0001
    scale_bias: true
  }
}
layer {
  name: "conv1b/relu"
  type: "ReLU"
  bottom: "conv1b"
  top: "conv1b"
}
layer {
  name: "pool1"
  type: "Pooling"
  bottom: "conv1b"
  top: "pool1"
  pooling_param {
    pool: MAX
    kernel_size: 2
    stride: 2
  }
}
layer {
  name: "res2a_branch2a"
  type: "Convolution"
  bottom: "pool1"
  top: "res2a_branch2a"
  param {
    lr_mult: 1
    decay_mult: 1
  }
  param {
    lr_mult: 2
    decay_mult: 0
  }
  convolution_param {
    num_output: 64
    bias_term: true
    pad: 1
    kernel_size: 3
    group: 1
    stride: 1
    weight_filler {
      type: "msra"
    }
    bias_filler {
      type: "constant"
      value: 0
    }
    dilation: 1
  }
}
layer {
  name: "res2a_branch2a/bn"
  type: "BatchNorm"
  bottom: "res2a_branch2a"
  top: "res2a_branch2a"
  batch_norm_param {
    moving_average_fraction: 0.99
    eps: 0.0001
    scale_bias: true
  }
}
layer {
  name: "res2a_branch2a/relu"
  type: "ReLU"
  bottom: "res2a_branch2a"
  top: "res2a_branch2a"
}
layer {
  name: "res2a_branch2b"
  type: "Convolution"
  bottom: "res2a_branch2a"
  top: "res2a_branch2b"
  param {
    lr_mult: 1
    decay_mult: 1
  }
  param {
    lr_mult: 2
    decay_mult: 0
  }
  convolution_param {
    num_output: 64
    bias_term: true
    pad: 1
    kernel_size: 3
    group: 4
    stride: 1
    weight_filler {
      type: "msra"
    }
    bias_filler {
      type: "constant"
      value: 0
    }
    dilation: 1
  }
}
layer {
  name: "res2a_branch2b/bn"
  type: "BatchNorm"
  bottom: "res2a_branch2b"
  top: "res2a_branch2b"
  batch_norm_param {
    moving_average_fraction: 0.99
    eps: 0.0001
    scale_bias: true
  }
}
layer {
  name: "res2a_branch2b/relu"
  type: "ReLU"
  bottom: "res2a_branch2b"
  top: "res2a_branch2b"
}
layer {
  name: "pool2"
  type: "Pooling"
  bottom: "res2a_branch2b"
  top: "pool2"
  pooling_param {
    pool: MAX
    kernel_size: 2
    stride: 2
  }
}
layer {
  name: "res3a_branch2a"
  type: "Convolution"
  bottom: "pool2"
  top: "res3a_branch2a"
  param {
    lr_mult: 1
    decay_mult: 1
  }
  param {
    lr_mult: 2
    decay_mult: 0
  }
  convolution_param {
    num_output: 128
    bias_term: true
    pad: 1
    kernel_size: 3
    group: 1
    stride: 1
    weight_filler {
      type: "msra"
    }
    bias_filler {
      type: "constant"
      value: 0
    }
    dilation: 1
  }
}
layer {
  name: "res3a_branch2a/bn"
  type: "BatchNorm"
  bottom: "res3a_branch2a"
  top: "res3a_branch2a"
  batch_norm_param {
    moving_average_fraction: 0.99
    eps: 0.0001
    scale_bias: true
  }
}
layer {
  name: "res3a_branch2a/relu"
  type: "ReLU"
  bottom: "res3a_branch2a"
  top: "res3a_branch2a"
}
layer {
  name: "res3a_branch2b"
  type: "Convolution"
  bottom: "res3a_branch2a"
  top: "res3a_branch2b"
  param {
    lr_mult: 1
    decay_mult: 1
  }
  param {
    lr_mult: 2
    decay_mult: 0
  }
  convolution_param {
    num_output: 128
    bias_term: true
    pad: 1
    kernel_size: 3
    group: 4
    stride: 1
    weight_filler {
      type: "msra"
    }
    bias_filler {
      type: "constant"
      value: 0
    }
    dilation: 1
  }
}
layer {
  name: "res3a_branch2b/bn"
  type: "BatchNorm"
  bottom: "res3a_branch2b"
  top: "res3a_branch2b"
  batch_norm_param {
    moving_average_fraction: 0.99
    eps: 0.0001
    scale_bias: true
  }
}
layer {
  name: "res3a_branch2b/relu"
  type: "ReLU"
  bottom: "res3a_branch2b"
  top: "res3a_branch2b"
}
layer {
  name: "pool3"
  type: "Pooling"
  bottom: "res3a_branch2b"
  top: "pool3"
  pooling_param {
    pool: MAX
    kernel_size: 2
    stride: 2
  }
}
layer {
  name: "res4a_branch2a"
  type: "Convolution"
  bottom: "pool3"
  top: "res4a_branch2a"
  param {
    lr_mult: 1
    decay_mult: 1
  }
  param {
    lr_mult: 2
    decay_mult: 0
  }
  convolution_param {
    num_output: 256
    bias_term: true
    pad: 1
    kernel_size: 3
    group: 1
    stride: 1
    weight_filler {
      type: "msra"
    }
    bias_filler {
      type: "constant"
      value: 0
    }
    dilation: 1
  }
}
layer {
  name: "res4a_branch2a/bn"
  type: "BatchNorm"
  bottom: "res4a_branch2a"
  top: "res4a_branch2a"
  batch_norm_param {
    moving_average_fraction: 0.99
    eps: 0.0001
    scale_bias: true
  }
}
layer {
  name: "res4a_branch2a/relu"
  type: "ReLU"
  bottom: "res4a_branch2a"
  top: "res4a_branch2a"
}
layer {
  name: "res4a_branch2b"
  type: "Convolution"
  bottom: "res4a_branch2a"
  top: "res4a_branch2b"
  param {
    lr_mult: 1
    decay_mult: 1
  }
  param {
    lr_mult: 2
    decay_mult: 0
  }
  convolution_param {
    num_output: 256
    bias_term: true
    pad: 1
    kernel_size: 3
    group: 4
    stride: 1
    weight_filler {
      type: "msra"
    }
    bias_filler {
      type: "constant"
      value: 0
    }
    dilation: 1
  }
}
layer {
  name: "res4a_branch2b/bn"
  type: "BatchNorm"
  bottom: "res4a_branch2b"
  top: "res4a_branch2b"
  batch_norm_param {
    moving_average_fraction: 0.99
    eps: 0.0001
    scale_bias: true
  }
}
layer {
  name: "res4a_branch2b/relu"
  type: "ReLU"
  bottom: "res4a_branch2b"
  top: "res4a_branch2b"
}
layer {
  name: "pool4"
  type: "Pooling"
  bottom: "res4a_branch2b"
  top: "pool4"
  pooling_param {
    pool: MAX
    kernel_size: 2
    stride: 2
  }
}
layer {
  name: "res5a_branch2a"
  type: "Convolution"
  bottom: "pool4"
  top: "res5a_branch2a"
  param {
    lr_mult: 1
    decay_mult: 1
  }
  param {
    lr_mult: 2
    decay_mult: 0
  }
  convolution_param {
    num_output: 512
    bias_term: true
    pad: 1
    kernel_size: 3
    group: 1
    stride: 1
    weight_filler {
      type: "msra"
    }
    bias_filler {
      type: "constant"
      value: 0
    }
    dilation: 1
  }
}
layer {
  name: "res5a_branch2a/bn"
  type: "BatchNorm"
  bottom: "res5a_branch2a"
  top: "res5a_branch2a"
  batch_norm_param {
    moving_average_fraction: 0.99
    eps: 0.0001
    scale_bias: true
  }
}
layer {
  name: "res5a_branch2a/relu"
  type: "ReLU"
  bottom: "res5a_branch2a"
  top: "res5a_branch2a"
}
layer {
  name: "res5a_branch2b"
  type: "Convolution"
  bottom: "res5a_branch2a"
  top: "res5a_branch2b"
  param {
    lr_mult: 1
    decay_mult: 1
  }
  param {
    lr_mult: 2
    decay_mult: 0
  }
  convolution_param {
    num_output: 512
    bias_term: true
    pad: 1
    kernel_size: 3
    group: 4
    stride: 1
    weight_filler {
      type: "msra"
    }
    bias_filler {
      type: "constant"
      value: 0
    }
    dilation: 1
  }
}
layer {
  name: "res5a_branch2b/bn"
  type: "BatchNorm"
  bottom: "res5a_branch2b"
  top: "res5a_branch2b"
  batch_norm_param {
    moving_average_fraction: 0.99
    eps: 0.0001
    scale_bias: true
  }
}
layer {
  name: "res5a_branch2b/relu"
  type: "ReLU"
  bottom: "res5a_branch2b"
  top: "res5a_branch2b"
}
layer {
  name: "pool6"
  type: "Pooling"
  bottom: "res5a_branch2b"
  top: "pool6"
  pooling_param {
    pool: MAX
    kernel_size: 2
    stride: 2
    pad: 0
  }
}
layer {
  name: "pool7"
  type: "Pooling"
  bottom: "pool6"
  top: "pool7"
  pooling_param {
    pool: MAX
    kernel_size: 2
    stride: 2
    pad: 0
  }
}
layer {
  name: "pool8"
  type: "Pooling"
  bottom: "pool7"
  top: "pool8"
  pooling_param {
    pool: MAX
    kernel_size: 2
    stride: 2
    pad: 0
  }
}
layer {
  name: "pool9"
  type: "Pooling"
  bottom: "pool8"
  top: "pool9"
  pooling_param {
    pool: MAX
    kernel_size: 2
    stride: 2
    pad: 0
  }
}
layer {
  name: "ctx_output1"
  type: "Convolution"
  bottom: "res3a_branch2b"
  top: "ctx_output1"
  param {
    lr_mult: 1
    decay_mult: 1
  }
  param {
    lr_mult: 2
    decay_mult: 0
  }
  convolution_param {
    num_output: 256
    bias_term: true
    pad: 0
    kernel_size: 1
    group: 1
    stride: 1
    weight_filler {
      type: "msra"
    }
    bias_filler {
      type: "constant"
      value: 0
    }
    dilation: 1
  }
}
layer {
  name: "ctx_output1/relu"
  type: "ReLU"
  bottom: "ctx_output1"
  top: "ctx_output1"
}
layer {
  name: "ctx_output2"
  type: "Convolution"
  bottom: "res5a_branch2b"
  top: "ctx_output2"
  param {
    lr_mult: 1
    decay_mult: 1
  }
  param {
    lr_mult: 2
    decay_mult: 0
  }
  convolution_param {
    num_output: 256
    bias_term: true
    pad: 0
    kernel_size: 1
    group: 1
    stride: 1
    weight_filler {
      type: "msra"
    }
    bias_filler {
      type: "constant"
      value: 0
    }
    dilation: 1
  }
}
layer {
  name: "ctx_output2/relu"
  type: "ReLU"
  bottom: "ctx_output2"
  top: "ctx_output2"
}
layer {
  name: "ctx_output3"
  type: "Convolution"
  bottom: "pool6"
  top: "ctx_output3"
  param {
    lr_mult: 1
    decay_mult: 1
  }
  param {
    lr_mult: 2
    decay_mult: 0
  }
  convolution_param {
    num_output: 256
    bias_term: true
    pad: 0
    kernel_size: 1
    group: 1
    stride: 1
    weight_filler {
      type: "msra"
    }
    bias_filler {
      type: "constant"
      value: 0
    }
    dilation: 1
  }
}
layer {
  name: "ctx_output3/relu"
  type: "ReLU"
  bottom: "ctx_output3"
  top: "ctx_output3"
}
layer {
  name: "ctx_output4"
  type: "Convolution"
  bottom: "pool7"
  top: "ctx_output4"
  param {
    lr_mult: 1
    decay_mult: 1
  }
  param {
    lr_mult: 2
    decay_mult: 0
  }
  convolution_param {
    num_output: 256
    bias_term: true
    pad: 0
    kernel_size: 1
    group: 1
    stride: 1
    weight_filler {
      type: "msra"
    }
    bias_filler {
      type: "constant"
      value: 0
    }
    dilation: 1
  }
}
layer {
  name: "ctx_output4/relu"
  type: "ReLU"
  bottom: "ctx_output4"
  top: "ctx_output4"
}
layer {
  name: "ctx_output5"
  type: "Convolution"
  bottom: "pool8"
  top: "ctx_output5"
  param {
    lr_mult: 1
    decay_mult: 1
  }
  param {
    lr_mult: 2
    decay_mult: 0
  }
  convolution_param {
    num_output: 256
    bias_term: true
    pad: 0
    kernel_size: 1
    group: 1
    stride: 1
    weight_filler {
      type: "msra"
    }
    bias_filler {
      type: "constant"
      value: 0
    }
    dilation: 1
  }
}
layer {
  name: "ctx_output5/relu"
  type: "ReLU"
  bottom: "ctx_output5"
  top: "ctx_output5"
}
layer {
  name: "ctx_output6"
  type: "Convolution"
  bottom: "pool9"
  top: "ctx_output6"
  param {
    lr_mult: 1
    decay_mult: 1
  }
  param {
    lr_mult: 2
    decay_mult: 0
  }
  convolution_param {
    num_output: 256
    bias_term: true
    pad: 0
    kernel_size: 1
    group: 1
    stride: 1
    weight_filler {
      type: "msra"
    }
    bias_filler {
      type: "constant"
      value: 0
    }
    dilation: 1
  }
}
layer {
  name: "ctx_output6/relu"
  type: "ReLU"
  bottom: "ctx_output6"
  top: "ctx_output6"
}
layer {
  name: "ctx_output1/relu_mbox_loc"
  type: "Convolution"
  bottom: "ctx_output1"
  top: "ctx_output1/relu_mbox_loc"
  param {
    lr_mult: 1
    decay_mult: 1
  }
  param {
    lr_mult: 2
    decay_mult: 0
  }
  convolution_param {
    num_output: 16
    bias_term: true
    pad: 0
    kernel_size: 1
    group: 1
    stride: 1
    weight_filler {
      type: "msra"
    }
    bias_filler {
      type: "constant"
      value: 0
    }
    dilation: 1
  }
}
layer {
  name: "ctx_output1/relu_mbox_loc_perm"
  type: "Permute"
  bottom: "ctx_output1/relu_mbox_loc"
  top: "ctx_output1/relu_mbox_loc_perm"
  permute_param {
    order: 0
    order: 2
    order: 3
    order: 1
  }
}
layer {
  name: "ctx_output1/relu_mbox_loc_flat"
  type: "Flatten"
  bottom: "ctx_output1/relu_mbox_loc_perm"
  top: "ctx_output1/relu_mbox_loc_flat"
  flatten_param {
    axis: 1
  }
}
layer {
  name: "ctx_output1/relu_mbox_conf"
  type: "Convolution"
  bottom: "ctx_output1"
  top: "ctx_output1/relu_mbox_conf"
  param {
    lr_mult: 1
    decay_mult: 1
  }
  param {
    lr_mult: 2
    decay_mult: 0
  }
  convolution_param {
    num_output: 16
    bias_term: true
    pad: 0
    kernel_size: 1
    group: 1
    stride: 1
    weight_filler {
      type: "msra"
    }
    bias_filler {
      type: "constant"
      value: 0
    }
    dilation: 1
  }
}
layer {
  name: "ctx_output1/relu_mbox_conf_perm"
  type: "Permute"
  bottom: "ctx_output1/relu_mbox_conf"
  top: "ctx_output1/relu_mbox_conf_perm"
  permute_param {
    order: 0
    order: 2
    order: 3
    order: 1
  }
}
layer {
  name: "ctx_output1/relu_mbox_conf_flat"
  type: "Flatten"
  bottom: "ctx_output1/relu_mbox_conf_perm"
  top: "ctx_output1/relu_mbox_conf_flat"
  flatten_param {
    axis: 1
  }
}
layer {
  name: "ctx_output1/relu_mbox_priorbox"
  type: "PriorBox"
  bottom: "ctx_output1"
  bottom: "data"
  top: "ctx_output1/relu_mbox_priorbox"
  prior_box_param {
    min_size: 14.72
    max_size: 36.8
    aspect_ratio: 2
    flip: true
    clip: false
    variance: 0.1
    variance: 0.1
    variance: 0.2
    variance: 0.2
    offset: 0.5
  }
}
layer {
  name: "ctx_output2/relu_mbox_loc"
  type: "Convolution"
  bottom: "ctx_output2"
  top: "ctx_output2/relu_mbox_loc"
  param {
    lr_mult: 1
    decay_mult: 1
  }
  param {
    lr_mult: 2
    decay_mult: 0
  }
  convolution_param {
    num_output: 24
    bias_term: true
    pad: 0
    kernel_size: 1
    group: 1
    stride: 1
    weight_filler {
      type: "msra"
    }
    bias_filler {
      type: "constant"
      value: 0
    }
    dilation: 1
  }
}
layer {
  name: "ctx_output2/relu_mbox_loc_perm"
  type: "Permute"
  bottom: "ctx_output2/relu_mbox_loc"
  top: "ctx_output2/relu_mbox_loc_perm"
  permute_param {
    order: 0
    order: 2
    order: 3
    order: 1
  }
}
layer {
  name: "ctx_output2/relu_mbox_loc_flat"
  type: "Flatten"
  bottom: "ctx_output2/relu_mbox_loc_perm"
  top: "ctx_output2/relu_mbox_loc_flat"
  flatten_param {
    axis: 1
  }
}
layer {
  name: "ctx_output2/relu_mbox_conf"
  type: "Convolution"
  bottom: "ctx_output2"
  top: "ctx_output2/relu_mbox_conf"
  param {
    lr_mult: 1
    decay_mult: 1
  }
  param {
    lr_mult: 2
    decay_mult: 0
  }
  convolution_param {
    num_output: 24
    bias_term: true
    pad: 0
    kernel_size: 1
    group: 1
    stride: 1
    weight_filler {
      type: "msra"
    }
    bias_filler {
      type: "constant"
      value: 0
    }
    dilation: 1
  }
}
layer {
  name: "ctx_output2/relu_mbox_conf_perm"
  type: "Permute"
  bottom: "ctx_output2/relu_mbox_conf"
  top: "ctx_output2/relu_mbox_conf_perm"
  permute_param {
    order: 0
    order: 2
    order: 3
    order: 1
  }
}
layer {
  name: "ctx_output2/relu_mbox_conf_flat"
  type: "Flatten"
  bottom: "ctx_output2/relu_mbox_conf_perm"
  top: "ctx_output2/relu_mbox_conf_flat"
  flatten_param {
    axis: 1
  }
}
layer {
  name: "ctx_output2/relu_mbox_priorbox"
  type: "PriorBox"
  bottom: "ctx_output2"
  bottom: "data"
  top: "ctx_output2/relu_mbox_priorbox"
  prior_box_param {
    min_size: 36.8
    max_size: 110.4
    aspect_ratio: 2
    aspect_ratio: 3
    flip: true
    clip: false
    variance: 0.1
    variance: 0.1
    variance: 0.2
    variance: 0.2
    offset: 0.5
  }
}
layer {
  name: "ctx_output3/relu_mbox_loc"
  type: "Convolution"
  bottom: "ctx_output3"
  top: "ctx_output3/relu_mbox_loc"
  param {
    lr_mult: 1
    decay_mult: 1
  }
  param {
    lr_mult: 2
    decay_mult: 0
  }
  convolution_param {
    num_output: 24
    bias_term: true
    pad: 0
    kernel_size: 1
    group: 1
    stride: 1
    weight_filler {
      type: "msra"
    }
    bias_filler {
      type: "constant"
      value: 0
    }
    dilation: 1
  }
}
layer {
  name: "ctx_output3/relu_mbox_loc_perm"
  type: "Permute"
  bottom: "ctx_output3/relu_mbox_loc"
  top: "ctx_output3/relu_mbox_loc_perm"
  permute_param {
    order: 0
    order: 2
    order: 3
    order: 1
  }
}
layer {
  name: "ctx_output3/relu_mbox_loc_flat"
  type: "Flatten"
  bottom: "ctx_output3/relu_mbox_loc_perm"
  top: "ctx_output3/relu_mbox_loc_flat"
  flatten_param {
    axis: 1
  }
}
layer {
  name: "ctx_output3/relu_mbox_conf"
  type: "Convolution"
  bottom: "ctx_output3"
  top: "ctx_output3/relu_mbox_conf"
  param {
    lr_mult: 1
    decay_mult: 1
  }
  param {
    lr_mult: 2
    decay_mult: 0
  }
  convolution_param {
    num_output: 24
    bias_term: true
    pad: 0
    kernel_size: 1
    group: 1
    stride: 1
    weight_filler {
      type: "msra"
    }
    bias_filler {
      type: "constant"
      value: 0
    }
    dilation: 1
  }
}
layer {
  name: "ctx_output3/relu_mbox_conf_perm"
  type: "Permute"
  bottom: "ctx_output3/relu_mbox_conf"
  top: "ctx_output3/relu_mbox_conf_perm"
  permute_param {
    order: 0
    order: 2
    order: 3
    order: 1
  }
}
layer {
  name: "ctx_output3/relu_mbox_conf_flat"
  type: "Flatten"
  bottom: "ctx_output3/relu_mbox_conf_perm"
  top: "ctx_output3/relu_mbox_conf_flat"
  flatten_param {
    axis: 1
  }
}
layer {
  name: "ctx_output3/relu_mbox_priorbox"
  type: "PriorBox"
  bottom: "ctx_output3"
  bottom: "data"
  top: "ctx_output3/relu_mbox_priorbox"
  prior_box_param {
    min_size: 110.4
    max_size: 184
    aspect_ratio: 2
    aspect_ratio: 3
    flip: true
    clip: false
    variance: 0.1
    variance: 0.1
    variance: 0.2
    variance: 0.2
    offset: 0.5
  }
}
layer {
  name: "ctx_output4/relu_mbox_loc"
  type: "Convolution"
  bottom: "ctx_output4"
  top: "ctx_output4/relu_mbox_loc"
  param {
    lr_mult: 1
    decay_mult: 1
  }
  param {
    lr_mult: 2
    decay_mult: 0
  }
  convolution_param {
    num_output: 24
    bias_term: true
    pad: 0
    kernel_size: 1
    group: 1
    stride: 1
    weight_filler {
      type: "msra"
    }
    bias_filler {
      type: "constant"
      value: 0
    }
    dilation: 1
  }
}
layer {
  name: "ctx_output4/relu_mbox_loc_perm"
  type: "Permute"
  bottom: "ctx_output4/relu_mbox_loc"
  top: "ctx_output4/relu_mbox_loc_perm"
  permute_param {
    order: 0
    order: 2
    order: 3
    order: 1
  }
}
layer {
  name: "ctx_output4/relu_mbox_loc_flat"
  type: "Flatten"
  bottom: "ctx_output4/relu_mbox_loc_perm"
  top: "ctx_output4/relu_mbox_loc_flat"
  flatten_param {
    axis: 1
  }
}
layer {
  name: "ctx_output4/relu_mbox_conf"
  type: "Convolution"
  bottom: "ctx_output4"
  top: "ctx_output4/relu_mbox_conf"
  param {
    lr_mult: 1
    decay_mult: 1
  }
  param {
    lr_mult: 2
    decay_mult: 0
  }
  convolution_param {
    num_output: 24
    bias_term: true
    pad: 0
    kernel_size: 1
    group: 1
    stride: 1
    weight_filler {
      type: "msra"
    }
    bias_filler {
      type: "constant"
      value: 0
    }
    dilation: 1
  }
}
layer {
  name: "ctx_output4/relu_mbox_conf_perm"
  type: "Permute"
  bottom: "ctx_output4/relu_mbox_conf"
  top: "ctx_output4/relu_mbox_conf_perm"
  permute_param {
    order: 0
    order: 2
    order: 3
    order: 1
  }
}
layer {
  name: "ctx_output4/relu_mbox_conf_flat"
  type: "Flatten"
  bottom: "ctx_output4/relu_mbox_conf_perm"
  top: "ctx_output4/relu_mbox_conf_flat"
  flatten_param {
    axis: 1
  }
}
layer {
  name: "ctx_output4/relu_mbox_priorbox"
  type: "PriorBox"
  bottom: "ctx_output4"
  bottom: "data"
  top: "ctx_output4/relu_mbox_priorbox"
  prior_box_param {
    min_size: 184
    max_size: 257.6
    aspect_ratio: 2
    aspect_ratio: 3
    flip: true
    clip: false
    variance: 0.1
    variance: 0.1
    variance: 0.2
    variance: 0.2
    offset: 0.5
  }
}
layer {
  name: "ctx_output5/relu_mbox_loc"
  type: "Convolution"
  bottom: "ctx_output5"
  top: "ctx_output5/relu_mbox_loc"
  param {
    lr_mult: 1
    decay_mult: 1
  }
  param {
    lr_mult: 2
    decay_mult: 0
  }
  convolution_param {
    num_output: 16
    bias_term: true
    pad: 0
    kernel_size: 1
    group: 1
    stride: 1
    weight_filler {
      type: "msra"
    }
    bias_filler {
      type: "constant"
      value: 0
    }
    dilation: 1
  }
}
layer {
  name: "ctx_output5/relu_mbox_loc_perm"
  type: "Permute"
  bottom: "ctx_output5/relu_mbox_loc"
  top: "ctx_output5/relu_mbox_loc_perm"
  permute_param {
    order: 0
    order: 2
    order: 3
    order: 1
  }
}
layer {
  name: "ctx_output5/relu_mbox_loc_flat"
  type: "Flatten"
  bottom: "ctx_output5/relu_mbox_loc_perm"
  top: "ctx_output5/relu_mbox_loc_flat"
  flatten_param {
    axis: 1
  }
}
layer {
  name: "ctx_output5/relu_mbox_conf"
  type: "Convolution"
  bottom: "ctx_output5"
  top: "ctx_output5/relu_mbox_conf"
  param {
    lr_mult: 1
    decay_mult: 1
  }
  param {
    lr_mult: 2
    decay_mult: 0
  }
  convolution_param {
    num_output: 16
    bias_term: true
    pad: 0
    kernel_size: 1
    group: 1
    stride: 1
    weight_filler {
      type: "msra"
    }
    bias_filler {
      type: "constant"
      value: 0
    }
    dilation: 1
  }
}
layer {
  name: "ctx_output5/relu_mbox_conf_perm"
  type: "Permute"
  bottom: "ctx_output5/relu_mbox_conf"
  top: "ctx_output5/relu_mbox_conf_perm"
  permute_param {
    order: 0
    order: 2
    order: 3
    order: 1
  }
}
layer {
  name: "ctx_output5/relu_mbox_conf_flat"
  type: "Flatten"
  bottom: "ctx_output5/relu_mbox_conf_perm"
  top: "ctx_output5/relu_mbox_conf_flat"
  flatten_param {
    axis: 1
  }
}
layer {
  name: "ctx_output5/relu_mbox_priorbox"
  type: "PriorBox"
  bottom: "ctx_output5"
  bottom: "data"
  top: "ctx_output5/relu_mbox_priorbox"
  prior_box_param {
    min_size: 257.6
    max_size: 331.2
    aspect_ratio: 2
    flip: true
    clip: false
    variance: 0.1
    variance: 0.1
    variance: 0.2
    variance: 0.2
    offset: 0.5
  }
}
layer {
  name: "ctx_output6/relu_mbox_loc"
  type: "Convolution"
  bottom: "ctx_output6"
  top: "ctx_output6/relu_mbox_loc"
  param {
    lr_mult: 1
    decay_mult: 1
  }
  param {
    lr_mult: 2
    decay_mult: 0
  }
  convolution_param {
    num_output: 16
    bias_term: true
    pad: 0
    kernel_size: 1
    group: 1
    stride: 1
    weight_filler {
      type: "msra"
    }
    bias_filler {
      type: "constant"
      value: 0
    }
    dilation: 1
  }
}
layer {
  name: "ctx_output6/relu_mbox_loc_perm"
  type: "Permute"
  bottom: "ctx_output6/relu_mbox_loc"
  top: "ctx_output6/relu_mbox_loc_perm"
  permute_param {
    order: 0
    order: 2
    order: 3
    order: 1
  }
}
layer {
  name: "ctx_output6/relu_mbox_loc_flat"
  type: "Flatten"
  bottom: "ctx_output6/relu_mbox_loc_perm"
  top: "ctx_output6/relu_mbox_loc_flat"
  flatten_param {
    axis: 1
  }
}
layer {
  name: "ctx_output6/relu_mbox_conf"
  type: "Convolution"
  bottom: "ctx_output6"
  top: "ctx_output6/relu_mbox_conf"
  param {
    lr_mult: 1
    decay_mult: 1
  }
  param {
    lr_mult: 2
    decay_mult: 0
  }
  convolution_param {
    num_output: 16
    bias_term: true
    pad: 0
    kernel_size: 1
    group: 1
    stride: 1
    weight_filler {
      type: "msra"
    }
    bias_filler {
      type: "constant"
      value: 0
    }
    dilation: 1
  }
}
layer {
  name: "ctx_output6/relu_mbox_conf_perm"
  type: "Permute"
  bottom: "ctx_output6/relu_mbox_conf"
  top: "ctx_output6/relu_mbox_conf_perm"
  permute_param {
    order: 0
    order: 2
    order: 3
    order: 1
  }
}
layer {
  name: "ctx_output6/relu_mbox_conf_flat"
  type: "Flatten"
  bottom: "ctx_output6/relu_mbox_conf_perm"
  top: "ctx_output6/relu_mbox_conf_flat"
  flatten_param {
    axis: 1
  }
}
layer {
  name: "ctx_output6/relu_mbox_priorbox"
  type: "PriorBox"
  bottom: "ctx_output6"
  bottom: "data"
  top: "ctx_output6/relu_mbox_priorbox"
  prior_box_param {
    min_size: 331.2
    max_size: 404.8
    aspect_ratio: 2
    flip: true
    clip: false
    variance: 0.1
    variance: 0.1
    variance: 0.2
    variance: 0.2
    offset: 0.5
  }
}
layer {
  name: "mbox_loc"
  type: "Concat"
  bottom: "ctx_output1/relu_mbox_loc_flat"
  bottom: "ctx_output2/relu_mbox_loc_flat"
  bottom: "ctx_output3/relu_mbox_loc_flat"
  bottom: "ctx_output4/relu_mbox_loc_flat"
  bottom: "ctx_output5/relu_mbox_loc_flat"
  bottom: "ctx_output6/relu_mbox_loc_flat"
  top: "mbox_loc"
  concat_param {
    axis: 1
  }
}
layer {
  name: "mbox_conf"
  type: "Concat"
  bottom: "ctx_output1/relu_mbox_conf_flat"
  bottom: "ctx_output2/relu_mbox_conf_flat"
  bottom: "ctx_output3/relu_mbox_conf_flat"
  bottom: "ctx_output4/relu_mbox_conf_flat"
  bottom: "ctx_output5/relu_mbox_conf_flat"
  bottom: "ctx_output6/relu_mbox_conf_flat"
  top: "mbox_conf"
  concat_param {
    axis: 1
  }
}
layer {
  name: "mbox_priorbox"
  type: "Concat"
  bottom: "ctx_output1/relu_mbox_priorbox"
  bottom: "ctx_output2/relu_mbox_priorbox"
  bottom: "ctx_output3/relu_mbox_priorbox"
  bottom: "ctx_output4/relu_mbox_priorbox"
  bottom: "ctx_output5/relu_mbox_priorbox"
  bottom: "ctx_output6/relu_mbox_priorbox"
  top: "mbox_priorbox"
  concat_param {
    axis: 2
  }
}
layer {
  name: "mbox_conf_reshape"
  type: "Reshape"
  bottom: "mbox_conf"
  top: "mbox_conf_reshape"
  reshape_param {
    shape {
      dim: 0
      dim: -1
      dim: 4
    }
  }
}
layer {
  name: "mbox_conf_softmax"
  type: "Softmax"
  bottom: "mbox_conf_reshape"
  top: "mbox_conf_softmax"
  softmax_param {
    axis: 2
  }
}
layer {
  name: "mbox_conf_flatten"
  type: "Flatten"
  bottom: "mbox_conf_softmax"
  top: "mbox_conf_flatten"
  flatten_param {
    axis: 1
  }
}
layer {
  name: "detection_out"
  type: "DetectionOutput"
  bottom: "mbox_loc"
  bottom: "mbox_conf_flatten"
  bottom: "mbox_priorbox"
  top: "detection_out"
  include {
    phase: TEST
  }
  detection_output_param {
    num_classes: 4
    share_location: true
    background_label_id: 0
    nms_param {
      nms_threshold: 0.45
      top_k: 400
    }
    save_output_param {
      output_directory: ""
      output_name_prefix: "comp4_det_test_"
      output_format: "VOC"
      label_map_file: "/workspace/caffe-jacinto/data/EYES/labelmap_eye.prototxt"
      name_size_file: "/workspace/caffe-jacinto/data/EYES/test_name_size.txt"
      num_test_image: 1151
    }
    code_type: CENTER_SIZE
    keep_top_k: 200
    confidence_threshold: 0.01
  }
}
layer {
  name: "detection_eval"
  type: "DetectionEvaluate"
  bottom: "detection_out"
  bottom: "label"
  top: "detection_eval"
  include {
    phase: TEST
  }
  detection_evaluate_param {
    num_classes: 4
    background_label_id: 0
    overlap_threshold: 0.5
    evaluate_difficult_gt: false
    name_size_file: "/workspace/caffe-jacinto/data/EYES/test_name_size.txt"
  }
}
quantize: true
I0513 03:00:06.041211   605 net.cpp:110] Using FLOAT as default forward math type
I0513 03:00:06.041244   605 net.cpp:116] Using FLOAT as default backward math type
I0513 03:00:06.041258   605 layer_factory.hpp:172] Creating layer 'data' of type 'AnnotatedData'
I0513 03:00:06.041265   605 layer_factory.hpp:184] Layer's types are Ftype:FLOAT Btype:FLOAT Fmath:FLOAT Bmath:FLOAT
I0513 03:00:06.041461   605 internal_thread.cpp:19] Starting 1 internal thread(s) on device 0
I0513 03:00:06.041813   605 net.cpp:200] Created Layer data (0)
I0513 03:00:06.041824   605 net.cpp:542] data -> data
I0513 03:00:06.041829   610 blocking_queue.cpp:40] Data layer prefetch queue empty
I0513 03:00:06.041855   605 net.cpp:542] data -> label
I0513 03:00:06.041872   605 data_reader.cpp:58] Data Reader threads: 1, out queues: 1, depth: 10
I0513 03:00:06.041891   605 internal_thread.cpp:19] Starting 1 internal thread(s) on device 0
F0513 03:00:06.042294   611 db_lmdb.hpp:16] Check failed: mdb_status == 0 (2 vs. 0) No such file or directory
*** Check failure stack trace: ***
    @     0x7fee3504e4dd  google::LogMessage::Fail()
    @     0x7fee35056071  google::LogMessage::SendToLog()
    @     0x7fee3504decd  google::LogMessage::Flush()
    @     0x7fee3504f76a  google::LogMessageFatal::~LogMessageFatal()
    @     0x7fee32e9057a  caffe::db::LMDB::Open()
    @     0x7fee329f9cd3  caffe::DataReader<>::InternalThreadEntryN()
    @     0x7fee32a217ee  caffe::InternalThread::entry()
    @     0x7fee32a2354b  boost::detail::thread_data<>::run()
    @     0x7fee3205b7ee  thread_proxy
    @     0x7fee30bed6db  start_thread
    @     0x7fee30f2688f  clone
    @              (nil)  (unknown)
Logging output to training/EYES/JDetNet/20200513_03-00_ssdSize512x512_dsFac32_dsTypePSP_rWidthHeight768x320_batchNorm0/train-log_20200513_03-00.txt
training/EYES/JDetNet/20200513_03-00_ssdSize512x512_dsFac32_dsTypePSP_rWidthHeight768x320_batchNorm0/test
mkdir: cannot create directory 'training/EYES/JDetNet/20200513_03-00_ssdSize512x512_dsFac32_dsTypePSP_rWidthHeight768x320_batchNorm0/test': File exists
{'type':'Adam','base_lr':1e-2,'max_iter':120000,'lr_policy':'poly','power':4.0,'stepvalue':[30000,45000,300000],'regularization_type':'L1','weight_decay':1e-5,'sparse_mode':1,'display_sparsity':1000}
{'config_name':'training/EYES/JDetNet/20200513_03-00_ssdSize512x512_dsFac32_dsTypePSP_rWidthHeight768x320_batchNorm0/test','model_name':'ssdJacintoNetV2','dataset':'EYES','gpus':'0','train_data':'/workspace/data/EYES/lmdb/EYES_trainval_lmdb','test_data':'/workspace/data/EYES/lmdb/official_test_850images','name_size_file':'/workspace/caffe-jacinto/data/EYES/test_name_size.txt','label_map_file':'/workspace/caffe-jacinto/data/EYES/labelmap_eye.prototxt','num_test_image':1151,'num_classes':4,'min_ratio':10,'max_ratio':90,
'log_space_steps':2,'use_difficult_gt':0,'ignore_difficult_gt':0,'evaluate_difficult_gt':0,'pretrain_model':'/workspace/caffe-jacinto-models/scripts/training/EYES/JDetNet/20200511_10-37_ssdSize512x512_dsFac32_dsTypePSP_rWidthHeight768x320_batchNorm0/sparse/EYES_ssdJacintoNetV2_iter_20000.caffemodel','use_image_list':0,'shuffle':0,'num_output':8,'resize_width':768,'resize_height':320,'crop_width':768,'crop_height':320,'batch_size':16,'test_batch_size':10,'caffe_cmd':'test_detection','display_sparsity':1,'aspect_ratios_type':1,'ssd_size':'512x512','small_objs':1,'min_dim':368,'concat_reg_head':0,
'fully_conv_at_end':0,'first_hd_same_op_ch':1,'ker_mbox_loc_conf':1,'base_nw_3_head':0,'reg_head_at_ds8':1,'ds_fac':32,'ds_type':'PSP','rhead_name_non_linear':0,'force_color':0,'num_intermediate':512,'use_batchnorm_mbox':0,'chop_num_heads':0}
caffe_root = :  /workspace/caffe-jacinto/build/tools/caffe.bin
config_param.ds_fac : 32
config_param.stride_list : [2, 2, 2, 2, 2]
num_gpus: 1  gpulist: ['0']
min_dim = 368
ratio_step_size: 20
minsizes = [14.72, 36.8, 110.4, 184.0, 257.6, 331.2]
maxsizes = [36.8, 110.4, 184.0, 257.6, 331.2, 404.8]
ARs: [[2], [2, 3], [2, 3], [2, 3], [2], [2]]
training/EYES/JDetNet/20200513_03-00_ssdSize512x512_dsFac32_dsTypePSP_rWidthHeight768x320_batchNorm0/test/train.prototxt
training/EYES/JDetNet/20200513_03-00_ssdSize512x512_dsFac32_dsTypePSP_rWidthHeight768x320_batchNorm0/test_quantize
mkdir: cannot create directory 'training/EYES/JDetNet/20200513_03-00_ssdSize512x512_dsFac32_dsTypePSP_rWidthHeight768x320_batchNorm0/test_quantize': File exists
{'type':'Adam','base_lr':1e-2,'max_iter':120000,'lr_policy':'poly','power':4.0,'stepvalue':[30000,45000,300000],'regularization_type':'L1','weight_decay':1e-5,'sparse_mode':1,'display_sparsity':1000}
{'config_name':'training/EYES/JDetNet/20200513_03-00_ssdSize512x512_dsFac32_dsTypePSP_rWidthHeight768x320_batchNorm0/test_quantize','model_name':'ssdJacintoNetV2','dataset':'EYES','gpus':'0','train_data':'/workspace/data/EYES/lmdb/EYES_trainval_lmdb','test_data':'/workspace/data/EYES/lmdb/official_test_850images','name_size_file':'/workspace/caffe-jacinto/data/EYES/test_name_size.txt','label_map_file':'/workspace/caffe-jacinto/data/EYES/labelmap_eye.prototxt','num_test_image':1151,'num_classes':4,'min_ratio':10,'max_ratio':90,
'log_space_steps':2,'use_difficult_gt':0,'ignore_difficult_gt':0,'evaluate_difficult_gt':0,'pretrain_model':'/workspace/caffe-jacinto-models/scripts/training/EYES/JDetNet/20200511_10-37_ssdSize512x512_dsFac32_dsTypePSP_rWidthHeight768x320_batchNorm0/sparse/EYES_ssdJacintoNetV2_iter_20000.caffemodel','use_image_list':0,'shuffle':0,'num_output':8,'resize_width':768,'resize_height':320,'crop_width':768,'crop_height':320,'batch_size':16,'test_batch_size':10,'caffe_cmd':'test_detection','aspect_ratios_type':1,'ssd_size':'512x512','small_objs':1,'min_dim':368,'concat_reg_head':0,
'fully_conv_at_end':0,'first_hd_same_op_ch':1,'ker_mbox_loc_conf':1,'base_nw_3_head':0,'reg_head_at_ds8':1,'ds_fac':32,'ds_type':'PSP','rhead_name_non_linear':0,'force_color':0,'num_intermediate':512,'use_batchnorm_mbox':0,'chop_num_heads':0}
caffe_root = :  /workspace/caffe-jacinto/build/tools/caffe.bin
config_param.ds_fac : 32
config_param.stride_list : [2, 2, 2, 2, 2]
num_gpus: 1  gpulist: ['0']
min_dim = 368
ratio_step_size: 20
minsizes = [14.72, 36.8, 110.4, 184.0, 257.6, 331.2]
maxsizes = [36.8, 110.4, 184.0, 257.6, 331.2, 404.8]
ARs: [[2], [2, 3], [2, 3], [2, 3], [2], [2]]
training/EYES/JDetNet/20200513_03-00_ssdSize512x512_dsFac32_dsTypePSP_rWidthHeight768x320_batchNorm0/test_quantize/train.prototxt
I0513 03:00:41.533619   640 caffe.cpp:902] This is NVCaffe 0.17.0 started at Wed May 13 03:00:41 2020
I0513 03:00:41.796167   640 caffe.cpp:904] CuDNN version: 7605
I0513 03:00:41.796173   640 caffe.cpp:905] CuBLAS version: 10202
I0513 03:00:41.796176   640 caffe.cpp:906] CUDA version: 10020
I0513 03:00:41.796180   640 caffe.cpp:907] CUDA driver version: 10020
I0513 03:00:41.796182   640 caffe.cpp:908] Arguments: 
[0]: /workspace/caffe-jacinto/build/tools/caffe.bin
[1]: test_detection
[2]: --model=training/EYES/JDetNet/20200513_03-00_ssdSize512x512_dsFac32_dsTypePSP_rWidthHeight768x320_batchNorm0/test/test.prototxt
[3]: --iterations=116
[4]: --display_sparsity=1
[5]: --weights=/workspace/caffe-jacinto-models/scripts/training/EYES/JDetNet/20200511_10-37_ssdSize512x512_dsFac32_dsTypePSP_rWidthHeight768x320_batchNorm0/sparse/EYES_ssdJacintoNetV2_iter_20000.caffemodel
[6]: --gpu
[7]: 0
I0513 03:00:41.816145   640 gpu_memory.cpp:105] GPUMemory::Manager initialized
I0513 03:00:41.816174   640 gpu_memory.cpp:107] Total memory: 16900227072, Free: 16697655296, dev_info[0]: total=16900227072 free=16697655296
I0513 03:00:41.816386   640 caffe.cpp:406] Use GPU with device ID 0
I0513 03:00:41.816515   640 caffe.cpp:409] GPU device name: Quadro RTX 5000
I0513 03:00:41.828219   640 net.cpp:80] Initializing net from parameters: 
name: "ssdJacintoNetV2_test"
state {
  phase: TEST
  level: 0
}
layer {
  name: "data"
  type: "AnnotatedData"
  top: "data"
  top: "label"
  include {
    phase: TEST
  }
  transform_param {
    mean_value: 0
    mean_value: 0
    mean_value: 0
    force_color: false
    resize_param {
      prob: 1
      resize_mode: WARP
      height: 320
      width: 768
      interp_mode: LINEAR
    }
    crop_h: 320
    crop_w: 768
  }
  data_param {
    source: "/workspace/data/EYES/lmdb/official_test_850images"
    batch_size: 10
    backend: LMDB
    threads: 4
    parser_threads: 4
  }
  annotated_data_param {
    batch_sampler {
    }
    label_map_file: "/workspace/caffe-jacinto/data/EYES/labelmap_eye.prototxt"
  }
}
layer {
  name: "data/bias"
  type: "Bias"
  bottom: "data"
  top: "data/bias"
  param {
    lr_mult: 0
    decay_mult: 0
  }
  bias_param {
    filler {
      type: "constant"
      value: -128
    }
  }
}
layer {
  name: "conv1a"
  type: "Convolution"
  bottom: "data/bias"
  top: "conv1a"
  param {
    lr_mult: 1
    decay_mult: 1
  }
  param {
    lr_mult: 2
    decay_mult: 0
  }
  convolution_param {
    num_output: 32
    bias_term: true
    pad: 2
    kernel_size: 5
    group: 1
    stride: 2
    weight_filler {
      type: "msra"
    }
    bias_filler {
      type: "constant"
      value: 0
    }
    dilation: 1
  }
}
layer {
  name: "conv1a/bn"
  type: "BatchNorm"
  bottom: "conv1a"
  top: "conv1a"
  batch_norm_param {
    moving_average_fraction: 0.99
    eps: 0.0001
    scale_bias: true
  }
}
layer {
  name: "conv1a/relu"
  type: "ReLU"
  bottom: "conv1a"
  top: "conv1a"
}
layer {
  name: "conv1b"
  type: "Convolution"
  bottom: "conv1a"
  top: "conv1b"
  param {
    lr_mult: 1
    decay_mult: 1
  }
  param {
    lr_mult: 2
    decay_mult: 0
  }
  convolution_param {
    num_output: 32
    bias_term: true
    pad: 1
    kernel_size: 3
    group: 4
    stride: 1
    weight_filler {
      type: "msra"
    }
    bias_filler {
      type: "constant"
      value: 0
    }
    dilation: 1
  }
}
layer {
  name: "conv1b/bn"
  type: "BatchNorm"
  bottom: "conv1b"
  top: "conv1b"
  batch_norm_param {
    moving_average_fraction: 0.99
    eps: 0.0001
    scale_bias: true
  }
}
layer {
  name: "conv1b/relu"
  type: "ReLU"
  bottom: "conv1b"
  top: "conv1b"
}
layer {
  name: "pool1"
  type: "Pooling"
  bottom: "conv1b"
  top: "pool1"
  pooling_param {
    pool: MAX
    kernel_size: 2
    stride: 2
  }
}
layer {
  name: "res2a_branch2a"
  type: "Convolution"
  bottom: "pool1"
  top: "res2a_branch2a"
  param {
    lr_mult: 1
    decay_mult: 1
  }
  param {
    lr_mult: 2
    decay_mult: 0
  }
  convolution_param {
    num_output: 64
    bias_term: true
    pad: 1
    kernel_size: 3
    group: 1
    stride: 1
    weight_filler {
      type: "msra"
    }
    bias_filler {
      type: "constant"
      value: 0
    }
    dilation: 1
  }
}
layer {
  name: "res2a_branch2a/bn"
  type: "BatchNorm"
  bottom: "res2a_branch2a"
  top: "res2a_branch2a"
  batch_norm_param {
    moving_average_fraction: 0.99
    eps: 0.0001
    scale_bias: true
  }
}
layer {
  name: "res2a_branch2a/relu"
  type: "ReLU"
  bottom: "res2a_branch2a"
  top: "res2a_branch2a"
}
layer {
  name: "res2a_branch2b"
  type: "Convolution"
  bottom: "res2a_branch2a"
  top: "res2a_branch2b"
  param {
    lr_mult: 1
    decay_mult: 1
  }
  param {
    lr_mult: 2
    decay_mult: 0
  }
  convolution_param {
    num_output: 64
    bias_term: true
    pad: 1
    kernel_size: 3
    group: 4
    stride: 1
    weight_filler {
      type: "msra"
    }
    bias_filler {
      type: "constant"
      value: 0
    }
    dilation: 1
  }
}
layer {
  name: "res2a_branch2b/bn"
  type: "BatchNorm"
  bottom: "res2a_branch2b"
  top: "res2a_branch2b"
  batch_norm_param {
    moving_average_fraction: 0.99
    eps: 0.0001
    scale_bias: true
  }
}
layer {
  name: "res2a_branch2b/relu"
  type: "ReLU"
  bottom: "res2a_branch2b"
  top: "res2a_branch2b"
}
layer {
  name: "pool2"
  type: "Pooling"
  bottom: "res2a_branch2b"
  top: "pool2"
  pooling_param {
    pool: MAX
    kernel_size: 2
    stride: 2
  }
}
layer {
  name: "res3a_branch2a"
  type: "Convolution"
  bottom: "pool2"
  top: "res3a_branch2a"
  param {
    lr_mult: 1
    decay_mult: 1
  }
  param {
    lr_mult: 2
    decay_mult: 0
  }
  convolution_param {
    num_output: 128
    bias_term: true
    pad: 1
    kernel_size: 3
    group: 1
    stride: 1
    weight_filler {
      type: "msra"
    }
    bias_filler {
      type: "constant"
      value: 0
    }
    dilation: 1
  }
}
layer {
  name: "res3a_branch2a/bn"
  type: "BatchNorm"
  bottom: "res3a_branch2a"
  top: "res3a_branch2a"
  batch_norm_param {
    moving_average_fraction: 0.99
    eps: 0.0001
    scale_bias: true
  }
}
layer {
  name: "res3a_branch2a/relu"
  type: "ReLU"
  bottom: "res3a_branch2a"
  top: "res3a_branch2a"
}
layer {
  name: "res3a_branch2b"
  type: "Convolution"
  bottom: "res3a_branch2a"
  top: "res3a_branch2b"
  param {
    lr_mult: 1
    decay_mult: 1
  }
  param {
    lr_mult: 2
    decay_mult: 0
  }
  convolution_param {
    num_output: 128
    bias_term: true
    pad: 1
    kernel_size: 3
    group: 4
    stride: 1
    weight_filler {
      type: "msra"
    }
    bias_filler {
      type: "constant"
      value: 0
    }
    dilation: 1
  }
}
layer {
  name: "res3a_branch2b/bn"
  type: "BatchNorm"
  bottom: "res3a_branch2b"
  top: "res3a_branch2b"
  batch_norm_param {
    moving_average_fraction: 0.99
    eps: 0.0001
    scale_bias: true
  }
}
layer {
  name: "res3a_branch2b/relu"
  type: "ReLU"
  bottom: "res3a_branch2b"
  top: "res3a_branch2b"
}
layer {
  name: "pool3"
  type: "Pooling"
  bottom: "res3a_branch2b"
  top: "pool3"
  pooling_param {
    pool: MAX
    kernel_size: 2
    stride: 2
  }
}
layer {
  name: "res4a_branch2a"
  type: "Convolution"
  bottom: "pool3"
  top: "res4a_branch2a"
  param {
    lr_mult: 1
    decay_mult: 1
  }
  param {
    lr_mult: 2
    decay_mult: 0
  }
  convolution_param {
    num_output: 256
    bias_term: true
    pad: 1
    kernel_size: 3
    group: 1
    stride: 1
    weight_filler {
      type: "msra"
    }
    bias_filler {
      type: "constant"
      value: 0
    }
    dilation: 1
  }
}
layer {
  name: "res4a_branch2a/bn"
  type: "BatchNorm"
  bottom: "res4a_branch2a"
  top: "res4a_branch2a"
  batch_norm_param {
    moving_average_fraction: 0.99
    eps: 0.0001
    scale_bias: true
  }
}
layer {
  name: "res4a_branch2a/relu"
  type: "ReLU"
  bottom: "res4a_branch2a"
  top: "res4a_branch2a"
}
layer {
  name: "res4a_branch2b"
  type: "Convolution"
  bottom: "res4a_branch2a"
  top: "res4a_branch2b"
  param {
    lr_mult: 1
    decay_mult: 1
  }
  param {
    lr_mult: 2
    decay_mult: 0
  }
  convolution_param {
    num_output: 256
    bias_term: true
    pad: 1
    kernel_size: 3
    group: 4
    stride: 1
    weight_filler {
      type: "msra"
    }
    bias_filler {
      type: "constant"
      value: 0
    }
    dilation: 1
  }
}
layer {
  name: "res4a_branch2b/bn"
  type: "BatchNorm"
  bottom: "res4a_branch2b"
  top: "res4a_branch2b"
  batch_norm_param {
    moving_average_fraction: 0.99
    eps: 0.0001
    scale_bias: true
  }
}
layer {
  name: "res4a_branch2b/relu"
  type: "ReLU"
  bottom: "res4a_branch2b"
  top: "res4a_branch2b"
}
layer {
  name: "pool4"
  type: "Pooling"
  bottom: "res4a_branch2b"
  top: "pool4"
  pooling_param {
    pool: MAX
    kernel_size: 2
    stride: 2
  }
}
layer {
  name: "res5a_branch2a"
  type: "Convolution"
  bottom: "pool4"
  top: "res5a_branch2a"
  param {
    lr_mult: 1
    decay_mult: 1
  }
  param {
    lr_mult: 2
    decay_mult: 0
  }
  convolution_param {
    num_output: 512
    bias_term: true
    pad: 1
    kernel_size: 3
    group: 1
    stride: 1
    weight_filler {
      type: "msra"
    }
    bias_filler {
      type: "constant"
      value: 0
    }
    dilation: 1
  }
}
layer {
  name: "res5a_branch2a/bn"
  type: "BatchNorm"
  bottom: "res5a_branch2a"
  top: "res5a_branch2a"
  batch_norm_param {
    moving_average_fraction: 0.99
    eps: 0.0001
    scale_bias: true
  }
}
layer {
  name: "res5a_branch2a/relu"
  type: "ReLU"
  bottom: "res5a_branch2a"
  top: "res5a_branch2a"
}
layer {
  name: "res5a_branch2b"
  type: "Convolution"
  bottom: "res5a_branch2a"
  top: "res5a_branch2b"
  param {
    lr_mult: 1
    decay_mult: 1
  }
  param {
    lr_mult: 2
    decay_mult: 0
  }
  convolution_param {
    num_output: 512
    bias_term: true
    pad: 1
    kernel_size: 3
    group: 4
    stride: 1
    weight_filler {
      type: "msra"
    }
    bias_filler {
      type: "constant"
      value: 0
    }
    dilation: 1
  }
}
layer {
  name: "res5a_branch2b/bn"
  type: "BatchNorm"
  bottom: "res5a_branch2b"
  top: "res5a_branch2b"
  batch_norm_param {
    moving_average_fraction: 0.99
    eps: 0.0001
    scale_bias: true
  }
}
layer {
  name: "res5a_branch2b/relu"
  type: "ReLU"
  bottom: "res5a_branch2b"
  top: "res5a_branch2b"
}
layer {
  name: "pool6"
  type: "Pooling"
  bottom: "res5a_branch2b"
  top: "pool6"
  pooling_param {
    pool: MAX
    kernel_size: 2
    stride: 2
    pad: 0
  }
}
layer {
  name: "pool7"
  type: "Pooling"
  bottom: "pool6"
  top: "pool7"
  pooling_param {
    pool: MAX
    kernel_size: 2
    stride: 2
    pad: 0
  }
}
layer {
  name: "pool8"
  type: "Pooling"
  bottom: "pool7"
  top: "pool8"
  pooling_param {
    pool: MAX
    kernel_size: 2
    stride: 2
    pad: 0
  }
}
layer {
  name: "pool9"
  type: "Pooling"
  bottom: "pool8"
  top: "pool9"
  pooling_param {
    pool: MAX
    kernel_size: 2
    stride: 2
    pad: 0
  }
}
layer {
  name: "ctx_output1"
  type: "Convolution"
  bottom: "res3a_branch2b"
  top: "ctx_output1"
  param {
    lr_mult: 1
    decay_mult: 1
  }
  param {
    lr_mult: 2
    decay_mult: 0
  }
  convolution_param {
    num_output: 256
    bias_term: true
    pad: 0
    kernel_size: 1
    group: 1
    stride: 1
    weight_filler {
      type: "msra"
    }
    bias_filler {
      type: "constant"
      value: 0
    }
    dilation: 1
  }
}
layer {
  name: "ctx_output1/relu"
  type: "ReLU"
  bottom: "ctx_output1"
  top: "ctx_output1"
}
layer {
  name: "ctx_output2"
  type: "Convolution"
  bottom: "res5a_branch2b"
  top: "ctx_output2"
  param {
    lr_mult: 1
    decay_mult: 1
  }
  param {
    lr_mult: 2
    decay_mult: 0
  }
  convolution_param {
    num_output: 256
    bias_term: true
    pad: 0
    kernel_size: 1
    group: 1
    stride: 1
    weight_filler {
      type: "msra"
    }
    bias_filler {
      type: "constant"
      value: 0
    }
    dilation: 1
  }
}
layer {
  name: "ctx_output2/relu"
  type: "ReLU"
  bottom: "ctx_output2"
  top: "ctx_output2"
}
layer {
  name: "ctx_output3"
  type: "Convolution"
  bottom: "pool6"
  top: "ctx_output3"
  param {
    lr_mult: 1
    decay_mult: 1
  }
  param {
    lr_mult: 2
    decay_mult: 0
  }
  convolution_param {
    num_output: 256
    bias_term: true
    pad: 0
    kernel_size: 1
    group: 1
    stride: 1
    weight_filler {
      type: "msra"
    }
    bias_filler {
      type: "constant"
      value: 0
    }
    dilation: 1
  }
}
layer {
  name: "ctx_output3/relu"
  type: "ReLU"
  bottom: "ctx_output3"
  top: "ctx_output3"
}
layer {
  name: "ctx_output4"
  type: "Convolution"
  bottom: "pool7"
  top: "ctx_output4"
  param {
    lr_mult: 1
    decay_mult: 1
  }
  param {
    lr_mult: 2
    decay_mult: 0
  }
  convolution_param {
    num_output: 256
    bias_term: true
    pad: 0
    kernel_size: 1
    group: 1
    stride: 1
    weight_filler {
      type: "msra"
    }
    bias_filler {
      type: "constant"
      value: 0
    }
    dilation: 1
  }
}
layer {
  name: "ctx_output4/relu"
  type: "ReLU"
  bottom: "ctx_output4"
  top: "ctx_output4"
}
layer {
  name: "ctx_output5"
  type: "Convolution"
  bottom: "pool8"
  top: "ctx_output5"
  param {
    lr_mult: 1
    decay_mult: 1
  }
  param {
    lr_mult: 2
    decay_mult: 0
  }
  convolution_param {
    num_output: 256
    bias_term: true
    pad: 0
    kernel_size: 1
    group: 1
    stride: 1
    weight_filler {
      type: "msra"
    }
    bias_filler {
      type: "constant"
      value: 0
    }
    dilation: 1
  }
}
layer {
  name: "ctx_output5/relu"
  type: "ReLU"
  bottom: "ctx_output5"
  top: "ctx_output5"
}
layer {
  name: "ctx_output6"
  type: "Convolution"
  bottom: "pool9"
  top: "ctx_output6"
  param {
    lr_mult: 1
    decay_mult: 1
  }
  param {
    lr_mult: 2
    decay_mult: 0
  }
  convolution_param {
    num_output: 256
    bias_term: true
    pad: 0
    kernel_size: 1
    group: 1
    stride: 1
    weight_filler {
      type: "msra"
    }
    bias_filler {
      type: "constant"
      value: 0
    }
    dilation: 1
  }
}
layer {
  name: "ctx_output6/relu"
  type: "ReLU"
  bottom: "ctx_output6"
  top: "ctx_output6"
}
layer {
  name: "ctx_output1/relu_mbox_loc"
  type: "Convolution"
  bottom: "ctx_output1"
  top: "ctx_output1/relu_mbox_loc"
  param {
    lr_mult: 1
    decay_mult: 1
  }
  param {
    lr_mult: 2
    decay_mult: 0
  }
  convolution_param {
    num_output: 16
    bias_term: true
    pad: 0
    kernel_size: 1
    group: 1
    stride: 1
    weight_filler {
      type: "msra"
    }
    bias_filler {
      type: "constant"
      value: 0
    }
    dilation: 1
  }
}
layer {
  name: "ctx_output1/relu_mbox_loc_perm"
  type: "Permute"
  bottom: "ctx_output1/relu_mbox_loc"
  top: "ctx_output1/relu_mbox_loc_perm"
  permute_param {
    order: 0
    order: 2
    order: 3
    order: 1
  }
}
layer {
  name: "ctx_output1/relu_mbox_loc_flat"
  type: "Flatten"
  bottom: "ctx_output1/relu_mbox_loc_perm"
  top: "ctx_output1/relu_mbox_loc_flat"
  flatten_param {
    axis: 1
  }
}
layer {
  name: "ctx_output1/relu_mbox_conf"
  type: "Convolution"
  bottom: "ctx_output1"
  top: "ctx_output1/relu_mbox_conf"
  param {
    lr_mult: 1
    decay_mult: 1
  }
  param {
    lr_mult: 2
    decay_mult: 0
  }
  convolution_param {
    num_output: 16
    bias_term: true
    pad: 0
    kernel_size: 1
    group: 1
    stride: 1
    weight_filler {
      type: "msra"
    }
    bias_filler {
      type: "constant"
      value: 0
    }
    dilation: 1
  }
}
layer {
  name: "ctx_output1/relu_mbox_conf_perm"
  type: "Permute"
  bottom: "ctx_output1/relu_mbox_conf"
  top: "ctx_output1/relu_mbox_conf_perm"
  permute_param {
    order: 0
    order: 2
    order: 3
    order: 1
  }
}
layer {
  name: "ctx_output1/relu_mbox_conf_flat"
  type: "Flatten"
  bottom: "ctx_output1/relu_mbox_conf_perm"
  top: "ctx_output1/relu_mbox_conf_flat"
  flatten_param {
    axis: 1
  }
}
layer {
  name: "ctx_output1/relu_mbox_priorbox"
  type: "PriorBox"
  bottom: "ctx_output1"
  bottom: "data"
  top: "ctx_output1/relu_mbox_priorbox"
  prior_box_param {
    min_size: 14.72
    max_size: 36.8
    aspect_ratio: 2
    flip: true
    clip: false
    variance: 0.1
    variance: 0.1
    variance: 0.2
    variance: 0.2
    offset: 0.5
  }
}
layer {
  name: "ctx_output2/relu_mbox_loc"
  type: "Convolution"
  bottom: "ctx_output2"
  top: "ctx_output2/relu_mbox_loc"
  param {
    lr_mult: 1
    decay_mult: 1
  }
  param {
    lr_mult: 2
    decay_mult: 0
  }
  convolution_param {
    num_output: 24
    bias_term: true
    pad: 0
    kernel_size: 1
    group: 1
    stride: 1
    weight_filler {
      type: "msra"
    }
    bias_filler {
      type: "constant"
      value: 0
    }
    dilation: 1
  }
}
layer {
  name: "ctx_output2/relu_mbox_loc_perm"
  type: "Permute"
  bottom: "ctx_output2/relu_mbox_loc"
  top: "ctx_output2/relu_mbox_loc_perm"
  permute_param {
    order: 0
    order: 2
    order: 3
    order: 1
  }
}
layer {
  name: "ctx_output2/relu_mbox_loc_flat"
  type: "Flatten"
  bottom: "ctx_output2/relu_mbox_loc_perm"
  top: "ctx_output2/relu_mbox_loc_flat"
  flatten_param {
    axis: 1
  }
}
layer {
  name: "ctx_output2/relu_mbox_conf"
  type: "Convolution"
  bottom: "ctx_output2"
  top: "ctx_output2/relu_mbox_conf"
  param {
    lr_mult: 1
    decay_mult: 1
  }
  param {
    lr_mult: 2
    decay_mult: 0
  }
  convolution_param {
    num_output: 24
    bias_term: true
    pad: 0
    kernel_size: 1
    group: 1
    stride: 1
    weight_filler {
      type: "msra"
    }
    bias_filler {
      type: "constant"
      value: 0
    }
    dilation: 1
  }
}
layer {
  name: "ctx_output2/relu_mbox_conf_perm"
  type: "Permute"
  bottom: "ctx_output2/relu_mbox_conf"
  top: "ctx_output2/relu_mbox_conf_perm"
  permute_param {
    order: 0
    order: 2
    order: 3
    order: 1
  }
}
layer {
  name: "ctx_output2/relu_mbox_conf_flat"
  type: "Flatten"
  bottom: "ctx_output2/relu_mbox_conf_perm"
  top: "ctx_output2/relu_mbox_conf_flat"
  flatten_param {
    axis: 1
  }
}
layer {
  name: "ctx_output2/relu_mbox_priorbox"
  type: "PriorBox"
  bottom: "ctx_output2"
  bottom: "data"
  top: "ctx_output2/relu_mbox_priorbox"
  prior_box_param {
    min_size: 36.8
    max_size: 110.4
    aspect_ratio: 2
    aspect_ratio: 3
    flip: true
    clip: false
    variance: 0.1
    variance: 0.1
    variance: 0.2
    variance: 0.2
    offset: 0.5
  }
}
layer {
  name: "ctx_output3/relu_mbox_loc"
  type: "Convolution"
  bottom: "ctx_output3"
  top: "ctx_output3/relu_mbox_loc"
  param {
    lr_mult: 1
    decay_mult: 1
  }
  param {
    lr_mult: 2
    decay_mult: 0
  }
  convolution_param {
    num_output: 24
    bias_term: true
    pad: 0
    kernel_size: 1
    group: 1
    stride: 1
    weight_filler {
      type: "msra"
    }
    bias_filler {
      type: "constant"
      value: 0
    }
    dilation: 1
  }
}
layer {
  name: "ctx_output3/relu_mbox_loc_perm"
  type: "Permute"
  bottom: "ctx_output3/relu_mbox_loc"
  top: "ctx_output3/relu_mbox_loc_perm"
  permute_param {
    order: 0
    order: 2
    order: 3
    order: 1
  }
}
layer {
  name: "ctx_output3/relu_mbox_loc_flat"
  type: "Flatten"
  bottom: "ctx_output3/relu_mbox_loc_perm"
  top: "ctx_output3/relu_mbox_loc_flat"
  flatten_param {
    axis: 1
  }
}
layer {
  name: "ctx_output3/relu_mbox_conf"
  type: "Convolution"
  bottom: "ctx_output3"
  top: "ctx_output3/relu_mbox_conf"
  param {
    lr_mult: 1
    decay_mult: 1
  }
  param {
    lr_mult: 2
    decay_mult: 0
  }
  convolution_param {
    num_output: 24
    bias_term: true
    pad: 0
    kernel_size: 1
    group: 1
    stride: 1
    weight_filler {
      type: "msra"
    }
    bias_filler {
      type: "constant"
      value: 0
    }
    dilation: 1
  }
}
layer {
  name: "ctx_output3/relu_mbox_conf_perm"
  type: "Permute"
  bottom: "ctx_output3/relu_mbox_conf"
  top: "ctx_output3/relu_mbox_conf_perm"
  permute_param {
    order: 0
    order: 2
    order: 3
    order: 1
  }
}
layer {
  name: "ctx_output3/relu_mbox_conf_flat"
  type: "Flatten"
  bottom: "ctx_output3/relu_mbox_conf_perm"
  top: "ctx_output3/relu_mbox_conf_flat"
  flatten_param {
    axis: 1
  }
}
layer {
  name: "ctx_output3/relu_mbox_priorbox"
  type: "PriorBox"
  bottom: "ctx_output3"
  bottom: "data"
  top: "ctx_output3/relu_mbox_priorbox"
  prior_box_param {
    min_size: 110.4
    max_size: 184
    aspect_ratio: 2
    aspect_ratio: 3
    flip: true
    clip: false
    variance: 0.1
    variance: 0.1
    variance: 0.2
    variance: 0.2
    offset: 0.5
  }
}
layer {
  name: "ctx_output4/relu_mbox_loc"
  type: "Convolution"
  bottom: "ctx_output4"
  top: "ctx_output4/relu_mbox_loc"
  param {
    lr_mult: 1
    decay_mult: 1
  }
  param {
    lr_mult: 2
    decay_mult: 0
  }
  convolution_param {
    num_output: 24
    bias_term: true
    pad: 0
    kernel_size: 1
    group: 1
    stride: 1
    weight_filler {
      type: "msra"
    }
    bias_filler {
      type: "constant"
      value: 0
    }
    dilation: 1
  }
}
layer {
  name: "ctx_output4/relu_mbox_loc_perm"
  type: "Permute"
  bottom: "ctx_output4/relu_mbox_loc"
  top: "ctx_output4/relu_mbox_loc_perm"
  permute_param {
    order: 0
    order: 2
    order: 3
    order: 1
  }
}
layer {
  name: "ctx_output4/relu_mbox_loc_flat"
  type: "Flatten"
  bottom: "ctx_output4/relu_mbox_loc_perm"
  top: "ctx_output4/relu_mbox_loc_flat"
  flatten_param {
    axis: 1
  }
}
layer {
  name: "ctx_output4/relu_mbox_conf"
  type: "Convolution"
  bottom: "ctx_output4"
  top: "ctx_output4/relu_mbox_conf"
  param {
    lr_mult: 1
    decay_mult: 1
  }
  param {
    lr_mult: 2
    decay_mult: 0
  }
  convolution_param {
    num_output: 24
    bias_term: true
    pad: 0
    kernel_size: 1
    group: 1
    stride: 1
    weight_filler {
      type: "msra"
    }
    bias_filler {
      type: "constant"
      value: 0
    }
    dilation: 1
  }
}
layer {
  name: "ctx_output4/relu_mbox_conf_perm"
  type: "Permute"
  bottom: "ctx_output4/relu_mbox_conf"
  top: "ctx_output4/relu_mbox_conf_perm"
  permute_param {
    order: 0
    order: 2
    order: 3
    order: 1
  }
}
layer {
  name: "ctx_output4/relu_mbox_conf_flat"
  type: "Flatten"
  bottom: "ctx_output4/relu_mbox_conf_perm"
  top: "ctx_output4/relu_mbox_conf_flat"
  flatten_param {
    axis: 1
  }
}
layer {
  name: "ctx_output4/relu_mbox_priorbox"
  type: "PriorBox"
  bottom: "ctx_output4"
  bottom: "data"
  top: "ctx_output4/relu_mbox_priorbox"
  prior_box_param {
    min_size: 184
    max_size: 257.6
    aspect_ratio: 2
    aspect_ratio: 3
    flip: true
    clip: false
    variance: 0.1
    variance: 0.1
    variance: 0.2
    variance: 0.2
    offset: 0.5
  }
}
layer {
  name: "ctx_output5/relu_mbox_loc"
  type: "Convolution"
  bottom: "ctx_output5"
  top: "ctx_output5/relu_mbox_loc"
  param {
    lr_mult: 1
    decay_mult: 1
  }
  param {
    lr_mult: 2
    decay_mult: 0
  }
  convolution_param {
    num_output: 16
    bias_term: true
    pad: 0
    kernel_size: 1
    group: 1
    stride: 1
    weight_filler {
      type: "msra"
    }
    bias_filler {
      type: "constant"
      value: 0
    }
    dilation: 1
  }
}
layer {
  name: "ctx_output5/relu_mbox_loc_perm"
  type: "Permute"
  bottom: "ctx_output5/relu_mbox_loc"
  top: "ctx_output5/relu_mbox_loc_perm"
  permute_param {
    order: 0
    order: 2
    order: 3
    order: 1
  }
}
layer {
  name: "ctx_output5/relu_mbox_loc_flat"
  type: "Flatten"
  bottom: "ctx_output5/relu_mbox_loc_perm"
  top: "ctx_output5/relu_mbox_loc_flat"
  flatten_param {
    axis: 1
  }
}
layer {
  name: "ctx_output5/relu_mbox_conf"
  type: "Convolution"
  bottom: "ctx_output5"
  top: "ctx_output5/relu_mbox_conf"
  param {
    lr_mult: 1
    decay_mult: 1
  }
  param {
    lr_mult: 2
    decay_mult: 0
  }
  convolution_param {
    num_output: 16
    bias_term: true
    pad: 0
    kernel_size: 1
    group: 1
    stride: 1
    weight_filler {
      type: "msra"
    }
    bias_filler {
      type: "constant"
      value: 0
    }
    dilation: 1
  }
}
layer {
  name: "ctx_output5/relu_mbox_conf_perm"
  type: "Permute"
  bottom: "ctx_output5/relu_mbox_conf"
  top: "ctx_output5/relu_mbox_conf_perm"
  permute_param {
    order: 0
    order: 2
    order: 3
    order: 1
  }
}
layer {
  name: "ctx_output5/relu_mbox_conf_flat"
  type: "Flatten"
  bottom: "ctx_output5/relu_mbox_conf_perm"
  top: "ctx_output5/relu_mbox_conf_flat"
  flatten_param {
    axis: 1
  }
}
layer {
  name: "ctx_output5/relu_mbox_priorbox"
  type: "PriorBox"
  bottom: "ctx_output5"
  bottom: "data"
  top: "ctx_output5/relu_mbox_priorbox"
  prior_box_param {
    min_size: 257.6
    max_size: 331.2
    aspect_ratio: 2
    flip: true
    clip: false
    variance: 0.1
    variance: 0.1
    variance: 0.2
    variance: 0.2
    offset: 0.5
  }
}
layer {
  name: "ctx_output6/relu_mbox_loc"
  type: "Convolution"
  bottom: "ctx_output6"
  top: "ctx_output6/relu_mbox_loc"
  param {
    lr_mult: 1
    decay_mult: 1
  }
  param {
    lr_mult: 2
    decay_mult: 0
  }
  convolution_param {
    num_output: 16
    bias_term: true
    pad: 0
    kernel_size: 1
    group: 1
    stride: 1
    weight_filler {
      type: "msra"
    }
    bias_filler {
      type: "constant"
      value: 0
    }
    dilation: 1
  }
}
layer {
  name: "ctx_output6/relu_mbox_loc_perm"
  type: "Permute"
  bottom: "ctx_output6/relu_mbox_loc"
  top: "ctx_output6/relu_mbox_loc_perm"
  permute_param {
    order: 0
    order: 2
    order: 3
    order: 1
  }
}
layer {
  name: "ctx_output6/relu_mbox_loc_flat"
  type: "Flatten"
  bottom: "ctx_output6/relu_mbox_loc_perm"
  top: "ctx_output6/relu_mbox_loc_flat"
  flatten_param {
    axis: 1
  }
}
layer {
  name: "ctx_output6/relu_mbox_conf"
  type: "Convolution"
  bottom: "ctx_output6"
  top: "ctx_output6/relu_mbox_conf"
  param {
    lr_mult: 1
    decay_mult: 1
  }
  param {
    lr_mult: 2
    decay_mult: 0
  }
  convolution_param {
    num_output: 16
    bias_term: true
    pad: 0
    kernel_size: 1
    group: 1
    stride: 1
    weight_filler {
      type: "msra"
    }
    bias_filler {
      type: "constant"
      value: 0
    }
    dilation: 1
  }
}
layer {
  name: "ctx_output6/relu_mbox_conf_perm"
  type: "Permute"
  bottom: "ctx_output6/relu_mbox_conf"
  top: "ctx_output6/relu_mbox_conf_perm"
  permute_param {
    order: 0
    order: 2
    order: 3
    order: 1
  }
}
layer {
  name: "ctx_output6/relu_mbox_conf_flat"
  type: "Flatten"
  bottom: "ctx_output6/relu_mbox_conf_perm"
  top: "ctx_output6/relu_mbox_conf_flat"
  flatten_param {
    axis: 1
  }
}
layer {
  name: "ctx_output6/relu_mbox_priorbox"
  type: "PriorBox"
  bottom: "ctx_output6"
  bottom: "data"
  top: "ctx_output6/relu_mbox_priorbox"
  prior_box_param {
    min_size: 331.2
    max_size: 404.8
    aspect_ratio: 2
    flip: true
    clip: false
    variance: 0.1
    variance: 0.1
    variance: 0.2
    variance: 0.2
    offset: 0.5
  }
}
layer {
  name: "mbox_loc"
  type: "Concat"
  bottom: "ctx_output1/relu_mbox_loc_flat"
  bottom: "ctx_output2/relu_mbox_loc_flat"
  bottom: "ctx_output3/relu_mbox_loc_flat"
  bottom: "ctx_output4/relu_mbox_loc_flat"
  bottom: "ctx_output5/relu_mbox_loc_flat"
  bottom: "ctx_output6/relu_mbox_loc_flat"
  top: "mbox_loc"
  concat_param {
    axis: 1
  }
}
layer {
  name: "mbox_conf"
  type: "Concat"
  bottom: "ctx_output1/relu_mbox_conf_flat"
  bottom: "ctx_output2/relu_mbox_conf_flat"
  bottom: "ctx_output3/relu_mbox_conf_flat"
  bottom: "ctx_output4/relu_mbox_conf_flat"
  bottom: "ctx_output5/relu_mbox_conf_flat"
  bottom: "ctx_output6/relu_mbox_conf_flat"
  top: "mbox_conf"
  concat_param {
    axis: 1
  }
}
layer {
  name: "mbox_priorbox"
  type: "Concat"
  bottom: "ctx_output1/relu_mbox_priorbox"
  bottom: "ctx_output2/relu_mbox_priorbox"
  bottom: "ctx_output3/relu_mbox_priorbox"
  bottom: "ctx_output4/relu_mbox_priorbox"
  bottom: "ctx_output5/relu_mbox_priorbox"
  bottom: "ctx_output6/relu_mbox_priorbox"
  top: "mbox_priorbox"
  concat_param {
    axis: 2
  }
}
layer {
  name: "mbox_conf_reshape"
  type: "Reshape"
  bottom: "mbox_conf"
  top: "mbox_conf_reshape"
  reshape_param {
    shape {
      dim: 0
      dim: -1
      dim: 4
    }
  }
}
layer {
  name: "mbox_conf_softmax"
  type: "Softmax"
  bottom: "mbox_conf_reshape"
  top: "mbox_conf_softmax"
  softmax_param {
    axis: 2
  }
}
layer {
  name: "mbox_conf_flatten"
  type: "Flatten"
  bottom: "mbox_conf_softmax"
  top: "mbox_conf_flatten"
  flatten_param {
    axis: 1
  }
}
layer {
  name: "detection_out"
  type: "DetectionOutput"
  bottom: "mbox_loc"
  bottom: "mbox_conf_flatten"
  bottom: "mbox_priorbox"
  top: "detection_out"
  include {
    phase: TEST
  }
  detection_output_param {
    num_classes: 4
    share_location: true
    background_label_id: 0
    nms_param {
      nms_threshold: 0.45
      top_k: 400
    }
    save_output_param {
      output_directory: ""
      output_name_prefix: "comp4_det_test_"
      output_format: "VOC"
      label_map_file: "/workspace/caffe-jacinto/data/EYES/labelmap_eye.prototxt"
      name_size_file: "/workspace/caffe-jacinto/data/EYES/test_name_size.txt"
      num_test_image: 1151
    }
    code_type: CENTER_SIZE
    keep_top_k: 200
    confidence_threshold: 0.01
  }
}
layer {
  name: "detection_eval"
  type: "DetectionEvaluate"
  bottom: "detection_out"
  bottom: "label"
  top: "detection_eval"
  include {
    phase: TEST
  }
  detection_evaluate_param {
    num_classes: 4
    background_label_id: 0
    overlap_threshold: 0.5
    evaluate_difficult_gt: false
    name_size_file: "/workspace/caffe-jacinto/data/EYES/test_name_size.txt"
  }
}
I0513 03:00:41.829133   640 net.cpp:110] Using FLOAT as default forward math type
I0513 03:00:41.829154   640 net.cpp:116] Using FLOAT as default backward math type
I0513 03:00:41.829164   640 layer_factory.hpp:172] Creating layer 'data' of type 'AnnotatedData'
I0513 03:00:41.829171   640 layer_factory.hpp:184] Layer's types are Ftype:FLOAT Btype:FLOAT Fmath:FLOAT Bmath:FLOAT
I0513 03:00:41.829301   640 internal_thread.cpp:19] Starting 1 internal thread(s) on device 0
I0513 03:00:41.829524   640 net.cpp:200] Created Layer data (0)
I0513 03:00:41.829788   645 blocking_queue.cpp:40] Data layer prefetch queue empty
I0513 03:00:41.829800   640 net.cpp:542] data -> data
I0513 03:00:41.829850   640 net.cpp:542] data -> label
I0513 03:00:41.829888   640 data_reader.cpp:58] Data Reader threads: 1, out queues: 1, depth: 10
I0513 03:00:41.829915   640 internal_thread.cpp:19] Starting 1 internal thread(s) on device 0
I0513 03:00:41.830257   646 db_lmdb.cpp:36] Opened lmdb /workspace/data/EYES/lmdb/official_test_850images
I0513 03:00:41.832403   640 annotated_data_layer.cpp:105] output data size: 10,3,320,768
I0513 03:00:41.832473   640 annotated_data_layer.cpp:150] (0) Output data size: 10, 3, 320, 768
I0513 03:00:41.832517   640 internal_thread.cpp:19] Starting 1 internal thread(s) on device 0
I0513 03:00:41.832612   640 net.cpp:260] Setting up data
I0513 03:00:41.832623   640 net.cpp:267] TEST Top shape for layer 0 'data' 10 3 320 768 (7372800)
I0513 03:00:41.832672   640 net.cpp:267] TEST Top shape for layer 0 'data' 1 1 2 8 (16)
I0513 03:00:41.832700   640 layer_factory.hpp:172] Creating layer 'data_data_0_split' of type 'Split'
I0513 03:00:41.832710   640 layer_factory.hpp:184] Layer's types are Ftype:FLOAT Btype:FLOAT Fmath:FLOAT Bmath:FLOAT
I0513 03:00:41.832724   640 net.cpp:200] Created Layer data_data_0_split (1)
I0513 03:00:41.832741   640 net.cpp:572] data_data_0_split <- data
I0513 03:00:41.832760   640 net.cpp:542] data_data_0_split -> data_data_0_split_0
I0513 03:00:41.832773   640 net.cpp:542] data_data_0_split -> data_data_0_split_1
I0513 03:00:41.832798   640 net.cpp:542] data_data_0_split -> data_data_0_split_2
I0513 03:00:41.832808   640 net.cpp:542] data_data_0_split -> data_data_0_split_3
I0513 03:00:41.832818   640 net.cpp:542] data_data_0_split -> data_data_0_split_4
I0513 03:00:41.832829   640 net.cpp:542] data_data_0_split -> data_data_0_split_5
I0513 03:00:41.832839   640 net.cpp:542] data_data_0_split -> data_data_0_split_6
I0513 03:00:41.832953   640 net.cpp:260] Setting up data_data_0_split
I0513 03:00:41.833153   640 net.cpp:267] TEST Top shape for layer 1 'data_data_0_split' 10 3 320 768 (7372800)
I0513 03:00:41.833154   647 data_layer.cpp:105] (0) Parser threads: 1
I0513 03:00:41.833178   640 net.cpp:267] TEST Top shape for layer 1 'data_data_0_split' 10 3 320 768 (7372800)
I0513 03:00:41.833184   647 data_layer.cpp:107] (0) Transformer threads: 1
I0513 03:00:41.833194   640 net.cpp:267] TEST Top shape for layer 1 'data_data_0_split' 10 3 320 768 (7372800)
I0513 03:00:41.833210   640 net.cpp:267] TEST Top shape for layer 1 'data_data_0_split' 10 3 320 768 (7372800)
I0513 03:00:41.833220   640 net.cpp:267] TEST Top shape for layer 1 'data_data_0_split' 10 3 320 768 (7372800)
I0513 03:00:41.833227   640 net.cpp:267] TEST Top shape for layer 1 'data_data_0_split' 10 3 320 768 (7372800)
I0513 03:00:41.833247   640 net.cpp:267] TEST Top shape for layer 1 'data_data_0_split' 10 3 320 768 (7372800)
I0513 03:00:41.833254   640 layer_factory.hpp:172] Creating layer 'data/bias' of type 'Bias'
I0513 03:00:41.833259   640 layer_factory.hpp:184] Layer's types are Ftype:FLOAT Btype:FLOAT Fmath:FLOAT Bmath:FLOAT
I0513 03:00:41.833271   640 net.cpp:200] Created Layer data/bias (2)
I0513 03:00:41.833277   640 net.cpp:572] data/bias <- data_data_0_split_0
I0513 03:00:41.833317   640 net.cpp:542] data/bias -> data/bias
I0513 03:00:41.833493   640 net.cpp:260] Setting up data/bias
I0513 03:00:41.833503   640 net.cpp:267] TEST Top shape for layer 2 'data/bias' 10 3 320 768 (7372800)
I0513 03:00:41.833536   640 layer_factory.hpp:172] Creating layer 'conv1a' of type 'Convolution'
I0513 03:00:41.833542   640 layer_factory.hpp:184] Layer's types are Ftype:FLOAT Btype:FLOAT Fmath:FLOAT Bmath:FLOAT
I0513 03:00:41.833568   640 net.cpp:200] Created Layer conv1a (3)
I0513 03:00:41.833576   640 net.cpp:572] conv1a <- data/bias
I0513 03:00:41.833591   640 net.cpp:542] conv1a -> conv1a
I0513 03:00:42.759479   640 net.cpp:260] Setting up conv1a
I0513 03:00:42.759500   640 net.cpp:267] TEST Top shape for layer 3 'conv1a' 10 32 160 384 (19660800)
I0513 03:00:42.759526   640 layer_factory.hpp:172] Creating layer 'conv1a/bn' of type 'BatchNorm'
I0513 03:00:42.759548   640 layer_factory.hpp:184] Layer's types are Ftype:FLOAT Btype:FLOAT Fmath:FLOAT Bmath:FLOAT
I0513 03:00:42.759565   640 net.cpp:200] Created Layer conv1a/bn (4)
I0513 03:00:42.759572   640 net.cpp:572] conv1a/bn <- conv1a
I0513 03:00:42.759577   640 net.cpp:527] conv1a/bn -> conv1a (in-place)
I0513 03:00:42.759943   640 net.cpp:260] Setting up conv1a/bn
I0513 03:00:42.759951   640 net.cpp:267] TEST Top shape for layer 4 'conv1a/bn' 10 32 160 384 (19660800)
I0513 03:00:42.759968   640 layer_factory.hpp:172] Creating layer 'conv1a/relu' of type 'ReLU'
I0513 03:00:42.759991   640 layer_factory.hpp:184] Layer's types are Ftype:FLOAT Btype:FLOAT Fmath:FLOAT Bmath:FLOAT
I0513 03:00:42.760002   640 net.cpp:200] Created Layer conv1a/relu (5)
I0513 03:00:42.760007   640 net.cpp:572] conv1a/relu <- conv1a
I0513 03:00:42.760015   640 net.cpp:527] conv1a/relu -> conv1a (in-place)
I0513 03:00:42.760041   640 net.cpp:260] Setting up conv1a/relu
I0513 03:00:42.760051   640 net.cpp:267] TEST Top shape for layer 5 'conv1a/relu' 10 32 160 384 (19660800)
I0513 03:00:42.760062   640 layer_factory.hpp:172] Creating layer 'conv1b' of type 'Convolution'
I0513 03:00:42.760069   640 layer_factory.hpp:184] Layer's types are Ftype:FLOAT Btype:FLOAT Fmath:FLOAT Bmath:FLOAT
I0513 03:00:42.760088   640 net.cpp:200] Created Layer conv1b (6)
I0513 03:00:42.760095   640 net.cpp:572] conv1b <- conv1a
I0513 03:00:42.760110   640 net.cpp:542] conv1b -> conv1b
I0513 03:00:42.760602   640 net.cpp:260] Setting up conv1b
I0513 03:00:42.760612   640 net.cpp:267] TEST Top shape for layer 6 'conv1b' 10 32 160 384 (19660800)
I0513 03:00:42.760624   640 layer_factory.hpp:172] Creating layer 'conv1b/bn' of type 'BatchNorm'
I0513 03:00:42.760632   640 layer_factory.hpp:184] Layer's types are Ftype:FLOAT Btype:FLOAT Fmath:FLOAT Bmath:FLOAT
I0513 03:00:42.760643   640 net.cpp:200] Created Layer conv1b/bn (7)
I0513 03:00:42.760653   640 net.cpp:572] conv1b/bn <- conv1b
I0513 03:00:42.760658   640 net.cpp:527] conv1b/bn -> conv1b (in-place)
I0513 03:00:42.760968   640 net.cpp:260] Setting up conv1b/bn
I0513 03:00:42.760975   640 net.cpp:267] TEST Top shape for layer 7 'conv1b/bn' 10 32 160 384 (19660800)
I0513 03:00:42.760990   640 layer_factory.hpp:172] Creating layer 'conv1b/relu' of type 'ReLU'
I0513 03:00:42.760996   640 layer_factory.hpp:184] Layer's types are Ftype:FLOAT Btype:FLOAT Fmath:FLOAT Bmath:FLOAT
I0513 03:00:42.761005   640 net.cpp:200] Created Layer conv1b/relu (8)
I0513 03:00:42.761010   640 net.cpp:572] conv1b/relu <- conv1b
I0513 03:00:42.761019   640 net.cpp:527] conv1b/relu -> conv1b (in-place)
I0513 03:00:42.761029   640 net.cpp:260] Setting up conv1b/relu
I0513 03:00:42.761034   640 net.cpp:267] TEST Top shape for layer 8 'conv1b/relu' 10 32 160 384 (19660800)
I0513 03:00:42.761062   640 layer_factory.hpp:172] Creating layer 'pool1' of type 'Pooling'
I0513 03:00:42.761067   640 layer_factory.hpp:184] Layer's types are Ftype:FLOAT Btype:FLOAT Fmath:FLOAT Bmath:FLOAT
I0513 03:00:42.761080   640 net.cpp:200] Created Layer pool1 (9)
I0513 03:00:42.761087   640 net.cpp:572] pool1 <- conv1b
I0513 03:00:42.761093   640 net.cpp:542] pool1 -> pool1
I0513 03:00:42.761179   640 net.cpp:260] Setting up pool1
I0513 03:00:42.761184   640 net.cpp:267] TEST Top shape for layer 9 'pool1' 10 32 80 192 (4915200)
I0513 03:00:42.761191   640 layer_factory.hpp:172] Creating layer 'res2a_branch2a' of type 'Convolution'
I0513 03:00:42.761195   640 layer_factory.hpp:184] Layer's types are Ftype:FLOAT Btype:FLOAT Fmath:FLOAT Bmath:FLOAT
I0513 03:00:42.761209   640 net.cpp:200] Created Layer res2a_branch2a (10)
I0513 03:00:42.761214   640 net.cpp:572] res2a_branch2a <- pool1
I0513 03:00:42.761217   640 net.cpp:542] res2a_branch2a -> res2a_branch2a
I0513 03:00:42.762370   640 net.cpp:260] Setting up res2a_branch2a
I0513 03:00:42.762382   640 net.cpp:267] TEST Top shape for layer 10 'res2a_branch2a' 10 64 80 192 (9830400)
I0513 03:00:42.762395   640 layer_factory.hpp:172] Creating layer 'res2a_branch2a/bn' of type 'BatchNorm'
I0513 03:00:42.762401   640 layer_factory.hpp:184] Layer's types are Ftype:FLOAT Btype:FLOAT Fmath:FLOAT Bmath:FLOAT
I0513 03:00:42.762410   640 net.cpp:200] Created Layer res2a_branch2a/bn (11)
I0513 03:00:42.762418   640 net.cpp:572] res2a_branch2a/bn <- res2a_branch2a
I0513 03:00:42.762428   640 net.cpp:527] res2a_branch2a/bn -> res2a_branch2a (in-place)
I0513 03:00:42.762734   640 net.cpp:260] Setting up res2a_branch2a/bn
I0513 03:00:42.762742   640 net.cpp:267] TEST Top shape for layer 11 'res2a_branch2a/bn' 10 64 80 192 (9830400)
I0513 03:00:42.762753   640 layer_factory.hpp:172] Creating layer 'res2a_branch2a/relu' of type 'ReLU'
I0513 03:00:42.762759   640 layer_factory.hpp:184] Layer's types are Ftype:FLOAT Btype:FLOAT Fmath:FLOAT Bmath:FLOAT
I0513 03:00:42.762768   640 net.cpp:200] Created Layer res2a_branch2a/relu (12)
I0513 03:00:42.762775   640 net.cpp:572] res2a_branch2a/relu <- res2a_branch2a
I0513 03:00:42.762780   640 net.cpp:527] res2a_branch2a/relu -> res2a_branch2a (in-place)
I0513 03:00:42.762789   640 net.cpp:260] Setting up res2a_branch2a/relu
I0513 03:00:42.762792   640 net.cpp:267] TEST Top shape for layer 12 'res2a_branch2a/relu' 10 64 80 192 (9830400)
I0513 03:00:42.762799   640 layer_factory.hpp:172] Creating layer 'res2a_branch2b' of type 'Convolution'
I0513 03:00:42.762804   640 layer_factory.hpp:184] Layer's types are Ftype:FLOAT Btype:FLOAT Fmath:FLOAT Bmath:FLOAT
I0513 03:00:42.762815   640 net.cpp:200] Created Layer res2a_branch2b (13)
I0513 03:00:42.762821   640 net.cpp:572] res2a_branch2b <- res2a_branch2a
I0513 03:00:42.762825   640 net.cpp:542] res2a_branch2b -> res2a_branch2b
I0513 03:00:42.763146   640 net.cpp:260] Setting up res2a_branch2b
I0513 03:00:42.763154   640 net.cpp:267] TEST Top shape for layer 13 'res2a_branch2b' 10 64 80 192 (9830400)
I0513 03:00:42.763164   640 layer_factory.hpp:172] Creating layer 'res2a_branch2b/bn' of type 'BatchNorm'
I0513 03:00:42.763167   640 layer_factory.hpp:184] Layer's types are Ftype:FLOAT Btype:FLOAT Fmath:FLOAT Bmath:FLOAT
I0513 03:00:42.763175   640 net.cpp:200] Created Layer res2a_branch2b/bn (14)
I0513 03:00:42.763181   640 net.cpp:572] res2a_branch2b/bn <- res2a_branch2b
I0513 03:00:42.763187   640 net.cpp:527] res2a_branch2b/bn -> res2a_branch2b (in-place)
I0513 03:00:42.763468   640 net.cpp:260] Setting up res2a_branch2b/bn
I0513 03:00:42.763474   640 net.cpp:267] TEST Top shape for layer 14 'res2a_branch2b/bn' 10 64 80 192 (9830400)
I0513 03:00:42.763484   640 layer_factory.hpp:172] Creating layer 'res2a_branch2b/relu' of type 'ReLU'
I0513 03:00:42.763489   640 layer_factory.hpp:184] Layer's types are Ftype:FLOAT Btype:FLOAT Fmath:FLOAT Bmath:FLOAT
I0513 03:00:42.763494   640 net.cpp:200] Created Layer res2a_branch2b/relu (15)
I0513 03:00:42.763514   640 net.cpp:572] res2a_branch2b/relu <- res2a_branch2b
I0513 03:00:42.763520   640 net.cpp:527] res2a_branch2b/relu -> res2a_branch2b (in-place)
I0513 03:00:42.763527   640 net.cpp:260] Setting up res2a_branch2b/relu
I0513 03:00:42.763533   640 net.cpp:267] TEST Top shape for layer 15 'res2a_branch2b/relu' 10 64 80 192 (9830400)
I0513 03:00:42.763540   640 layer_factory.hpp:172] Creating layer 'pool2' of type 'Pooling'
I0513 03:00:42.763543   640 layer_factory.hpp:184] Layer's types are Ftype:FLOAT Btype:FLOAT Fmath:FLOAT Bmath:FLOAT
I0513 03:00:42.763554   640 net.cpp:200] Created Layer pool2 (16)
I0513 03:00:42.763561   640 net.cpp:572] pool2 <- res2a_branch2b
I0513 03:00:42.763564   640 net.cpp:542] pool2 -> pool2
I0513 03:00:42.763622   640 net.cpp:260] Setting up pool2
I0513 03:00:42.763633   640 net.cpp:267] TEST Top shape for layer 16 'pool2' 10 64 40 96 (2457600)
I0513 03:00:42.763640   640 layer_factory.hpp:172] Creating layer 'res3a_branch2a' of type 'Convolution'
I0513 03:00:42.763645   640 layer_factory.hpp:184] Layer's types are Ftype:FLOAT Btype:FLOAT Fmath:FLOAT Bmath:FLOAT
I0513 03:00:42.763656   640 net.cpp:200] Created Layer res3a_branch2a (17)
I0513 03:00:42.763662   640 net.cpp:572] res3a_branch2a <- pool2
I0513 03:00:42.763671   640 net.cpp:542] res3a_branch2a -> res3a_branch2a
I0513 03:00:42.764698   640 net.cpp:260] Setting up res3a_branch2a
I0513 03:00:42.764708   640 net.cpp:267] TEST Top shape for layer 17 'res3a_branch2a' 10 128 40 96 (4915200)
I0513 03:00:42.764717   640 layer_factory.hpp:172] Creating layer 'res3a_branch2a/bn' of type 'BatchNorm'
I0513 03:00:42.764724   640 layer_factory.hpp:184] Layer's types are Ftype:FLOAT Btype:FLOAT Fmath:FLOAT Bmath:FLOAT
I0513 03:00:42.764732   640 net.cpp:200] Created Layer res3a_branch2a/bn (18)
I0513 03:00:42.764736   640 net.cpp:572] res3a_branch2a/bn <- res3a_branch2a
I0513 03:00:42.764741   640 net.cpp:527] res3a_branch2a/bn -> res3a_branch2a (in-place)
I0513 03:00:42.764993   640 net.cpp:260] Setting up res3a_branch2a/bn
I0513 03:00:42.765000   640 net.cpp:267] TEST Top shape for layer 18 'res3a_branch2a/bn' 10 128 40 96 (4915200)
I0513 03:00:42.765012   640 layer_factory.hpp:172] Creating layer 'res3a_branch2a/relu' of type 'ReLU'
I0513 03:00:42.765017   640 layer_factory.hpp:184] Layer's types are Ftype:FLOAT Btype:FLOAT Fmath:FLOAT Bmath:FLOAT
I0513 03:00:42.765023   640 net.cpp:200] Created Layer res3a_branch2a/relu (19)
I0513 03:00:42.765028   640 net.cpp:572] res3a_branch2a/relu <- res3a_branch2a
I0513 03:00:42.765035   640 net.cpp:527] res3a_branch2a/relu -> res3a_branch2a (in-place)
I0513 03:00:42.765045   640 net.cpp:260] Setting up res3a_branch2a/relu
I0513 03:00:42.765050   640 net.cpp:267] TEST Top shape for layer 19 'res3a_branch2a/relu' 10 128 40 96 (4915200)
I0513 03:00:42.765061   640 layer_factory.hpp:172] Creating layer 'res3a_branch2b' of type 'Convolution'
I0513 03:00:42.765069   640 layer_factory.hpp:184] Layer's types are Ftype:FLOAT Btype:FLOAT Fmath:FLOAT Bmath:FLOAT
I0513 03:00:42.765081   640 net.cpp:200] Created Layer res3a_branch2b (20)
I0513 03:00:42.765090   640 net.cpp:572] res3a_branch2b <- res3a_branch2a
I0513 03:00:42.765094   640 net.cpp:542] res3a_branch2b -> res3a_branch2b
I0513 03:00:42.765738   640 net.cpp:260] Setting up res3a_branch2b
I0513 03:00:42.765746   640 net.cpp:267] TEST Top shape for layer 20 'res3a_branch2b' 10 128 40 96 (4915200)
I0513 03:00:42.765755   640 layer_factory.hpp:172] Creating layer 'res3a_branch2b/bn' of type 'BatchNorm'
I0513 03:00:42.765760   640 layer_factory.hpp:184] Layer's types are Ftype:FLOAT Btype:FLOAT Fmath:FLOAT Bmath:FLOAT
I0513 03:00:42.765767   640 net.cpp:200] Created Layer res3a_branch2b/bn (21)
I0513 03:00:42.765772   640 net.cpp:572] res3a_branch2b/bn <- res3a_branch2b
I0513 03:00:42.765779   640 net.cpp:527] res3a_branch2b/bn -> res3a_branch2b (in-place)
I0513 03:00:42.766028   640 net.cpp:260] Setting up res3a_branch2b/bn
I0513 03:00:42.766034   640 net.cpp:267] TEST Top shape for layer 21 'res3a_branch2b/bn' 10 128 40 96 (4915200)
I0513 03:00:42.766055   640 layer_factory.hpp:172] Creating layer 'res3a_branch2b/relu' of type 'ReLU'
I0513 03:00:42.766059   640 layer_factory.hpp:184] Layer's types are Ftype:FLOAT Btype:FLOAT Fmath:FLOAT Bmath:FLOAT
I0513 03:00:42.766067   640 net.cpp:200] Created Layer res3a_branch2b/relu (22)
I0513 03:00:42.766073   640 net.cpp:572] res3a_branch2b/relu <- res3a_branch2b
I0513 03:00:42.766079   640 net.cpp:527] res3a_branch2b/relu -> res3a_branch2b (in-place)
I0513 03:00:42.766088   640 net.cpp:260] Setting up res3a_branch2b/relu
I0513 03:00:42.766095   640 net.cpp:267] TEST Top shape for layer 22 'res3a_branch2b/relu' 10 128 40 96 (4915200)
I0513 03:00:42.766105   640 layer_factory.hpp:172] Creating layer 'res3a_branch2b_res3a_branch2b/relu_0_split' of type 'Split'
I0513 03:00:42.766114   640 layer_factory.hpp:184] Layer's types are Ftype:FLOAT Btype:FLOAT Fmath:FLOAT Bmath:FLOAT
I0513 03:00:42.766124   640 net.cpp:200] Created Layer res3a_branch2b_res3a_branch2b/relu_0_split (23)
I0513 03:00:42.766129   640 net.cpp:572] res3a_branch2b_res3a_branch2b/relu_0_split <- res3a_branch2b
I0513 03:00:42.766139   640 net.cpp:542] res3a_branch2b_res3a_branch2b/relu_0_split -> res3a_branch2b_res3a_branch2b/relu_0_split_0
I0513 03:00:42.766147   640 net.cpp:542] res3a_branch2b_res3a_branch2b/relu_0_split -> res3a_branch2b_res3a_branch2b/relu_0_split_1
I0513 03:00:42.766189   640 net.cpp:260] Setting up res3a_branch2b_res3a_branch2b/relu_0_split
I0513 03:00:42.766196   640 net.cpp:267] TEST Top shape for layer 23 'res3a_branch2b_res3a_branch2b/relu_0_split' 10 128 40 96 (4915200)
I0513 03:00:42.766201   640 net.cpp:267] TEST Top shape for layer 23 'res3a_branch2b_res3a_branch2b/relu_0_split' 10 128 40 96 (4915200)
I0513 03:00:42.766209   640 layer_factory.hpp:172] Creating layer 'pool3' of type 'Pooling'
I0513 03:00:42.766217   640 layer_factory.hpp:184] Layer's types are Ftype:FLOAT Btype:FLOAT Fmath:FLOAT Bmath:FLOAT
I0513 03:00:42.766227   640 net.cpp:200] Created Layer pool3 (24)
I0513 03:00:42.766232   640 net.cpp:572] pool3 <- res3a_branch2b_res3a_branch2b/relu_0_split_0
I0513 03:00:42.766249   640 net.cpp:542] pool3 -> pool3
I0513 03:00:42.766310   640 net.cpp:260] Setting up pool3
I0513 03:00:42.766319   640 net.cpp:267] TEST Top shape for layer 24 'pool3' 10 128 20 48 (1228800)
I0513 03:00:42.766328   640 layer_factory.hpp:172] Creating layer 'res4a_branch2a' of type 'Convolution'
I0513 03:00:42.766332   640 layer_factory.hpp:184] Layer's types are Ftype:FLOAT Btype:FLOAT Fmath:FLOAT Bmath:FLOAT
I0513 03:00:42.766355   640 net.cpp:200] Created Layer res4a_branch2a (25)
I0513 03:00:42.766361   640 net.cpp:572] res4a_branch2a <- pool3
I0513 03:00:42.766366   640 net.cpp:542] res4a_branch2a -> res4a_branch2a
I0513 03:00:42.770373   640 net.cpp:260] Setting up res4a_branch2a
I0513 03:00:42.770385   640 net.cpp:267] TEST Top shape for layer 25 'res4a_branch2a' 10 256 20 48 (2457600)
I0513 03:00:42.770395   640 layer_factory.hpp:172] Creating layer 'res4a_branch2a/bn' of type 'BatchNorm'
I0513 03:00:42.770411   640 layer_factory.hpp:184] Layer's types are Ftype:FLOAT Btype:FLOAT Fmath:FLOAT Bmath:FLOAT
I0513 03:00:42.770419   640 net.cpp:200] Created Layer res4a_branch2a/bn (26)
I0513 03:00:42.770426   640 net.cpp:572] res4a_branch2a/bn <- res4a_branch2a
I0513 03:00:42.770431   640 net.cpp:527] res4a_branch2a/bn -> res4a_branch2a (in-place)
I0513 03:00:42.770709   640 net.cpp:260] Setting up res4a_branch2a/bn
I0513 03:00:42.770716   640 net.cpp:267] TEST Top shape for layer 26 'res4a_branch2a/bn' 10 256 20 48 (2457600)
I0513 03:00:42.770727   640 layer_factory.hpp:172] Creating layer 'res4a_branch2a/relu' of type 'ReLU'
I0513 03:00:42.770735   640 layer_factory.hpp:184] Layer's types are Ftype:FLOAT Btype:FLOAT Fmath:FLOAT Bmath:FLOAT
I0513 03:00:42.770745   640 net.cpp:200] Created Layer res4a_branch2a/relu (27)
I0513 03:00:42.770750   640 net.cpp:572] res4a_branch2a/relu <- res4a_branch2a
I0513 03:00:42.770754   640 net.cpp:527] res4a_branch2a/relu -> res4a_branch2a (in-place)
I0513 03:00:42.770761   640 net.cpp:260] Setting up res4a_branch2a/relu
I0513 03:00:42.770781   640 net.cpp:267] TEST Top shape for layer 27 'res4a_branch2a/relu' 10 256 20 48 (2457600)
I0513 03:00:42.770789   640 layer_factory.hpp:172] Creating layer 'res4a_branch2b' of type 'Convolution'
I0513 03:00:42.770794   640 layer_factory.hpp:184] Layer's types are Ftype:FLOAT Btype:FLOAT Fmath:FLOAT Bmath:FLOAT
I0513 03:00:42.770809   640 net.cpp:200] Created Layer res4a_branch2b (28)
I0513 03:00:42.770817   640 net.cpp:572] res4a_branch2b <- res4a_branch2a
I0513 03:00:42.770824   640 net.cpp:542] res4a_branch2b -> res4a_branch2b
I0513 03:00:42.772646   640 net.cpp:260] Setting up res4a_branch2b
I0513 03:00:42.772660   640 net.cpp:267] TEST Top shape for layer 28 'res4a_branch2b' 10 256 20 48 (2457600)
I0513 03:00:42.772676   640 layer_factory.hpp:172] Creating layer 'res4a_branch2b/bn' of type 'BatchNorm'
I0513 03:00:42.772683   640 layer_factory.hpp:184] Layer's types are Ftype:FLOAT Btype:FLOAT Fmath:FLOAT Bmath:FLOAT
I0513 03:00:42.772694   640 net.cpp:200] Created Layer res4a_branch2b/bn (29)
I0513 03:00:42.772706   640 net.cpp:572] res4a_branch2b/bn <- res4a_branch2b
I0513 03:00:42.772714   640 net.cpp:527] res4a_branch2b/bn -> res4a_branch2b (in-place)
I0513 03:00:42.773001   640 net.cpp:260] Setting up res4a_branch2b/bn
I0513 03:00:42.773008   640 net.cpp:267] TEST Top shape for layer 29 'res4a_branch2b/bn' 10 256 20 48 (2457600)
I0513 03:00:42.773022   640 layer_factory.hpp:172] Creating layer 'res4a_branch2b/relu' of type 'ReLU'
I0513 03:00:42.773031   640 layer_factory.hpp:184] Layer's types are Ftype:FLOAT Btype:FLOAT Fmath:FLOAT Bmath:FLOAT
I0513 03:00:42.773039   640 net.cpp:200] Created Layer res4a_branch2b/relu (30)
I0513 03:00:42.773046   640 net.cpp:572] res4a_branch2b/relu <- res4a_branch2b
I0513 03:00:42.773052   640 net.cpp:527] res4a_branch2b/relu -> res4a_branch2b (in-place)
I0513 03:00:42.773061   640 net.cpp:260] Setting up res4a_branch2b/relu
I0513 03:00:42.773066   640 net.cpp:267] TEST Top shape for layer 30 'res4a_branch2b/relu' 10 256 20 48 (2457600)
I0513 03:00:42.773075   640 layer_factory.hpp:172] Creating layer 'pool4' of type 'Pooling'
I0513 03:00:42.773080   640 layer_factory.hpp:184] Layer's types are Ftype:FLOAT Btype:FLOAT Fmath:FLOAT Bmath:FLOAT
I0513 03:00:42.773088   640 net.cpp:200] Created Layer pool4 (31)
I0513 03:00:42.773097   640 net.cpp:572] pool4 <- res4a_branch2b
I0513 03:00:42.773102   640 net.cpp:542] pool4 -> pool4
I0513 03:00:42.773155   640 net.cpp:260] Setting up pool4
I0513 03:00:42.773162   640 net.cpp:267] TEST Top shape for layer 31 'pool4' 10 256 10 24 (614400)
I0513 03:00:42.773171   640 layer_factory.hpp:172] Creating layer 'res5a_branch2a' of type 'Convolution'
I0513 03:00:42.773191   640 layer_factory.hpp:184] Layer's types are Ftype:FLOAT Btype:FLOAT Fmath:FLOAT Bmath:FLOAT
I0513 03:00:42.773211   640 net.cpp:200] Created Layer res5a_branch2a (32)
I0513 03:00:42.773221   640 net.cpp:572] res5a_branch2a <- pool4
I0513 03:00:42.773227   640 net.cpp:542] res5a_branch2a -> res5a_branch2a
I0513 03:00:42.787245   640 net.cpp:260] Setting up res5a_branch2a
I0513 03:00:42.787258   640 net.cpp:267] TEST Top shape for layer 32 'res5a_branch2a' 10 512 10 24 (1228800)
I0513 03:00:42.787271   640 layer_factory.hpp:172] Creating layer 'res5a_branch2a/bn' of type 'BatchNorm'
I0513 03:00:42.787276   640 layer_factory.hpp:184] Layer's types are Ftype:FLOAT Btype:FLOAT Fmath:FLOAT Bmath:FLOAT
I0513 03:00:42.787286   640 net.cpp:200] Created Layer res5a_branch2a/bn (33)
I0513 03:00:42.787292   640 net.cpp:572] res5a_branch2a/bn <- res5a_branch2a
I0513 03:00:42.787298   640 net.cpp:527] res5a_branch2a/bn -> res5a_branch2a (in-place)
I0513 03:00:42.787580   640 net.cpp:260] Setting up res5a_branch2a/bn
I0513 03:00:42.787585   640 net.cpp:267] TEST Top shape for layer 33 'res5a_branch2a/bn' 10 512 10 24 (1228800)
I0513 03:00:42.787595   640 layer_factory.hpp:172] Creating layer 'res5a_branch2a/relu' of type 'ReLU'
I0513 03:00:42.787600   640 layer_factory.hpp:184] Layer's types are Ftype:FLOAT Btype:FLOAT Fmath:FLOAT Bmath:FLOAT
I0513 03:00:42.787621   640 net.cpp:200] Created Layer res5a_branch2a/relu (34)
I0513 03:00:42.787627   640 net.cpp:572] res5a_branch2a/relu <- res5a_branch2a
I0513 03:00:42.787633   640 net.cpp:527] res5a_branch2a/relu -> res5a_branch2a (in-place)
I0513 03:00:42.787640   640 net.cpp:260] Setting up res5a_branch2a/relu
I0513 03:00:42.787645   640 net.cpp:267] TEST Top shape for layer 34 'res5a_branch2a/relu' 10 512 10 24 (1228800)
I0513 03:00:42.787652   640 layer_factory.hpp:172] Creating layer 'res5a_branch2b' of type 'Convolution'
I0513 03:00:42.787657   640 layer_factory.hpp:184] Layer's types are Ftype:FLOAT Btype:FLOAT Fmath:FLOAT Bmath:FLOAT
I0513 03:00:42.787690   640 net.cpp:200] Created Layer res5a_branch2b (35)
I0513 03:00:42.787696   640 net.cpp:572] res5a_branch2b <- res5a_branch2a
I0513 03:00:42.787703   640 net.cpp:542] res5a_branch2b -> res5a_branch2b
I0513 03:00:42.794984   640 net.cpp:260] Setting up res5a_branch2b
I0513 03:00:42.794997   640 net.cpp:267] TEST Top shape for layer 35 'res5a_branch2b' 10 512 10 24 (1228800)
I0513 03:00:42.795015   640 layer_factory.hpp:172] Creating layer 'res5a_branch2b/bn' of type 'BatchNorm'
I0513 03:00:42.795023   640 layer_factory.hpp:184] Layer's types are Ftype:FLOAT Btype:FLOAT Fmath:FLOAT Bmath:FLOAT
I0513 03:00:42.795033   640 net.cpp:200] Created Layer res5a_branch2b/bn (36)
I0513 03:00:42.795042   640 net.cpp:572] res5a_branch2b/bn <- res5a_branch2b
I0513 03:00:42.795048   640 net.cpp:527] res5a_branch2b/bn -> res5a_branch2b (in-place)
I0513 03:00:42.795336   640 net.cpp:260] Setting up res5a_branch2b/bn
I0513 03:00:42.795343   640 net.cpp:267] TEST Top shape for layer 36 'res5a_branch2b/bn' 10 512 10 24 (1228800)
I0513 03:00:42.795354   640 layer_factory.hpp:172] Creating layer 'res5a_branch2b/relu' of type 'ReLU'
I0513 03:00:42.795359   640 layer_factory.hpp:184] Layer's types are Ftype:FLOAT Btype:FLOAT Fmath:FLOAT Bmath:FLOAT
I0513 03:00:42.795369   640 net.cpp:200] Created Layer res5a_branch2b/relu (37)
I0513 03:00:42.795373   640 net.cpp:572] res5a_branch2b/relu <- res5a_branch2b
I0513 03:00:42.795379   640 net.cpp:527] res5a_branch2b/relu -> res5a_branch2b (in-place)
I0513 03:00:42.795388   640 net.cpp:260] Setting up res5a_branch2b/relu
I0513 03:00:42.795392   640 net.cpp:267] TEST Top shape for layer 37 'res5a_branch2b/relu' 10 512 10 24 (1228800)
I0513 03:00:42.795401   640 layer_factory.hpp:172] Creating layer 'res5a_branch2b_res5a_branch2b/relu_0_split' of type 'Split'
I0513 03:00:42.795406   640 layer_factory.hpp:184] Layer's types are Ftype:FLOAT Btype:FLOAT Fmath:FLOAT Bmath:FLOAT
I0513 03:00:42.795414   640 net.cpp:200] Created Layer res5a_branch2b_res5a_branch2b/relu_0_split (38)
I0513 03:00:42.795420   640 net.cpp:572] res5a_branch2b_res5a_branch2b/relu_0_split <- res5a_branch2b
I0513 03:00:42.795426   640 net.cpp:542] res5a_branch2b_res5a_branch2b/relu_0_split -> res5a_branch2b_res5a_branch2b/relu_0_split_0
I0513 03:00:42.795469   640 net.cpp:542] res5a_branch2b_res5a_branch2b/relu_0_split -> res5a_branch2b_res5a_branch2b/relu_0_split_1
I0513 03:00:42.795521   640 net.cpp:260] Setting up res5a_branch2b_res5a_branch2b/relu_0_split
I0513 03:00:42.795531   640 net.cpp:267] TEST Top shape for layer 38 'res5a_branch2b_res5a_branch2b/relu_0_split' 10 512 10 24 (1228800)
I0513 03:00:42.795542   640 net.cpp:267] TEST Top shape for layer 38 'res5a_branch2b_res5a_branch2b/relu_0_split' 10 512 10 24 (1228800)
I0513 03:00:42.795553   640 layer_factory.hpp:172] Creating layer 'pool6' of type 'Pooling'
I0513 03:00:42.795574   640 layer_factory.hpp:184] Layer's types are Ftype:FLOAT Btype:FLOAT Fmath:FLOAT Bmath:FLOAT
I0513 03:00:42.795588   640 net.cpp:200] Created Layer pool6 (39)
I0513 03:00:42.795599   640 net.cpp:572] pool6 <- res5a_branch2b_res5a_branch2b/relu_0_split_0
I0513 03:00:42.795608   640 net.cpp:542] pool6 -> pool6
I0513 03:00:42.795677   640 net.cpp:260] Setting up pool6
I0513 03:00:42.795686   640 net.cpp:267] TEST Top shape for layer 39 'pool6' 10 512 5 12 (307200)
I0513 03:00:42.795692   640 layer_factory.hpp:172] Creating layer 'pool6_pool6_0_split' of type 'Split'
I0513 03:00:42.795706   640 layer_factory.hpp:184] Layer's types are Ftype:FLOAT Btype:FLOAT Fmath:FLOAT Bmath:FLOAT
I0513 03:00:42.795728   640 net.cpp:200] Created Layer pool6_pool6_0_split (40)
I0513 03:00:42.795735   640 net.cpp:572] pool6_pool6_0_split <- pool6
I0513 03:00:42.795740   640 net.cpp:542] pool6_pool6_0_split -> pool6_pool6_0_split_0
I0513 03:00:42.795745   640 net.cpp:542] pool6_pool6_0_split -> pool6_pool6_0_split_1
I0513 03:00:42.795786   640 net.cpp:260] Setting up pool6_pool6_0_split
I0513 03:00:42.795794   640 net.cpp:267] TEST Top shape for layer 40 'pool6_pool6_0_split' 10 512 5 12 (307200)
I0513 03:00:42.795799   640 net.cpp:267] TEST Top shape for layer 40 'pool6_pool6_0_split' 10 512 5 12 (307200)
I0513 03:00:42.795809   640 layer_factory.hpp:172] Creating layer 'pool7' of type 'Pooling'
I0513 03:00:42.795816   640 layer_factory.hpp:184] Layer's types are Ftype:FLOAT Btype:FLOAT Fmath:FLOAT Bmath:FLOAT
I0513 03:00:42.795832   640 net.cpp:200] Created Layer pool7 (41)
I0513 03:00:42.795838   640 net.cpp:572] pool7 <- pool6_pool6_0_split_0
I0513 03:00:42.795845   640 net.cpp:542] pool7 -> pool7
I0513 03:00:42.795897   640 net.cpp:260] Setting up pool7
I0513 03:00:42.795904   640 net.cpp:267] TEST Top shape for layer 41 'pool7' 10 512 3 6 (92160)
I0513 03:00:42.795912   640 layer_factory.hpp:172] Creating layer 'pool7_pool7_0_split' of type 'Split'
I0513 03:00:42.795917   640 layer_factory.hpp:184] Layer's types are Ftype:FLOAT Btype:FLOAT Fmath:FLOAT Bmath:FLOAT
I0513 03:00:42.795934   640 net.cpp:200] Created Layer pool7_pool7_0_split (42)
I0513 03:00:42.795940   640 net.cpp:572] pool7_pool7_0_split <- pool7
I0513 03:00:42.795944   640 net.cpp:542] pool7_pool7_0_split -> pool7_pool7_0_split_0
I0513 03:00:42.795953   640 net.cpp:542] pool7_pool7_0_split -> pool7_pool7_0_split_1
I0513 03:00:42.795996   640 net.cpp:260] Setting up pool7_pool7_0_split
I0513 03:00:42.796002   640 net.cpp:267] TEST Top shape for layer 42 'pool7_pool7_0_split' 10 512 3 6 (92160)
I0513 03:00:42.796008   640 net.cpp:267] TEST Top shape for layer 42 'pool7_pool7_0_split' 10 512 3 6 (92160)
I0513 03:00:42.796013   640 layer_factory.hpp:172] Creating layer 'pool8' of type 'Pooling'
I0513 03:00:42.796021   640 layer_factory.hpp:184] Layer's types are Ftype:FLOAT Btype:FLOAT Fmath:FLOAT Bmath:FLOAT
I0513 03:00:42.796034   640 net.cpp:200] Created Layer pool8 (43)
I0513 03:00:42.796042   640 net.cpp:572] pool8 <- pool7_pool7_0_split_0
I0513 03:00:42.796048   640 net.cpp:542] pool8 -> pool8
I0513 03:00:42.796110   640 net.cpp:260] Setting up pool8
I0513 03:00:42.796118   640 net.cpp:267] TEST Top shape for layer 43 'pool8' 10 512 2 3 (30720)
I0513 03:00:42.796128   640 layer_factory.hpp:172] Creating layer 'pool8_pool8_0_split' of type 'Split'
I0513 03:00:42.796133   640 layer_factory.hpp:184] Layer's types are Ftype:FLOAT Btype:FLOAT Fmath:FLOAT Bmath:FLOAT
I0513 03:00:42.796147   640 net.cpp:200] Created Layer pool8_pool8_0_split (44)
I0513 03:00:42.796151   640 net.cpp:572] pool8_pool8_0_split <- pool8
I0513 03:00:42.796155   640 net.cpp:542] pool8_pool8_0_split -> pool8_pool8_0_split_0
I0513 03:00:42.796160   640 net.cpp:542] pool8_pool8_0_split -> pool8_pool8_0_split_1
I0513 03:00:42.796195   640 net.cpp:260] Setting up pool8_pool8_0_split
I0513 03:00:42.796202   640 net.cpp:267] TEST Top shape for layer 44 'pool8_pool8_0_split' 10 512 2 3 (30720)
I0513 03:00:42.796211   640 net.cpp:267] TEST Top shape for layer 44 'pool8_pool8_0_split' 10 512 2 3 (30720)
I0513 03:00:42.796216   640 layer_factory.hpp:172] Creating layer 'pool9' of type 'Pooling'
I0513 03:00:42.796223   640 layer_factory.hpp:184] Layer's types are Ftype:FLOAT Btype:FLOAT Fmath:FLOAT Bmath:FLOAT
I0513 03:00:42.796233   640 net.cpp:200] Created Layer pool9 (45)
I0513 03:00:42.796247   640 net.cpp:572] pool9 <- pool8_pool8_0_split_0
I0513 03:00:42.796253   640 net.cpp:542] pool9 -> pool9
I0513 03:00:42.796290   640 net.cpp:260] Setting up pool9
I0513 03:00:42.796306   640 net.cpp:267] TEST Top shape for layer 45 'pool9' 10 512 1 2 (10240)
I0513 03:00:42.796329   640 layer_factory.hpp:172] Creating layer 'ctx_output1' of type 'Convolution'
I0513 03:00:42.796334   640 layer_factory.hpp:184] Layer's types are Ftype:FLOAT Btype:FLOAT Fmath:FLOAT Bmath:FLOAT
I0513 03:00:42.796353   640 net.cpp:200] Created Layer ctx_output1 (46)
I0513 03:00:42.796363   640 net.cpp:572] ctx_output1 <- res3a_branch2b_res3a_branch2b/relu_0_split_1
I0513 03:00:42.796373   640 net.cpp:542] ctx_output1 -> ctx_output1
I0513 03:00:42.796988   640 net.cpp:260] Setting up ctx_output1
I0513 03:00:42.796998   640 net.cpp:267] TEST Top shape for layer 46 'ctx_output1' 10 256 40 96 (9830400)
I0513 03:00:42.797017   640 layer_factory.hpp:172] Creating layer 'ctx_output1/relu' of type 'ReLU'
I0513 03:00:42.797025   640 layer_factory.hpp:184] Layer's types are Ftype:FLOAT Btype:FLOAT Fmath:FLOAT Bmath:FLOAT
I0513 03:00:42.797034   640 net.cpp:200] Created Layer ctx_output1/relu (47)
I0513 03:00:42.797046   640 net.cpp:572] ctx_output1/relu <- ctx_output1
I0513 03:00:42.797055   640 net.cpp:527] ctx_output1/relu -> ctx_output1 (in-place)
I0513 03:00:42.797061   640 net.cpp:260] Setting up ctx_output1/relu
I0513 03:00:42.797067   640 net.cpp:267] TEST Top shape for layer 47 'ctx_output1/relu' 10 256 40 96 (9830400)
I0513 03:00:42.797078   640 layer_factory.hpp:172] Creating layer 'ctx_output1_ctx_output1/relu_0_split' of type 'Split'
I0513 03:00:42.797086   640 layer_factory.hpp:184] Layer's types are Ftype:FLOAT Btype:FLOAT Fmath:FLOAT Bmath:FLOAT
I0513 03:00:42.797096   640 net.cpp:200] Created Layer ctx_output1_ctx_output1/relu_0_split (48)
I0513 03:00:42.797102   640 net.cpp:572] ctx_output1_ctx_output1/relu_0_split <- ctx_output1
I0513 03:00:42.797108   640 net.cpp:542] ctx_output1_ctx_output1/relu_0_split -> ctx_output1_ctx_output1/relu_0_split_0
I0513 03:00:42.797122   640 net.cpp:542] ctx_output1_ctx_output1/relu_0_split -> ctx_output1_ctx_output1/relu_0_split_1
I0513 03:00:42.797127   640 net.cpp:542] ctx_output1_ctx_output1/relu_0_split -> ctx_output1_ctx_output1/relu_0_split_2
I0513 03:00:42.797179   640 net.cpp:260] Setting up ctx_output1_ctx_output1/relu_0_split
I0513 03:00:42.797188   640 net.cpp:267] TEST Top shape for layer 48 'ctx_output1_ctx_output1/relu_0_split' 10 256 40 96 (9830400)
I0513 03:00:42.797194   640 net.cpp:267] TEST Top shape for layer 48 'ctx_output1_ctx_output1/relu_0_split' 10 256 40 96 (9830400)
I0513 03:00:42.797201   640 net.cpp:267] TEST Top shape for layer 48 'ctx_output1_ctx_output1/relu_0_split' 10 256 40 96 (9830400)
I0513 03:00:42.797211   640 layer_factory.hpp:172] Creating layer 'ctx_output2' of type 'Convolution'
I0513 03:00:42.797222   640 layer_factory.hpp:184] Layer's types are Ftype:FLOAT Btype:FLOAT Fmath:FLOAT Bmath:FLOAT
I0513 03:00:42.797237   640 net.cpp:200] Created Layer ctx_output2 (49)
I0513 03:00:42.797245   640 net.cpp:572] ctx_output2 <- res5a_branch2b_res5a_branch2b/relu_0_split_1
I0513 03:00:42.797251   640 net.cpp:542] ctx_output2 -> ctx_output2
I0513 03:00:42.798888   640 net.cpp:260] Setting up ctx_output2
I0513 03:00:42.798899   640 net.cpp:267] TEST Top shape for layer 49 'ctx_output2' 10 256 10 24 (614400)
I0513 03:00:42.798909   640 layer_factory.hpp:172] Creating layer 'ctx_output2/relu' of type 'ReLU'
I0513 03:00:42.798915   640 layer_factory.hpp:184] Layer's types are Ftype:FLOAT Btype:FLOAT Fmath:FLOAT Bmath:FLOAT
I0513 03:00:42.798921   640 net.cpp:200] Created Layer ctx_output2/relu (50)
I0513 03:00:42.798926   640 net.cpp:572] ctx_output2/relu <- ctx_output2
I0513 03:00:42.798933   640 net.cpp:527] ctx_output2/relu -> ctx_output2 (in-place)
I0513 03:00:42.798941   640 net.cpp:260] Setting up ctx_output2/relu
I0513 03:00:42.798946   640 net.cpp:267] TEST Top shape for layer 50 'ctx_output2/relu' 10 256 10 24 (614400)
I0513 03:00:42.798954   640 layer_factory.hpp:172] Creating layer 'ctx_output2_ctx_output2/relu_0_split' of type 'Split'
I0513 03:00:42.798959   640 layer_factory.hpp:184] Layer's types are Ftype:FLOAT Btype:FLOAT Fmath:FLOAT Bmath:FLOAT
I0513 03:00:42.798970   640 net.cpp:200] Created Layer ctx_output2_ctx_output2/relu_0_split (51)
I0513 03:00:42.798990   640 net.cpp:572] ctx_output2_ctx_output2/relu_0_split <- ctx_output2
I0513 03:00:42.798995   640 net.cpp:542] ctx_output2_ctx_output2/relu_0_split -> ctx_output2_ctx_output2/relu_0_split_0
I0513 03:00:42.799010   640 net.cpp:542] ctx_output2_ctx_output2/relu_0_split -> ctx_output2_ctx_output2/relu_0_split_1
I0513 03:00:42.799018   640 net.cpp:542] ctx_output2_ctx_output2/relu_0_split -> ctx_output2_ctx_output2/relu_0_split_2
I0513 03:00:42.799093   640 net.cpp:260] Setting up ctx_output2_ctx_output2/relu_0_split
I0513 03:00:42.799103   640 net.cpp:267] TEST Top shape for layer 51 'ctx_output2_ctx_output2/relu_0_split' 10 256 10 24 (614400)
I0513 03:00:42.799125   640 net.cpp:267] TEST Top shape for layer 51 'ctx_output2_ctx_output2/relu_0_split' 10 256 10 24 (614400)
I0513 03:00:42.799131   640 net.cpp:267] TEST Top shape for layer 51 'ctx_output2_ctx_output2/relu_0_split' 10 256 10 24 (614400)
I0513 03:00:42.799137   640 layer_factory.hpp:172] Creating layer 'ctx_output3' of type 'Convolution'
I0513 03:00:42.799141   640 layer_factory.hpp:184] Layer's types are Ftype:FLOAT Btype:FLOAT Fmath:FLOAT Bmath:FLOAT
I0513 03:00:42.799154   640 net.cpp:200] Created Layer ctx_output3 (52)
I0513 03:00:42.799188   640 net.cpp:572] ctx_output3 <- pool6_pool6_0_split_1
I0513 03:00:42.799199   640 net.cpp:542] ctx_output3 -> ctx_output3
I0513 03:00:42.801549   640 net.cpp:260] Setting up ctx_output3
I0513 03:00:42.801560   640 net.cpp:267] TEST Top shape for layer 52 'ctx_output3' 10 256 5 12 (153600)
I0513 03:00:42.801571   640 layer_factory.hpp:172] Creating layer 'ctx_output3/relu' of type 'ReLU'
I0513 03:00:42.801575   640 layer_factory.hpp:184] Layer's types are Ftype:FLOAT Btype:FLOAT Fmath:FLOAT Bmath:FLOAT
I0513 03:00:42.801581   640 net.cpp:200] Created Layer ctx_output3/relu (53)
I0513 03:00:42.801589   640 net.cpp:572] ctx_output3/relu <- ctx_output3
I0513 03:00:42.801594   640 net.cpp:527] ctx_output3/relu -> ctx_output3 (in-place)
I0513 03:00:42.801599   640 net.cpp:260] Setting up ctx_output3/relu
I0513 03:00:42.801604   640 net.cpp:267] TEST Top shape for layer 53 'ctx_output3/relu' 10 256 5 12 (153600)
I0513 03:00:42.801612   640 layer_factory.hpp:172] Creating layer 'ctx_output3_ctx_output3/relu_0_split' of type 'Split'
I0513 03:00:42.801620   640 layer_factory.hpp:184] Layer's types are Ftype:FLOAT Btype:FLOAT Fmath:FLOAT Bmath:FLOAT
I0513 03:00:42.801627   640 net.cpp:200] Created Layer ctx_output3_ctx_output3/relu_0_split (54)
I0513 03:00:42.801635   640 net.cpp:572] ctx_output3_ctx_output3/relu_0_split <- ctx_output3
I0513 03:00:42.801640   640 net.cpp:542] ctx_output3_ctx_output3/relu_0_split -> ctx_output3_ctx_output3/relu_0_split_0
I0513 03:00:42.801647   640 net.cpp:542] ctx_output3_ctx_output3/relu_0_split -> ctx_output3_ctx_output3/relu_0_split_1
I0513 03:00:42.801654   640 net.cpp:542] ctx_output3_ctx_output3/relu_0_split -> ctx_output3_ctx_output3/relu_0_split_2
I0513 03:00:42.801720   640 net.cpp:260] Setting up ctx_output3_ctx_output3/relu_0_split
I0513 03:00:42.801726   640 net.cpp:267] TEST Top shape for layer 54 'ctx_output3_ctx_output3/relu_0_split' 10 256 5 12 (153600)
I0513 03:00:42.801733   640 net.cpp:267] TEST Top shape for layer 54 'ctx_output3_ctx_output3/relu_0_split' 10 256 5 12 (153600)
I0513 03:00:42.801738   640 net.cpp:267] TEST Top shape for layer 54 'ctx_output3_ctx_output3/relu_0_split' 10 256 5 12 (153600)
I0513 03:00:42.801746   640 layer_factory.hpp:172] Creating layer 'ctx_output4' of type 'Convolution'
I0513 03:00:42.801753   640 layer_factory.hpp:184] Layer's types are Ftype:FLOAT Btype:FLOAT Fmath:FLOAT Bmath:FLOAT
I0513 03:00:42.801765   640 net.cpp:200] Created Layer ctx_output4 (55)
I0513 03:00:42.801774   640 net.cpp:572] ctx_output4 <- pool7_pool7_0_split_1
I0513 03:00:42.801780   640 net.cpp:542] ctx_output4 -> ctx_output4
I0513 03:00:42.803423   640 net.cpp:260] Setting up ctx_output4
I0513 03:00:42.803433   640 net.cpp:267] TEST Top shape for layer 55 'ctx_output4' 10 256 3 6 (46080)
I0513 03:00:42.803444   640 layer_factory.hpp:172] Creating layer 'ctx_output4/relu' of type 'ReLU'
I0513 03:00:42.803460   640 layer_factory.hpp:184] Layer's types are Ftype:FLOAT Btype:FLOAT Fmath:FLOAT Bmath:FLOAT
I0513 03:00:42.803467   640 net.cpp:200] Created Layer ctx_output4/relu (56)
I0513 03:00:42.803472   640 net.cpp:572] ctx_output4/relu <- ctx_output4
I0513 03:00:42.803479   640 net.cpp:527] ctx_output4/relu -> ctx_output4 (in-place)
I0513 03:00:42.803489   640 net.cpp:260] Setting up ctx_output4/relu
I0513 03:00:42.803494   640 net.cpp:267] TEST Top shape for layer 56 'ctx_output4/relu' 10 256 3 6 (46080)
I0513 03:00:42.803503   640 layer_factory.hpp:172] Creating layer 'ctx_output4_ctx_output4/relu_0_split' of type 'Split'
I0513 03:00:42.803508   640 layer_factory.hpp:184] Layer's types are Ftype:FLOAT Btype:FLOAT Fmath:FLOAT Bmath:FLOAT
I0513 03:00:42.803519   640 net.cpp:200] Created Layer ctx_output4_ctx_output4/relu_0_split (57)
I0513 03:00:42.803525   640 net.cpp:572] ctx_output4_ctx_output4/relu_0_split <- ctx_output4
I0513 03:00:42.803531   640 net.cpp:542] ctx_output4_ctx_output4/relu_0_split -> ctx_output4_ctx_output4/relu_0_split_0
I0513 03:00:42.803540   640 net.cpp:542] ctx_output4_ctx_output4/relu_0_split -> ctx_output4_ctx_output4/relu_0_split_1
I0513 03:00:42.803550   640 net.cpp:542] ctx_output4_ctx_output4/relu_0_split -> ctx_output4_ctx_output4/relu_0_split_2
I0513 03:00:42.803608   640 net.cpp:260] Setting up ctx_output4_ctx_output4/relu_0_split
I0513 03:00:42.803614   640 net.cpp:267] TEST Top shape for layer 57 'ctx_output4_ctx_output4/relu_0_split' 10 256 3 6 (46080)
I0513 03:00:42.803625   640 net.cpp:267] TEST Top shape for layer 57 'ctx_output4_ctx_output4/relu_0_split' 10 256 3 6 (46080)
I0513 03:00:42.803632   640 net.cpp:267] TEST Top shape for layer 57 'ctx_output4_ctx_output4/relu_0_split' 10 256 3 6 (46080)
I0513 03:00:42.803639   640 layer_factory.hpp:172] Creating layer 'ctx_output5' of type 'Convolution'
I0513 03:00:42.803642   640 layer_factory.hpp:184] Layer's types are Ftype:FLOAT Btype:FLOAT Fmath:FLOAT Bmath:FLOAT
I0513 03:00:42.803654   640 net.cpp:200] Created Layer ctx_output5 (58)
I0513 03:00:42.803663   640 net.cpp:572] ctx_output5 <- pool8_pool8_0_split_1
I0513 03:00:42.803673   640 net.cpp:542] ctx_output5 -> ctx_output5
I0513 03:00:42.805281   640 net.cpp:260] Setting up ctx_output5
I0513 03:00:42.805295   640 net.cpp:267] TEST Top shape for layer 58 'ctx_output5' 10 256 2 3 (15360)
I0513 03:00:42.805306   640 layer_factory.hpp:172] Creating layer 'ctx_output5/relu' of type 'ReLU'
I0513 03:00:42.805311   640 layer_factory.hpp:184] Layer's types are Ftype:FLOAT Btype:FLOAT Fmath:FLOAT Bmath:FLOAT
I0513 03:00:42.805317   640 net.cpp:200] Created Layer ctx_output5/relu (59)
I0513 03:00:42.805322   640 net.cpp:572] ctx_output5/relu <- ctx_output5
I0513 03:00:42.805327   640 net.cpp:527] ctx_output5/relu -> ctx_output5 (in-place)
I0513 03:00:42.805337   640 net.cpp:260] Setting up ctx_output5/relu
I0513 03:00:42.805342   640 net.cpp:267] TEST Top shape for layer 59 'ctx_output5/relu' 10 256 2 3 (15360)
I0513 03:00:42.805353   640 layer_factory.hpp:172] Creating layer 'ctx_output5_ctx_output5/relu_0_split' of type 'Split'
I0513 03:00:42.805357   640 layer_factory.hpp:184] Layer's types are Ftype:FLOAT Btype:FLOAT Fmath:FLOAT Bmath:FLOAT
I0513 03:00:42.805362   640 net.cpp:200] Created Layer ctx_output5_ctx_output5/relu_0_split (60)
I0513 03:00:42.805367   640 net.cpp:572] ctx_output5_ctx_output5/relu_0_split <- ctx_output5
I0513 03:00:42.805373   640 net.cpp:542] ctx_output5_ctx_output5/relu_0_split -> ctx_output5_ctx_output5/relu_0_split_0
I0513 03:00:42.805382   640 net.cpp:542] ctx_output5_ctx_output5/relu_0_split -> ctx_output5_ctx_output5/relu_0_split_1
I0513 03:00:42.805392   640 net.cpp:542] ctx_output5_ctx_output5/relu_0_split -> ctx_output5_ctx_output5/relu_0_split_2
I0513 03:00:42.805442   640 net.cpp:260] Setting up ctx_output5_ctx_output5/relu_0_split
I0513 03:00:42.805451   640 net.cpp:267] TEST Top shape for layer 60 'ctx_output5_ctx_output5/relu_0_split' 10 256 2 3 (15360)
I0513 03:00:42.805480   640 net.cpp:267] TEST Top shape for layer 60 'ctx_output5_ctx_output5/relu_0_split' 10 256 2 3 (15360)
I0513 03:00:42.805490   640 net.cpp:267] TEST Top shape for layer 60 'ctx_output5_ctx_output5/relu_0_split' 10 256 2 3 (15360)
I0513 03:00:42.805501   640 layer_factory.hpp:172] Creating layer 'ctx_output6' of type 'Convolution'
I0513 03:00:42.805510   640 layer_factory.hpp:184] Layer's types are Ftype:FLOAT Btype:FLOAT Fmath:FLOAT Bmath:FLOAT
I0513 03:00:42.805532   640 net.cpp:200] Created Layer ctx_output6 (61)
I0513 03:00:42.805542   640 net.cpp:572] ctx_output6 <- pool9
I0513 03:00:42.805550   640 net.cpp:542] ctx_output6 -> ctx_output6
I0513 03:00:42.807179   640 net.cpp:260] Setting up ctx_output6
I0513 03:00:42.807188   640 net.cpp:267] TEST Top shape for layer 61 'ctx_output6' 10 256 1 2 (5120)
I0513 03:00:42.807199   640 layer_factory.hpp:172] Creating layer 'ctx_output6/relu' of type 'ReLU'
I0513 03:00:42.807204   640 layer_factory.hpp:184] Layer's types are Ftype:FLOAT Btype:FLOAT Fmath:FLOAT Bmath:FLOAT
I0513 03:00:42.807211   640 net.cpp:200] Created Layer ctx_output6/relu (62)
I0513 03:00:42.807219   640 net.cpp:572] ctx_output6/relu <- ctx_output6
I0513 03:00:42.807225   640 net.cpp:527] ctx_output6/relu -> ctx_output6 (in-place)
I0513 03:00:42.807235   640 net.cpp:260] Setting up ctx_output6/relu
I0513 03:00:42.807241   640 net.cpp:267] TEST Top shape for layer 62 'ctx_output6/relu' 10 256 1 2 (5120)
I0513 03:00:42.807251   640 layer_factory.hpp:172] Creating layer 'ctx_output6_ctx_output6/relu_0_split' of type 'Split'
I0513 03:00:42.807258   640 layer_factory.hpp:184] Layer's types are Ftype:FLOAT Btype:FLOAT Fmath:FLOAT Bmath:FLOAT
I0513 03:00:42.807266   640 net.cpp:200] Created Layer ctx_output6_ctx_output6/relu_0_split (63)
I0513 03:00:42.807273   640 net.cpp:572] ctx_output6_ctx_output6/relu_0_split <- ctx_output6
I0513 03:00:42.807279   640 net.cpp:542] ctx_output6_ctx_output6/relu_0_split -> ctx_output6_ctx_output6/relu_0_split_0
I0513 03:00:42.807289   640 net.cpp:542] ctx_output6_ctx_output6/relu_0_split -> ctx_output6_ctx_output6/relu_0_split_1
I0513 03:00:42.807298   640 net.cpp:542] ctx_output6_ctx_output6/relu_0_split -> ctx_output6_ctx_output6/relu_0_split_2
I0513 03:00:42.807346   640 net.cpp:260] Setting up ctx_output6_ctx_output6/relu_0_split
I0513 03:00:42.807353   640 net.cpp:267] TEST Top shape for layer 63 'ctx_output6_ctx_output6/relu_0_split' 10 256 1 2 (5120)
I0513 03:00:42.807358   640 net.cpp:267] TEST Top shape for layer 63 'ctx_output6_ctx_output6/relu_0_split' 10 256 1 2 (5120)
I0513 03:00:42.807363   640 net.cpp:267] TEST Top shape for layer 63 'ctx_output6_ctx_output6/relu_0_split' 10 256 1 2 (5120)
I0513 03:00:42.807368   640 layer_factory.hpp:172] Creating layer 'ctx_output1/relu_mbox_loc' of type 'Convolution'
I0513 03:00:42.807374   640 layer_factory.hpp:184] Layer's types are Ftype:FLOAT Btype:FLOAT Fmath:FLOAT Bmath:FLOAT
I0513 03:00:42.807395   640 net.cpp:200] Created Layer ctx_output1/relu_mbox_loc (64)
I0513 03:00:42.807402   640 net.cpp:572] ctx_output1/relu_mbox_loc <- ctx_output1_ctx_output1/relu_0_split_0
I0513 03:00:42.807410   640 net.cpp:542] ctx_output1/relu_mbox_loc -> ctx_output1/relu_mbox_loc
I0513 03:00:42.807698   640 net.cpp:260] Setting up ctx_output1/relu_mbox_loc
I0513 03:00:42.807705   640 net.cpp:267] TEST Top shape for layer 64 'ctx_output1/relu_mbox_loc' 10 16 40 96 (614400)
I0513 03:00:42.807723   640 layer_factory.hpp:172] Creating layer 'ctx_output1/relu_mbox_loc_perm' of type 'Permute'
I0513 03:00:42.807727   640 layer_factory.hpp:184] Layer's types are Ftype:FLOAT Btype:FLOAT Fmath:FLOAT Bmath:FLOAT
I0513 03:00:42.807741   640 net.cpp:200] Created Layer ctx_output1/relu_mbox_loc_perm (65)
I0513 03:00:42.807752   640 net.cpp:572] ctx_output1/relu_mbox_loc_perm <- ctx_output1/relu_mbox_loc
I0513 03:00:42.807761   640 net.cpp:542] ctx_output1/relu_mbox_loc_perm -> ctx_output1/relu_mbox_loc_perm
I0513 03:00:42.807878   640 net.cpp:260] Setting up ctx_output1/relu_mbox_loc_perm
I0513 03:00:42.807888   640 net.cpp:267] TEST Top shape for layer 65 'ctx_output1/relu_mbox_loc_perm' 10 40 96 16 (614400)
I0513 03:00:42.807909   640 layer_factory.hpp:172] Creating layer 'ctx_output1/relu_mbox_loc_flat' of type 'Flatten'
I0513 03:00:42.807915   640 layer_factory.hpp:184] Layer's types are Ftype:FLOAT Btype:FLOAT Fmath:FLOAT Bmath:FLOAT
I0513 03:00:42.807932   640 net.cpp:200] Created Layer ctx_output1/relu_mbox_loc_flat (66)
…
I0513 03:00:44.351172   649 net.cpp:200] Created Layer ctx_output2 (49)
I0513 03:00:44.351178   649 net.cpp:572] ctx_output2 <- res5a_branch2b_res5a_branch2b/relu_0_split_1
I0513 03:00:44.351183   649 net.cpp:542] ctx_output2 -> ctx_output2
I0513 03:00:44.352793   649 net.cpp:260] Setting up ctx_output2
I0513 03:00:44.352803   649 net.cpp:267] TEST Top shape for layer 49 'ctx_output2' 10 256 10 24 (614400)
I0513 03:00:44.352813   649 layer_factory.hpp:172] Creating layer 'ctx_output2/relu' of type 'ReLU'
I0513 03:00:44.352820   649 layer_factory.hpp:184] Layer's types are Ftype:FLOAT Btype:FLOAT Fmath:FLOAT Bmath:FLOAT
I0513 03:00:44.352829   649 net.cpp:200] Created Layer ctx_output2/relu (50)
I0513 03:00:44.352834   649 net.cpp:572] ctx_output2/relu <- ctx_output2
I0513 03:00:44.352843   649 net.cpp:527] ctx_output2/relu -> ctx_output2 (in-place)
I0513 03:00:44.352851   649 net.cpp:260] Setting up ctx_output2/relu
I0513 03:00:44.352859   649 net.cpp:267] TEST Top shape for layer 50 'ctx_output2/relu' 10 256 10 24 (614400)
I0513 03:00:44.352867   649 layer_factory.hpp:172] Creating layer 'ctx_output2_ctx_output2/relu_0_split' of type 'Split'
I0513 03:00:44.352874   649 layer_factory.hpp:184] Layer's types are Ftype:FLOAT Btype:FLOAT Fmath:FLOAT Bmath:FLOAT
I0513 03:00:44.352882   649 net.cpp:200] Created Layer ctx_output2_ctx_output2/relu_0_split (51)
I0513 03:00:44.352900   649 net.cpp:572] ctx_output2_ctx_output2/relu_0_split <- ctx_output2
I0513 03:00:44.352906   649 net.cpp:542] ctx_output2_ctx_output2/relu_0_split -> ctx_output2_ctx_output2/relu_0_split_0
I0513 03:00:44.352916   649 net.cpp:542] ctx_output2_ctx_output2/relu_0_split -> ctx_output2_ctx_output2/relu_0_split_1
I0513 03:00:44.352926   649 net.cpp:542] ctx_output2_ctx_output2/relu_0_split -> ctx_output2_ctx_output2/relu_0_split_2
I0513 03:00:44.352982   649 net.cpp:260] Setting up ctx_output2_ctx_output2/relu_0_split
I0513 03:00:44.352990   649 net.cpp:267] TEST Top shape for layer 51 'ctx_output2_ctx_output2/relu_0_split' 10 256 10 24 (614400)
I0513 03:00:44.353001   649 net.cpp:267] TEST Top shape for layer 51 'ctx_output2_ctx_output2/relu_0_split' 10 256 10 24 (614400)
I0513 03:00:44.353010   649 net.cpp:267] TEST Top shape for layer 51 'ctx_output2_ctx_output2/relu_0_split' 10 256 10 24 (614400)
I0513 03:00:44.353018   649 layer_factory.hpp:172] Creating layer 'ctx_output3' of type 'Convolution'
I0513 03:00:44.353024   649 layer_factory.hpp:184] Layer's types are Ftype:FLOAT Btype:FLOAT Fmath:FLOAT Bmath:FLOAT
I0513 03:00:44.353042   649 net.cpp:200] Created Layer ctx_output3 (52)
I0513 03:00:44.353068   649 net.cpp:572] ctx_output3 <- pool6_pool6_0_split_1
I0513 03:00:44.353078   649 net.cpp:542] ctx_output3 -> ctx_output3
I0513 03:00:44.355389   649 net.cpp:260] Setting up ctx_output3
I0513 03:00:44.355401   649 net.cpp:267] TEST Top shape for layer 52 'ctx_output3' 10 256 5 12 (153600)
I0513 03:00:44.355410   649 layer_factory.hpp:172] Creating layer 'ctx_output3/relu' of type 'ReLU'
I0513 03:00:44.355417   649 layer_factory.hpp:184] Layer's types are Ftype:FLOAT Btype:FLOAT Fmath:FLOAT Bmath:FLOAT
I0513 03:00:44.355423   649 net.cpp:200] Created Layer ctx_output3/relu (53)
I0513 03:00:44.355429   649 net.cpp:572] ctx_output3/relu <- ctx_output3
I0513 03:00:44.355434   649 net.cpp:527] ctx_output3/relu -> ctx_output3 (in-place)
I0513 03:00:44.355440   649 net.cpp:260] Setting up ctx_output3/relu
I0513 03:00:44.355446   649 net.cpp:267] TEST Top shape for layer 53 'ctx_output3/relu' 10 256 5 12 (153600)
I0513 03:00:44.355459   649 layer_factory.hpp:172] Creating layer 'ctx_output3_ctx_output3/relu_0_split' of type 'Split'
I0513 03:00:44.355465   649 layer_factory.hpp:184] Layer's types are Ftype:FLOAT Btype:FLOAT Fmath:FLOAT Bmath:FLOAT
I0513 03:00:44.355476   649 net.cpp:200] Created Layer ctx_output3_ctx_output3/relu_0_split (54)
I0513 03:00:44.355484   649 net.cpp:572] ctx_output3_ctx_output3/relu_0_split <- ctx_output3
I0513 03:00:44.355491   649 net.cpp:542] ctx_output3_ctx_output3/relu_0_split -> ctx_output3_ctx_output3/relu_0_split_0
I0513 03:00:44.355500   649 net.cpp:542] ctx_output3_ctx_output3/relu_0_split -> ctx_output3_ctx_output3/relu_0_split_1
I0513 03:00:44.355525   649 net.cpp:542] ctx_output3_ctx_output3/relu_0_split -> ctx_output3_ctx_output3/relu_0_split_2
I0513 03:00:44.355578   649 net.cpp:260] Setting up ctx_output3_ctx_output3/relu_0_split
I0513 03:00:44.355584   649 net.cpp:267] TEST Top shape for layer 54 'ctx_output3_ctx_output3/relu_0_split' 10 256 5 12 (153600)
I0513 03:00:44.355597   649 net.cpp:267] TEST Top shape for layer 54 'ctx_output3_ctx_output3/relu_0_split' 10 256 5 12 (153600)
I0513 03:00:44.355604   649 net.cpp:267] TEST Top shape for layer 54 'ctx_output3_ctx_output3/relu_0_split' 10 256 5 12 (153600)
I0513 03:00:44.355614   649 layer_factory.hpp:172] Creating layer 'ctx_output4' of type 'Convolution'
I0513 03:00:44.355620   649 layer_factory.hpp:184] Layer's types are Ftype:FLOAT Btype:FLOAT Fmath:FLOAT Bmath:FLOAT
I0513 03:00:44.355635   649 net.cpp:200] Created Layer ctx_output4 (55)
I0513 03:00:44.355643   649 net.cpp:572] ctx_output4 <- pool7_pool7_0_split_1
I0513 03:00:44.355651   649 net.cpp:542] ctx_output4 -> ctx_output4
I0513 03:00:44.357254   649 net.cpp:260] Setting up ctx_output4
I0513 03:00:44.357264   649 net.cpp:267] TEST Top shape for layer 55 'ctx_output4' 10 256 3 6 (46080)
I0513 03:00:44.357278   649 layer_factory.hpp:172] Creating layer 'ctx_output4/relu' of type 'ReLU'
I0513 03:00:44.357308   649 layer_factory.hpp:184] Layer's types are Ftype:FLOAT Btype:FLOAT Fmath:FLOAT Bmath:FLOAT
I0513 03:00:44.357318   649 net.cpp:200] Created Layer ctx_output4/relu (56)
I0513 03:00:44.357326   649 net.cpp:572] ctx_output4/relu <- ctx_output4
I0513 03:00:44.357333   649 net.cpp:527] ctx_output4/relu -> ctx_output4 (in-place)
I0513 03:00:44.357343   649 net.cpp:260] Setting up ctx_output4/relu
I0513 03:00:44.357350   649 net.cpp:267] TEST Top shape for layer 56 'ctx_output4/relu' 10 256 3 6 (46080)
I0513 03:00:44.357360   649 layer_factory.hpp:172] Creating layer 'ctx_output4_ctx_output4/relu_0_split' of type 'Split'
I0513 03:00:44.357367   649 layer_factory.hpp:184] Layer's types are Ftype:FLOAT Btype:FLOAT Fmath:FLOAT Bmath:FLOAT
I0513 03:00:44.357376   649 net.cpp:200] Created Layer ctx_output4_ctx_output4/relu_0_split (57)
I0513 03:00:44.357383   649 net.cpp:572] ctx_output4_ctx_output4/relu_0_split <- ctx_output4
I0513 03:00:44.357391   649 net.cpp:542] ctx_output4_ctx_output4/relu_0_split -> ctx_output4_ctx_output4/relu_0_split_0
I0513 03:00:44.357401   649 net.cpp:542] ctx_output4_ctx_output4/relu_0_split -> ctx_output4_ctx_output4/relu_0_split_1
I0513 03:00:44.357410   649 net.cpp:542] ctx_output4_ctx_output4/relu_0_split -> ctx_output4_ctx_output4/relu_0_split_2
I0513 03:00:44.357460   649 net.cpp:260] Setting up ctx_output4_ctx_output4/relu_0_split
I0513 03:00:44.357470   649 net.cpp:267] TEST Top shape for layer 57 'ctx_output4_ctx_output4/relu_0_split' 10 256 3 6 (46080)
I0513 03:00:44.357479   649 net.cpp:267] TEST Top shape for layer 57 'ctx_output4_ctx_output4/relu_0_split' 10 256 3 6 (46080)
I0513 03:00:44.357489   649 net.cpp:267] TEST Top shape for layer 57 'ctx_output4_ctx_output4/relu_0_split' 10 256 3 6 (46080)
I0513 03:00:44.357496   649 layer_factory.hpp:172] Creating layer 'ctx_output5' of type 'Convolution'
I0513 03:00:44.357501   649 layer_factory.hpp:184] Layer's types are Ftype:FLOAT Btype:FLOAT Fmath:FLOAT Bmath:FLOAT
I0513 03:00:44.357511   649 net.cpp:200] Created Layer ctx_output5 (58)
I0513 03:00:44.357515   649 net.cpp:572] ctx_output5 <- pool8_pool8_0_split_1
I0513 03:00:44.357522   649 net.cpp:542] ctx_output5 -> ctx_output5
I0513 03:00:44.359148   649 net.cpp:260] Setting up ctx_output5
I0513 03:00:44.359158   649 net.cpp:267] TEST Top shape for layer 58 'ctx_output5' 10 256 2 3 (15360)
I0513 03:00:44.359167   649 layer_factory.hpp:172] Creating layer 'ctx_output5/relu' of type 'ReLU'
I0513 03:00:44.359172   649 layer_factory.hpp:184] Layer's types are Ftype:FLOAT Btype:FLOAT Fmath:FLOAT Bmath:FLOAT
I0513 03:00:44.359179   649 net.cpp:200] Created Layer ctx_output5/relu (59)
I0513 03:00:44.359184   649 net.cpp:572] ctx_output5/relu <- ctx_output5
I0513 03:00:44.359189   649 net.cpp:527] ctx_output5/relu -> ctx_output5 (in-place)
I0513 03:00:44.359196   649 net.cpp:260] Setting up ctx_output5/relu
I0513 03:00:44.359202   649 net.cpp:267] TEST Top shape for layer 59 'ctx_output5/relu' 10 256 2 3 (15360)
I0513 03:00:44.359210   649 layer_factory.hpp:172] Creating layer 'ctx_output5_ctx_output5/relu_0_split' of type 'Split'
I0513 03:00:44.359215   649 layer_factory.hpp:184] Layer's types are Ftype:FLOAT Btype:FLOAT Fmath:FLOAT Bmath:FLOAT
I0513 03:00:44.359225   649 net.cpp:200] Created Layer ctx_output5_ctx_output5/relu_0_split (60)
I0513 03:00:44.359232   649 net.cpp:572] ctx_output5_ctx_output5/relu_0_split <- ctx_output5
I0513 03:00:44.359239   649 net.cpp:542] ctx_output5_ctx_output5/relu_0_split -> ctx_output5_ctx_output5/relu_0_split_0
I0513 03:00:44.359248   649 net.cpp:542] ctx_output5_ctx_output5/relu_0_split -> ctx_output5_ctx_output5/relu_0_split_1
I0513 03:00:44.359256   649 net.cpp:542] ctx_output5_ctx_output5/relu_0_split -> ctx_output5_ctx_output5/relu_0_split_2
I0513 03:00:44.359311   649 net.cpp:260] Setting up ctx_output5_ctx_output5/relu_0_split
I0513 03:00:44.359320   649 net.cpp:267] TEST Top shape for layer 60 'ctx_output5_ctx_output5/relu_0_split' 10 256 2 3 (15360)
I0513 03:00:44.359331   649 net.cpp:267] TEST Top shape for layer 60 'ctx_output5_ctx_output5/relu_0_split' 10 256 2 3 (15360)
I0513 03:00:44.359351   649 net.cpp:267] TEST Top shape for layer 60 'ctx_output5_ctx_output5/relu_0_split' 10 256 2 3 (15360)
I0513 03:00:44.359359   649 layer_factory.hpp:172] Creating layer 'ctx_output6' of type 'Convolution'
I0513 03:00:44.359365   649 layer_factory.hpp:184] Layer's types are Ftype:FLOAT Btype:FLOAT Fmath:FLOAT Bmath:FLOAT
I0513 03:00:44.359385   649 net.cpp:200] Created Layer ctx_output6 (61)
I0513 03:00:44.359393   649 net.cpp:572] ctx_output6 <- pool9
I0513 03:00:44.359400   649 net.cpp:542] ctx_output6 -> ctx_output6
I0513 03:00:44.361002   649 net.cpp:260] Setting up ctx_output6
I0513 03:00:44.361012   649 net.cpp:267] TEST Top shape for layer 61 'ctx_output6' 10 256 1 2 (5120)
I0513 03:00:44.361027   649 layer_factory.hpp:172] Creating layer 'ctx_output6/relu' of type 'ReLU'
I0513 03:00:44.361037   649 layer_factory.hpp:184] Layer's types are Ftype:FLOAT Btype:FLOAT Fmath:FLOAT Bmath:FLOAT
I0513 03:00:44.361047   649 net.cpp:200] Created Layer ctx_output6/relu (62)
I0513 03:00:44.361057   649 net.cpp:572] ctx_output6/relu <- ctx_output6
I0513 03:00:44.361061   649 net.cpp:527] ctx_output6/relu -> ctx_output6 (in-place)
I0513 03:00:44.361068   649 net.cpp:260] Setting up ctx_output6/relu
I0513 03:00:44.361078   649 net.cpp:267] TEST Top shape for layer 62 'ctx_output6/relu' 10 256 1 2 (5120)
I0513 03:00:44.361088   649 layer_factory.hpp:172] Creating layer 'ctx_output6_ctx_output6/relu_0_split' of type 'Split'
I0513 03:00:44.361093   649 layer_factory.hpp:184] Layer's types are Ftype:FLOAT Btype:FLOAT Fmath:FLOAT Bmath:FLOAT
I0513 03:00:44.361101   649 net.cpp:200] Created Layer ctx_output6_ctx_output6/relu_0_split (63)
I0513 03:00:44.361109   649 net.cpp:572] ctx_output6_ctx_output6/relu_0_split <- ctx_output6
I0513 03:00:44.361115   649 net.cpp:542] ctx_output6_ctx_output6/relu_0_split -> ctx_output6_ctx_output6/relu_0_split_0
I0513 03:00:44.361124   649 net.cpp:542] ctx_output6_ctx_output6/relu_0_split -> ctx_output6_ctx_output6/relu_0_split_1
I0513 03:00:44.361133   649 net.cpp:542] ctx_output6_ctx_output6/relu_0_split -> ctx_output6_ctx_output6/relu_0_split_2
I0513 03:00:44.361177   649 net.cpp:260] Setting up ctx_output6_ctx_output6/relu_0_split
I0513 03:00:44.361183   649 net.cpp:267] TEST Top shape for layer 63 'ctx_output6_ctx_output6/relu_0_split' 10 256 1 2 (5120)
I0513 03:00:44.361192   649 net.cpp:267] TEST Top shape for layer 63 'ctx_output6_ctx_output6/relu_0_split' 10 256 1 2 (5120)
I0513 03:00:44.361204   649 net.cpp:267] TEST Top shape for layer 63 'ctx_output6_ctx_output6/relu_0_split' 10 256 1 2 (5120)
I0513 03:00:44.361212   649 layer_factory.hpp:172] Creating layer 'ctx_output1/relu_mbox_loc' of type 'Convolution'
I0513 03:00:44.361217   649 layer_factory.hpp:184] Layer's types are Ftype:FLOAT Btype:FLOAT Fmath:FLOAT Bmath:FLOAT
I0513 03:00:44.361235   649 net.cpp:200] Created Layer ctx_output1/relu_mbox_loc (64)
I0513 03:00:44.361241   649 net.cpp:572] ctx_output1/relu_mbox_loc <- ctx_output1_ctx_output1/relu_0_split_0
I0513 03:00:44.361248   649 net.cpp:542] ctx_output1/relu_mbox_loc -> ctx_output1/relu_mbox_loc
I0513 03:00:44.361521   649 net.cpp:260] Setting up ctx_output1/relu_mbox_loc
I0513 03:00:44.361528   649 net.cpp:267] TEST Top shape for layer 64 'ctx_output1/relu_mbox_loc' 10 16 40 96 (614400)
I0513 03:00:44.361537   649 layer_factory.hpp:172] Creating layer 'ctx_output1/relu_mbox_loc_perm' of type 'Permute'
I0513 03:00:44.361543   649 layer_factory.hpp:184] Layer's types are Ftype:FLOAT Btype:FLOAT Fmath:FLOAT Bmath:FLOAT
I0513 03:00:44.361555   649 net.cpp:200] Created Layer ctx_output1/relu_mbox_loc_perm (65)
I0513 03:00:44.361562   649 net.cpp:572] ctx_output1/relu_mbox_loc_perm <- ctx_output1/relu_mbox_loc
I0513 03:00:44.361567   649 net.cpp:542] ctx_output1/relu_mbox_loc_perm -> ctx_output1/relu_mbox_loc_perm
I0513 03:00:44.361670   649 net.cpp:260] Setting up ctx_output1/relu_mbox_loc_perm
I0513 03:00:44.361677   649 net.cpp:267] TEST Top shape for layer 65 'ctx_output1/relu_mbox_loc_perm' 10 40 96 16 (614400)
I0513 03:00:44.361696   649 layer_factory.hpp:172] Creating layer 'ctx_output1/relu_mbox_loc_flat' of type 'Flatten'
I0513 03:00:44.361702   649 layer_factory.hpp:184] Layer's types are Ftype:FLOAT Btype:FLOAT Fmath:FLOAT Bmath:FLOAT
I0513 03:00:44.361711   649 net.cpp:200] Created Layer ctx_output1/relu_mbox_loc_flat (66)
I0513 03:00:44.361719   649 net.cpp:572] ctx_output1/relu_mbox_loc_flat <- ctx_output1/relu_mbox_loc_perm
I0513 03:00:44.361726   649 net.cpp:542] ctx_output1/relu_mbox_loc_flat -> ctx_output1/relu_mbox_loc_flat
I0513 03:00:44.363816   649 net.cpp:260] Setting up ctx_output1/relu_mbox_loc_flat
I0513 03:00:44.363829   649 net.cpp:267] TEST Top shape for layer 66 'ctx_output1/relu_mbox_loc_flat' 10 61440 (614400)
I0513 03:00:44.363838   649 layer_factory.hpp:172] Creating layer 'ctx_output1/relu_mbox_conf' of type 'Convolution'
I0513 03:00:44.363842   649 layer_factory.hpp:184] Layer's types are Ftype:FLOAT Btype:FLOAT Fmath:FLOAT Bmath:FLOAT
I0513 03:00:44.363857   649 net.cpp:200] Created Layer ctx_output1/relu_mbox_conf (67)
I0513 03:00:44.363863   649 net.cpp:572] ctx_output1/relu_mbox_conf <- ctx_output1_ctx_output1/relu_0_split_1
I0513 03:00:44.363869   649 net.cpp:542] ctx_output1/relu_mbox_conf -> ctx_output1/relu_mbox_conf
I0513 03:00:44.364162   649 net.cpp:260] Setting up ctx_output1/relu_mbox_conf
I0513 03:00:44.364169   649 net.cpp:267] TEST Top shape for layer 67 'ctx_output1/relu_mbox_conf' 10 16 40 96 (614400)
I0513 03:00:44.364181   649 layer_factory.hpp:172] Creating layer 'ctx_output1/relu_mbox_conf_perm' of type 'Permute'
I0513 03:00:44.364187   649 layer_factory.hpp:184] Layer's types are Ftype:FLOAT Btype:FLOAT Fmath:FLOAT Bmath:FLOAT
I0513 03:00:44.364194   649 net.cpp:200] Created Layer ctx_output1/relu_mbox_conf_perm (68)
I0513 03:00:44.364202   649 net.cpp:572] ctx_output1/relu_mbox_conf_perm <- ctx_output1/relu_mbox_conf
I0513 03:00:44.364207   649 net.cpp:542] ctx_output1/relu_mbox_conf_perm -> ctx_output1/relu_mbox_conf_perm
I0513 03:00:44.364292   649 net.cpp:260] Setting up ctx_output1/relu_mbox_conf_perm
I0513 03:00:44.364300   649 net.cpp:267] TEST Top shape for layer 68 'ctx_output1/relu_mbox_conf_perm' 10 40 96 16 (614400)
I0513 03:00:44.364306   649 layer_factory.hpp:172] Creating layer 'ctx_output1/relu_mbox_conf_flat' of type 'Flatten'
I0513 03:00:44.364310   649 layer_factory.hpp:184] Layer's types are Ftype:FLOAT Btype:FLOAT Fmath:FLOAT Bmath:FLOAT
I0513 03:00:44.364316   649 net.cpp:200] Created Layer ctx_output1/relu_mbox_conf_flat (69)
I0513 03:00:44.364321   649 net.cpp:572] ctx_output1/relu_mbox_conf_flat <- ctx_output1/relu_mbox_conf_perm
I0513 03:00:44.364327   649 net.cpp:542] ctx_output1/relu_mbox_conf_flat -> ctx_output1/relu_mbox_conf_flat
I0513 03:00:44.366247   649 net.cpp:260] Setting up ctx_output1/relu_mbox_conf_flat
I0513 03:00:44.366259   649 net.cpp:267] TEST Top shape for layer 69 'ctx_output1/relu_mbox_conf_flat' 10 61440 (614400)
I0513 03:00:44.366268   649 layer_factory.hpp:172] Creating layer 'ctx_output1/relu_mbox_priorbox' of type 'PriorBox'
I0513 03:00:44.366272   649 layer_factory.hpp:184] Layer's types are Ftype:FLOAT Btype:FLOAT Fmath:FLOAT Bmath:FLOAT
I0513 03:00:44.366286   649 net.cpp:200] Created Layer ctx_output1/relu_mbox_priorbox (70)
I0513 03:00:44.366294   649 net.cpp:572] ctx_output1/relu_mbox_priorbox <- ctx_output1_ctx_output1/relu_0_split_2
I0513 03:00:44.366302   649 net.cpp:572] ctx_output1/relu_mbox_priorbox <- data_data_0_split_1
I0513 03:00:44.366312   649 net.cpp:542] ctx_output1/relu_mbox_priorbox -> ctx_output1/relu_mbox_priorbox
I0513 03:00:44.366353   649 net.cpp:260] Setting up ctx_output1/relu_mbox_priorbox
I0513 03:00:44.366361   649 net.cpp:267] TEST Top shape for layer 70 'ctx_output1/relu_mbox_priorbox' 1 2 61440 (122880)
I0513 03:00:44.366371   649 layer_factory.hpp:172] Creating layer 'ctx_output2/relu_mbox_loc' of type 'Convolution'
I0513 03:00:44.366381   649 layer_factory.hpp:184] Layer's types are Ftype:FLOAT Btype:FLOAT Fmath:FLOAT Bmath:FLOAT
I0513 03:00:44.366415   649 net.cpp:200] Created Layer ctx_output2/relu_mbox_loc (71)
I0513 03:00:44.366426   649 net.cpp:572] ctx_output2/relu_mbox_loc <- ctx_output2_ctx_output2/relu_0_split_0
I0513 03:00:44.366436   649 net.cpp:542] ctx_output2/relu_mbox_loc -> ctx_output2/relu_mbox_loc
I0513 03:00:44.366739   649 net.cpp:260] Setting up ctx_output2/relu_mbox_loc
I0513 03:00:44.366746   649 net.cpp:267] TEST Top shape for layer 71 'ctx_output2/relu_mbox_loc' 10 24 10 24 (57600)
I0513 03:00:44.366760   649 layer_factory.hpp:172] Creating layer 'ctx_output2/relu_mbox_loc_perm' of type 'Permute'
I0513 03:00:44.366767   649 layer_factory.hpp:184] Layer's types are Ftype:FLOAT Btype:FLOAT Fmath:FLOAT Bmath:FLOAT
I0513 03:00:44.366778   649 net.cpp:200] Created Layer ctx_output2/relu_mbox_loc_perm (72)
I0513 03:00:44.366784   649 net.cpp:572] ctx_output2/relu_mbox_loc_perm <- ctx_output2/relu_mbox_loc
I0513 03:00:44.366793   649 net.cpp:542] ctx_output2/relu_mbox_loc_perm -> ctx_output2/relu_mbox_loc_perm
I0513 03:00:44.366871   649 net.cpp:260] Setting up ctx_output2/relu_mbox_loc_perm
I0513 03:00:44.366878   649 net.cpp:267] TEST Top shape for layer 72 'ctx_output2/relu_mbox_loc_perm' 10 10 24 24 (57600)
I0513 03:00:44.366888   649 layer_factory.hpp:172] Creating layer 'ctx_output2/relu_mbox_loc_flat' of type 'Flatten'
I0513 03:00:44.366895   649 layer_factory.hpp:184] Layer's types are Ftype:FLOAT Btype:FLOAT Fmath:FLOAT Bmath:FLOAT
I0513 03:00:44.366904   649 net.cpp:200] Created Layer ctx_output2/relu_mbox_loc_flat (73)
I0513 03:00:44.366909   649 net.cpp:572] ctx_output2/relu_mbox_loc_flat <- ctx_output2/relu_mbox_loc_perm
I0513 03:00:44.366919   649 net.cpp:542] ctx_output2/relu_mbox_loc_flat -> ctx_output2/relu_mbox_loc_flat
I0513 03:00:44.367862   649 net.cpp:260] Setting up ctx_output2/relu_mbox_loc_flat
I0513 03:00:44.367874   649 net.cpp:267] TEST Top shape for layer 73 'ctx_output2/relu_mbox_loc_flat' 10 5760 (57600)
I0513 03:00:44.367888   649 layer_factory.hpp:172] Creating layer 'ctx_output2/relu_mbox_conf' of type 'Convolution'
I0513 03:00:44.367897   649 layer_factory.hpp:184] Layer's types are Ftype:FLOAT Btype:FLOAT Fmath:FLOAT Bmath:FLOAT
I0513 03:00:44.367914   649 net.cpp:200] Created Layer ctx_output2/relu_mbox_conf (74)
I0513 03:00:44.367921   649 net.cpp:572] ctx_output2/relu_mbox_conf <- ctx_output2_ctx_output2/relu_0_split_1
I0513 03:00:44.367930   649 net.cpp:542] ctx_output2/relu_mbox_conf -> ctx_output2/relu_mbox_conf
I0513 03:00:44.368242   649 net.cpp:260] Setting up ctx_output2/relu_mbox_conf
I0513 03:00:44.368249   649 net.cpp:267] TEST Top shape for layer 74 'ctx_output2/relu_mbox_conf' 10 24 10 24 (57600)
I0513 03:00:44.368259   649 layer_factory.hpp:172] Creating layer 'ctx_output2/relu_mbox_conf_perm' of type 'Permute'
I0513 03:00:44.368264   649 layer_factory.hpp:184] Layer's types are Ftype:FLOAT Btype:FLOAT Fmath:FLOAT Bmath:FLOAT
I0513 03:00:44.368273   649 net.cpp:200] Created Layer ctx_output2/relu_mbox_conf_perm (75)
I0513 03:00:44.368279   649 net.cpp:572] ctx_output2/relu_mbox_conf_perm <- ctx_output2/relu_mbox_conf
I0513 03:00:44.368286   649 net.cpp:542] ctx_output2/relu_mbox_conf_perm -> ctx_output2/relu_mbox_conf_perm
I0513 03:00:44.368376   649 net.cpp:260] Setting up ctx_output2/relu_mbox_conf_perm
I0513 03:00:44.368382   649 net.cpp:267] TEST Top shape for layer 75 'ctx_output2/relu_mbox_conf_perm' 10 10 24 24 (57600)
I0513 03:00:44.368389   649 layer_factory.hpp:172] Creating layer 'ctx_output2/relu_mbox_conf_flat' of type 'Flatten'
I0513 03:00:44.368394   649 layer_factory.hpp:184] Layer's types are Ftype:FLOAT Btype:FLOAT Fmath:FLOAT Bmath:FLOAT
I0513 03:00:44.368399   649 net.cpp:200] Created Layer ctx_output2/relu_mbox_conf_flat (76)
I0513 03:00:44.368405   649 net.cpp:572] ctx_output2/relu_mbox_conf_flat <- ctx_output2/relu_mbox_conf_perm
I0513 03:00:44.368412   649 net.cpp:542] ctx_output2/relu_mbox_conf_flat -> ctx_output2/relu_mbox_conf_flat
I0513 03:00:44.368999   649 net.cpp:260] Setting up ctx_output2/relu_mbox_conf_flat
I0513 03:00:44.369009   649 net.cpp:267] TEST Top shape for layer 76 'ctx_output2/relu_mbox_conf_flat' 10 5760 (57600)
I0513 03:00:44.369027   649 layer_factory.hpp:172] Creating layer 'ctx_output2/relu_mbox_priorbox' of type 'PriorBox'
I0513 03:00:44.369031   649 layer_factory.hpp:184] Layer's types are Ftype:FLOAT Btype:FLOAT Fmath:FLOAT Bmath:FLOAT
I0513 03:00:44.369040   649 net.cpp:200] Created Layer ctx_output2/relu_mbox_priorbox (77)
I0513 03:00:44.369047   649 net.cpp:572] ctx_output2/relu_mbox_priorbox <- ctx_output2_ctx_output2/relu_0_split_2
I0513 03:00:44.369055   649 net.cpp:572] ctx_output2/relu_mbox_priorbox <- data_data_0_split_2
I0513 03:00:44.369065   649 net.cpp:542] ctx_output2/relu_mbox_priorbox -> ctx_output2/relu_mbox_priorbox
I0513 03:00:44.369098   649 net.cpp:260] Setting up ctx_output2/relu_mbox_priorbox
I0513 03:00:44.369107   649 net.cpp:267] TEST Top shape for layer 77 'ctx_output2/relu_mbox_priorbox' 1 2 5760 (11520)
I0513 03:00:44.369114   649 layer_factory.hpp:172] Creating layer 'ctx_output3/relu_mbox_loc' of type 'Convolution'
I0513 03:00:44.369120   649 layer_factory.hpp:184] Layer's types are Ftype:FLOAT Btype:FLOAT Fmath:FLOAT Bmath:FLOAT
I0513 03:00:44.369136   649 net.cpp:200] Created Layer ctx_output3/relu_mbox_loc (78)
I0513 03:00:44.369149   649 net.cpp:572] ctx_output3/relu_mbox_loc <- ctx_output3_ctx_output3/relu_0_split_0
I0513 03:00:44.369158   649 net.cpp:542] ctx_output3/relu_mbox_loc -> ctx_output3/relu_mbox_loc
I0513 03:00:44.369474   649 net.cpp:260] Setting up ctx_output3/relu_mbox_loc
I0513 03:00:44.369482   649 net.cpp:267] TEST Top shape for layer 78 'ctx_output3/relu_mbox_loc' 10 24 5 12 (14400)
I0513 03:00:44.369495   649 layer_factory.hpp:172] Creating layer 'ctx_output3/relu_mbox_loc_perm' of type 'Permute'
I0513 03:00:44.369503   649 layer_factory.hpp:184] Layer's types are Ftype:FLOAT Btype:FLOAT Fmath:FLOAT Bmath:FLOAT
I0513 03:00:44.369514   649 net.cpp:200] Created Layer ctx_output3/relu_mbox_loc_perm (79)
I0513 03:00:44.369522   649 net.cpp:572] ctx_output3/relu_mbox_loc_perm <- ctx_output3/relu_mbox_loc
I0513 03:00:44.369529   649 net.cpp:542] ctx_output3/relu_mbox_loc_perm -> ctx_output3/relu_mbox_loc_perm
I0513 03:00:44.369609   649 net.cpp:260] Setting up ctx_output3/relu_mbox_loc_perm
I0513 03:00:44.369616   649 net.cpp:267] TEST Top shape for layer 79 'ctx_output3/relu_mbox_loc_perm' 10 5 12 24 (14400)
I0513 03:00:44.369622   649 layer_factory.hpp:172] Creating layer 'ctx_output3/relu_mbox_loc_flat' of type 'Flatten'
I0513 03:00:44.369627   649 layer_factory.hpp:184] Layer's types are Ftype:FLOAT Btype:FLOAT Fmath:FLOAT Bmath:FLOAT
I0513 03:00:44.369637   649 net.cpp:200] Created Layer ctx_output3/relu_mbox_loc_flat (80)
I0513 03:00:44.369644   649 net.cpp:572] ctx_output3/relu_mbox_loc_flat <- ctx_output3/relu_mbox_loc_perm
I0513 03:00:44.369653   649 net.cpp:542] ctx_output3/relu_mbox_loc_flat -> ctx_output3/relu_mbox_loc_flat
I0513 03:00:44.369721   649 net.cpp:260] Setting up ctx_output3/relu_mbox_loc_flat
I0513 03:00:44.369729   649 net.cpp:267] TEST Top shape for layer 80 'ctx_output3/relu_mbox_loc_flat' 10 1440 (14400)
I0513 03:00:44.369736   649 layer_factory.hpp:172] Creating layer 'ctx_output3/relu_mbox_conf' of type 'Convolution'
I0513 03:00:44.369746   649 layer_factory.hpp:184] Layer's types are Ftype:FLOAT Btype:FLOAT Fmath:FLOAT Bmath:FLOAT
I0513 03:00:44.369766   649 net.cpp:200] Created Layer ctx_output3/relu_mbox_conf (81)
I0513 03:00:44.369774   649 net.cpp:572] ctx_output3/relu_mbox_conf <- ctx_output3_ctx_output3/relu_0_split_1
I0513 03:00:44.369779   649 net.cpp:542] ctx_output3/relu_mbox_conf -> ctx_output3/relu_mbox_conf
I0513 03:00:44.370079   649 net.cpp:260] Setting up ctx_output3/relu_mbox_conf
I0513 03:00:44.370087   649 net.cpp:267] TEST Top shape for layer 81 'ctx_output3/relu_mbox_conf' 10 24 5 12 (14400)
I0513 03:00:44.370102   649 layer_factory.hpp:172] Creating layer 'ctx_output3/relu_mbox_conf_perm' of type 'Permute'
I0513 03:00:44.370111   649 layer_factory.hpp:184] Layer's types are Ftype:FLOAT Btype:FLOAT Fmath:FLOAT Bmath:FLOAT
I0513 03:00:44.370137   649 net.cpp:200] Created Layer ctx_output3/relu_mbox_conf_perm (82)
I0513 03:00:44.370146   649 net.cpp:572] ctx_output3/relu_mbox_conf_perm <- ctx_output3/relu_mbox_conf
I0513 03:00:44.370153   649 net.cpp:542] ctx_output3/relu_mbox_conf_perm -> ctx_output3/relu_mbox_conf_perm
I0513 03:00:44.370242   649 net.cpp:260] Setting up ctx_output3/relu_mbox_conf_perm
I0513 03:00:44.370249   649 net.cpp:267] TEST Top shape for layer 82 'ctx_output3/relu_mbox_conf_perm' 10 5 12 24 (14400)
I0513 03:00:44.370256   649 layer_factory.hpp:172] Creating layer 'ctx_output3/relu_mbox_conf_flat' of type 'Flatten'
I0513 03:00:44.370260   649 layer_factory.hpp:184] Layer's types are Ftype:FLOAT Btype:FLOAT Fmath:FLOAT Bmath:FLOAT
I0513 03:00:44.370270   649 net.cpp:200] Created Layer ctx_output3/relu_mbox_conf_flat (83)
I0513 03:00:44.370277   649 net.cpp:572] ctx_output3/relu_mbox_conf_flat <- ctx_output3/relu_mbox_conf_perm
I0513 03:00:44.370285   649 net.cpp:542] ctx_output3/relu_mbox_conf_flat -> ctx_output3/relu_mbox_conf_flat
I0513 03:00:44.370347   649 net.cpp:260] Setting up ctx_output3/relu_mbox_conf_flat
I0513 03:00:44.370357   649 net.cpp:267] TEST Top shape for layer 83 'ctx_output3/relu_mbox_conf_flat' 10 1440 (14400)
I0513 03:00:44.370362   649 layer_factory.hpp:172] Creating layer 'ctx_output3/relu_mbox_priorbox' of type 'PriorBox'
I0513 03:00:44.370368   649 layer_factory.hpp:184] Layer's types are Ftype:FLOAT Btype:FLOAT Fmath:FLOAT Bmath:FLOAT
I0513 03:00:44.370373   649 net.cpp:200] Created Layer ctx_output3/relu_mbox_priorbox (84)
I0513 03:00:44.370379   649 net.cpp:572] ctx_output3/relu_mbox_priorbox <- ctx_output3_ctx_output3/relu_0_split_2
I0513 03:00:44.370385   649 net.cpp:572] ctx_output3/relu_mbox_priorbox <- data_data_0_split_3
I0513 03:00:44.370393   649 net.cpp:542] ctx_output3/relu_mbox_priorbox -> ctx_output3/relu_mbox_priorbox
I0513 03:00:44.370421   649 net.cpp:260] Setting up ctx_output3/relu_mbox_priorbox
I0513 03:00:44.370427   649 net.cpp:267] TEST Top shape for layer 84 'ctx_output3/relu_mbox_priorbox' 1 2 1440 (2880)
I0513 03:00:44.370434   649 layer_factory.hpp:172] Creating layer 'ctx_output4/relu_mbox_loc' of type 'Convolution'
I0513 03:00:44.370438   649 layer_factory.hpp:184] Layer's types are Ftype:FLOAT Btype:FLOAT Fmath:FLOAT Bmath:FLOAT
I0513 03:00:44.370453   649 net.cpp:200] Created Layer ctx_output4/relu_mbox_loc (85)
I0513 03:00:44.370461   649 net.cpp:572] ctx_output4/relu_mbox_loc <- ctx_output4_ctx_output4/relu_0_split_0
I0513 03:00:44.370467   649 net.cpp:542] ctx_output4/relu_mbox_loc -> ctx_output4/relu_mbox_loc
I0513 03:00:44.370769   649 net.cpp:260] Setting up ctx_output4/relu_mbox_loc
I0513 03:00:44.370776   649 net.cpp:267] TEST Top shape for layer 85 'ctx_output4/relu_mbox_loc' 10 24 3 6 (4320)
I0513 03:00:44.370786   649 layer_factory.hpp:172] Creating layer 'ctx_output4/relu_mbox_loc_perm' of type 'Permute'
I0513 03:00:44.370790   649 layer_factory.hpp:184] Layer's types are Ftype:FLOAT Btype:FLOAT Fmath:FLOAT Bmath:FLOAT
I0513 03:00:44.370798   649 net.cpp:200] Created Layer ctx_output4/relu_mbox_loc_perm (86)
I0513 03:00:44.370805   649 net.cpp:572] ctx_output4/relu_mbox_loc_perm <- ctx_output4/relu_mbox_loc
I0513 03:00:44.370812   649 net.cpp:542] ctx_output4/relu_mbox_loc_perm -> ctx_output4/relu_mbox_loc_perm
I0513 03:00:44.370919   649 net.cpp:260] Setting up ctx_output4/relu_mbox_loc_perm
I0513 03:00:44.370926   649 net.cpp:267] TEST Top shape for layer 86 'ctx_output4/relu_mbox_loc_perm' 10 3 6 24 (4320)
I0513 03:00:44.370932   649 layer_factory.hpp:172] Creating layer 'ctx_output4/relu_mbox_loc_flat' of type 'Flatten'
I0513 03:00:44.370939   649 layer_factory.hpp:184] Layer's types are Ftype:FLOAT Btype:FLOAT Fmath:FLOAT Bmath:FLOAT
I0513 03:00:44.370947   649 net.cpp:200] Created Layer ctx_output4/relu_mbox_loc_flat (87)
I0513 03:00:44.370954   649 net.cpp:572] ctx_output4/relu_mbox_loc_flat <- ctx_output4/relu_mbox_loc_perm
I0513 03:00:44.370960   649 net.cpp:542] ctx_output4/relu_mbox_loc_flat -> ctx_output4/relu_mbox_loc_flat
I0513 03:00:44.371031   649 net.cpp:260] Setting up ctx_output4/relu_mbox_loc_flat
I0513 03:00:44.371047   649 net.cpp:267] TEST Top shape for layer 87 'ctx_output4/relu_mbox_loc_flat' 10 432 (4320)
I0513 03:00:44.371053   649 layer_factory.hpp:172] Creating layer 'ctx_output4/relu_mbox_conf' of type 'Convolution'
I0513 03:00:44.371057   649 layer_factory.hpp:184] Layer's types are Ftype:FLOAT Btype:FLOAT Fmath:FLOAT Bmath:FLOAT
I0513 03:00:44.371069   649 net.cpp:200] Created Layer ctx_output4/relu_mbox_conf (88)
I0513 03:00:44.371079   649 net.cpp:572] ctx_output4/relu_mbox_conf <- ctx_output4_ctx_output4/relu_0_split_1
I0513 03:00:44.371086   649 net.cpp:542] ctx_output4/relu_mbox_conf -> ctx_output4/relu_mbox_conf
I0513 03:00:44.371371   649 net.cpp:260] Setting up ctx_output4/relu_mbox_conf
I0513 03:00:44.371376   649 net.cpp:267] TEST Top shape for layer 88 'ctx_output4/relu_mbox_conf' 10 24 3 6 (4320)
I0513 03:00:44.371387   649 layer_factory.hpp:172] Creating layer 'ctx_output4/relu_mbox_conf_perm' of type 'Permute'
I0513 03:00:44.371392   649 layer_factory.hpp:184] Layer's types are Ftype:FLOAT Btype:FLOAT Fmath:FLOAT Bmath:FLOAT
I0513 03:00:44.371398   649 net.cpp:200] Created Layer ctx_output4/relu_mbox_conf_perm (89)
I0513 03:00:44.371404   649 net.cpp:572] ctx_output4/relu_mbox_conf_perm <- ctx_output4/relu_mbox_conf
I0513 03:00:44.371410   649 net.cpp:542] ctx_output4/relu_mbox_conf_perm -> ctx_output4/relu_mbox_conf_perm
I0513 03:00:44.371506   649 net.cpp:260] Setting up ctx_output4/relu_mbox_conf_perm
I0513 03:00:44.371515   649 net.cpp:267] TEST Top shape for layer 89 'ctx_output4/relu_mbox_conf_perm' 10 3 6 24 (4320)
I0513 03:00:44.371522   649 layer_factory.hpp:172] Creating layer 'ctx_output4/relu_mbox_conf_flat' of type 'Flatten'
I0513 03:00:44.371528   649 layer_factory.hpp:184] Layer's types are Ftype:FLOAT Btype:FLOAT Fmath:FLOAT Bmath:FLOAT
I0513 03:00:44.371534   649 net.cpp:200] Created Layer ctx_output4/relu_mbox_conf_flat (90)
I0513 03:00:44.371538   649 net.cpp:572] ctx_output4/relu_mbox_conf_flat <- ctx_output4/relu_mbox_conf_perm
I0513 03:00:44.371543   649 net.cpp:542] ctx_output4/relu_mbox_conf_flat -> ctx_output4/relu_mbox_conf_flat
I0513 03:00:44.371608   649 net.cpp:260] Setting up ctx_output4/relu_mbox_conf_flat
I0513 03:00:44.371615   649 net.cpp:267] TEST Top shape for layer 90 'ctx_output4/relu_mbox_conf_flat' 10 432 (4320)
I0513 03:00:44.371623   649 layer_factory.hpp:172] Creating layer 'ctx_output4/relu_mbox_priorbox' of type 'PriorBox'
I0513 03:00:44.371631   649 layer_factory.hpp:184] Layer's types are Ftype:FLOAT Btype:FLOAT Fmath:FLOAT Bmath:FLOAT
I0513 03:00:44.371642   649 net.cpp:200] Created Layer ctx_output4/relu_mbox_priorbox (91)
I0513 03:00:44.371651   649 net.cpp:572] ctx_output4/relu_mbox_priorbox <- ctx_output4_ctx_output4/relu_0_split_2
I0513 03:00:44.371660   649 net.cpp:572] ctx_output4/relu_mbox_priorbox <- data_data_0_split_4
I0513 03:00:44.371668   649 net.cpp:542] ctx_output4/relu_mbox_priorbox -> ctx_output4/relu_mbox_priorbox
I0513 03:00:44.371695   649 net.cpp:260] Setting up ctx_output4/relu_mbox_priorbox
I0513 03:00:44.371702   649 net.cpp:267] TEST Top shape for layer 91 'ctx_output4/relu_mbox_priorbox' 1 2 432 (864)
I0513 03:00:44.371711   649 layer_factory.hpp:172] Creating layer 'ctx_output5/relu_mbox_loc' of type 'Convolution'
I0513 03:00:44.371717   649 layer_factory.hpp:184] Layer's types are Ftype:FLOAT Btype:FLOAT Fmath:FLOAT Bmath:FLOAT
I0513 03:00:44.371731   649 net.cpp:200] Created Layer ctx_output5/relu_mbox_loc (92)
I0513 03:00:44.371738   649 net.cpp:572] ctx_output5/relu_mbox_loc <- ctx_output5_ctx_output5/relu_0_split_0
I0513 03:00:44.371747   649 net.cpp:542] ctx_output5/relu_mbox_loc -> ctx_output5/relu_mbox_loc
I0513 03:00:44.372018   649 net.cpp:260] Setting up ctx_output5/relu_mbox_loc
I0513 03:00:44.372025   649 net.cpp:267] TEST Top shape for layer 92 'ctx_output5/relu_mbox_loc' 10 16 2 3 (960)
I0513 03:00:44.372035   649 layer_factory.hpp:172] Creating layer 'ctx_output5/relu_mbox_loc_perm' of type 'Permute'
I0513 03:00:44.372040   649 layer_factory.hpp:184] Layer's types are Ftype:FLOAT Btype:FLOAT Fmath:FLOAT Bmath:FLOAT
I0513 03:00:44.372062   649 net.cpp:200] Created Layer ctx_output5/relu_mbox_loc_perm (93)
I0513 03:00:44.372071   649 net.cpp:572] ctx_output5/relu_mbox_loc_perm <- ctx_output5/relu_mbox_loc
I0513 03:00:44.372078   649 net.cpp:542] ctx_output5/relu_mbox_loc_perm -> ctx_output5/relu_mbox_loc_perm
I0513 03:00:44.372160   649 net.cpp:260] Setting up ctx_output5/relu_mbox_loc_perm
I0513 03:00:44.372166   649 net.cpp:267] TEST Top shape for layer 93 'ctx_output5/relu_mbox_loc_perm' 10 2 3 16 (960)
I0513 03:00:44.372174   649 layer_factory.hpp:172] Creating layer 'ctx_output5/relu_mbox_loc_flat' of type 'Flatten'
I0513 03:00:44.372182   649 layer_factory.hpp:184] Layer's types are Ftype:FLOAT Btype:FLOAT Fmath:FLOAT Bmath:FLOAT
I0513 03:00:44.372190   649 net.cpp:200] Created Layer ctx_output5/relu_mbox_loc_flat (94)
I0513 03:00:44.372200   649 net.cpp:572] ctx_output5/relu_mbox_loc_flat <- ctx_output5/relu_mbox_loc_perm
I0513 03:00:44.372206   649 net.cpp:542] ctx_output5/relu_mbox_loc_flat -> ctx_output5/relu_mbox_loc_flat
I0513 03:00:44.372262   649 net.cpp:260] Setting up ctx_output5/relu_mbox_loc_flat
I0513 03:00:44.372272   649 net.cpp:267] TEST Top shape for layer 94 'ctx_output5/relu_mbox_loc_flat' 10 96 (960)
I0513 03:00:44.372279   649 layer_factory.hpp:172] Creating layer 'ctx_output5/relu_mbox_conf' of type 'Convolution'
I0513 03:00:44.372283   649 layer_factory.hpp:184] Layer's types are Ftype:FLOAT Btype:FLOAT Fmath:FLOAT Bmath:FLOAT
I0513 03:00:44.372299   649 net.cpp:200] Created Layer ctx_output5/relu_mbox_conf (95)
I0513 03:00:44.372308   649 net.cpp:572] ctx_output5/relu_mbox_conf <- ctx_output5_ctx_output5/relu_0_split_1
I0513 03:00:44.372315   649 net.cpp:542] ctx_output5/relu_mbox_conf -> ctx_output5/relu_mbox_conf
I0513 03:00:44.372570   649 net.cpp:260] Setting up ctx_output5/relu_mbox_conf
I0513 03:00:44.372577   649 net.cpp:267] TEST Top shape for layer 95 'ctx_output5/relu_mbox_conf' 10 16 2 3 (960)
I0513 03:00:44.372586   649 layer_factory.hpp:172] Creating layer 'ctx_output5/relu_mbox_conf_perm' of type 'Permute'
I0513 03:00:44.372593   649 layer_factory.hpp:184] Layer's types are Ftype:FLOAT Btype:FLOAT Fmath:FLOAT Bmath:FLOAT
I0513 03:00:44.372603   649 net.cpp:200] Created Layer ctx_output5/relu_mbox_conf_perm (96)
I0513 03:00:44.372611   649 net.cpp:572] ctx_output5/relu_mbox_conf_perm <- ctx_output5/relu_mbox_conf
I0513 03:00:44.372617   649 net.cpp:542] ctx_output5/relu_mbox_conf_perm -> ctx_output5/relu_mbox_conf_perm
I0513 03:00:44.372687   649 net.cpp:260] Setting up ctx_output5/relu_mbox_conf_perm
I0513 03:00:44.372692   649 net.cpp:267] TEST Top shape for layer 96 'ctx_output5/relu_mbox_conf_perm' 10 2 3 16 (960)
I0513 03:00:44.372699   649 layer_factory.hpp:172] Creating layer 'ctx_output5/relu_mbox_conf_flat' of type 'Flatten'
I0513 03:00:44.372704   649 layer_factory.hpp:184] Layer's types are Ftype:FLOAT Btype:FLOAT Fmath:FLOAT Bmath:FLOAT
I0513 03:00:44.372710   649 net.cpp:200] Created Layer ctx_output5/relu_mbox_conf_flat (97)
I0513 03:00:44.372717   649 net.cpp:572] ctx_output5/relu_mbox_conf_flat <- ctx_output5/relu_mbox_conf_perm
I0513 03:00:44.372722   649 net.cpp:542] ctx_output5/relu_mbox_conf_flat -> ctx_output5/relu_mbox_conf_flat
I0513 03:00:44.372776   649 net.cpp:260] Setting up ctx_output5/relu_mbox_conf_flat
I0513 03:00:44.372783   649 net.cpp:267] TEST Top shape for layer 97 'ctx_output5/relu_mbox_conf_flat' 10 96 (960)
I0513 03:00:44.372792   649 layer_factory.hpp:172] Creating layer 'ctx_output5/relu_mbox_priorbox' of type 'PriorBox'
I0513 03:00:44.372799   649 layer_factory.hpp:184] Layer's types are Ftype:FLOAT Btype:FLOAT Fmath:FLOAT Bmath:FLOAT
I0513 03:00:44.372808   649 net.cpp:200] Created Layer ctx_output5/relu_mbox_priorbox (98)
I0513 03:00:44.372815   649 net.cpp:572] ctx_output5/relu_mbox_priorbox <- ctx_output5_ctx_output5/relu_0_split_2
I0513 03:00:44.372822   649 net.cpp:572] ctx_output5/relu_mbox_priorbox <- data_data_0_split_5
I0513 03:00:44.372830   649 net.cpp:542] ctx_output5/relu_mbox_priorbox -> ctx_output5/relu_mbox_priorbox
I0513 03:00:44.372867   649 net.cpp:260] Setting up ctx_output5/relu_mbox_priorbox
I0513 03:00:44.372874   649 net.cpp:267] TEST Top shape for layer 98 'ctx_output5/relu_mbox_priorbox' 1 2 96 (192)
I0513 03:00:44.372884   649 layer_factory.hpp:172] Creating layer 'ctx_output6/relu_mbox_loc' of type 'Convolution'
I0513 03:00:44.372892   649 layer_factory.hpp:184] Layer's types are Ftype:FLOAT Btype:FLOAT Fmath:FLOAT Bmath:FLOAT
I0513 03:00:44.372906   649 net.cpp:200] Created Layer ctx_output6/relu_mbox_loc (99)
I0513 03:00:44.372913   649 net.cpp:572] ctx_output6/relu_mbox_loc <- ctx_output6_ctx_output6/relu_0_split_0
I0513 03:00:44.372920   649 net.cpp:542] ctx_output6/relu_mbox_loc -> ctx_output6/relu_mbox_loc
I0513 03:00:44.373189   649 net.cpp:260] Setting up ctx_output6/relu_mbox_loc
I0513 03:00:44.373198   649 net.cpp:267] TEST Top shape for layer 99 'ctx_output6/relu_mbox_loc' 10 16 1 2 (320)
I0513 03:00:44.373206   649 layer_factory.hpp:172] Creating layer 'ctx_output6/relu_mbox_loc_perm' of type 'Permute'
I0513 03:00:44.373214   649 layer_factory.hpp:184] Layer's types are Ftype:FLOAT Btype:FLOAT Fmath:FLOAT Bmath:FLOAT
I0513 03:00:44.373225   649 net.cpp:200] Created Layer ctx_output6/relu_mbox_loc_perm (100)
I0513 03:00:44.373234   649 net.cpp:572] ctx_output6/relu_mbox_loc_perm <- ctx_output6/relu_mbox_loc
I0513 03:00:44.373239   649 net.cpp:542] ctx_output6/relu_mbox_loc_perm -> ctx_output6/relu_mbox_loc_perm
I0513 03:00:44.373327   649 net.cpp:260] Setting up ctx_output6/relu_mbox_loc_perm
I0513 03:00:44.373334   649 net.cpp:267] TEST Top shape for layer 100 'ctx_output6/relu_mbox_loc_perm' 10 1 2 16 (320)
I0513 03:00:44.373340   649 layer_factory.hpp:172] Creating layer 'ctx_output6/relu_mbox_loc_flat' of type 'Flatten'
I0513 03:00:44.373344   649 layer_factory.hpp:184] Layer's types are Ftype:FLOAT Btype:FLOAT Fmath:FLOAT Bmath:FLOAT
I0513 03:00:44.373350   649 net.cpp:200] Created Layer ctx_output6/relu_mbox_loc_flat (101)
I0513 03:00:44.373354   649 net.cpp:572] ctx_output6/relu_mbox_loc_flat <- ctx_output6/relu_mbox_loc_perm
I0513 03:00:44.373359   649 net.cpp:542] ctx_output6/relu_mbox_loc_flat -> ctx_output6/relu_mbox_loc_flat
I0513 03:00:44.373411   649 net.cpp:260] Setting up ctx_output6/relu_mbox_loc_flat
I0513 03:00:44.373417   649 net.cpp:267] TEST Top shape for layer 101 'ctx_output6/relu_mbox_loc_flat' 10 32 (320)
I0513 03:00:44.373423   649 layer_factory.hpp:172] Creating layer 'ctx_output6/relu_mbox_conf' of type 'Convolution'
I0513 03:00:44.373430   649 layer_factory.hpp:184] Layer's types are Ftype:FLOAT Btype:FLOAT Fmath:FLOAT Bmath:FLOAT
I0513 03:00:44.373450   649 net.cpp:200] Created Layer ctx_output6/relu_mbox_conf (102)
I0513 03:00:44.373457   649 net.cpp:572] ctx_output6/relu_mbox_conf <- ctx_output6_ctx_output6/relu_0_split_1
I0513 03:00:44.373466   649 net.cpp:542] ctx_output6/relu_mbox_conf -> ctx_output6/relu_mbox_conf
I0513 03:00:44.373751   649 net.cpp:260] Setting up ctx_output6/relu_mbox_conf
I0513 03:00:44.373759   649 net.cpp:267] TEST Top shape for layer 102 'ctx_output6/relu_mbox_conf' 10 16 1 2 (320)
I0513 03:00:44.373775   649 layer_factory.hpp:172] Creating layer 'ctx_output6/relu_mbox_conf_perm' of type 'Permute'
I0513 03:00:44.373785   649 layer_factory.hpp:184] Layer's types are Ftype:FLOAT Btype:FLOAT Fmath:FLOAT Bmath:FLOAT
I0513 03:00:44.373795   649 net.cpp:200] Created Layer ctx_output6/relu_mbox_conf_perm (103)
I0513 03:00:44.373801   649 net.cpp:572] ctx_output6/relu_mbox_conf_perm <- ctx_output6/relu_mbox_conf
I0513 03:00:44.373811   649 net.cpp:542] ctx_output6/relu_mbox_conf_perm -> ctx_output6/relu_mbox_conf_perm
I0513 03:00:44.373914   649 net.cpp:260] Setting up ctx_output6/relu_mbox_conf_perm
I0513 03:00:44.373920   649 net.cpp:267] TEST Top shape for layer 103 'ctx_output6/relu_mbox_conf_perm' 10 1 2 16 (320)
I0513 03:00:44.373927   649 layer_factory.hpp:172] Creating layer 'ctx_output6/relu_mbox_conf_flat' of type 'Flatten'
I0513 03:00:44.373934   649 layer_factory.hpp:184] Layer's types are Ftype:FLOAT Btype:FLOAT Fmath:FLOAT Bmath:FLOAT
I0513 03:00:44.373952   649 net.cpp:200] Created Layer ctx_output6/relu_mbox_conf_flat (104)
I0513 03:00:44.373956   649 net.cpp:572] ctx_output6/relu_mbox_conf_flat <- ctx_output6/relu_mbox_conf_perm
I0513 03:00:44.373961   649 net.cpp:542] ctx_output6/relu_mbox_conf_flat -> ctx_output6/relu_mbox_conf_flat
I0513 03:00:44.374018   649 net.cpp:260] Setting up ctx_output6/relu_mbox_conf_flat
I0513 03:00:44.374025   649 net.cpp:267] TEST Top shape for layer 104 'ctx_output6/relu_mbox_conf_flat' 10 32 (320)
I0513 03:00:44.374032   649 layer_factory.hpp:172] Creating layer 'ctx_output6/relu_mbox_priorbox' of type 'PriorBox'
I0513 03:00:44.374037   649 layer_factory.hpp:184] Layer's types are Ftype:FLOAT Btype:FLOAT Fmath:FLOAT Bmath:FLOAT
I0513 03:00:44.374048   649 net.cpp:200] Created Layer ctx_output6/relu_mbox_priorbox (105)
I0513 03:00:44.374055   649 net.cpp:572] ctx_output6/relu_mbox_priorbox <- ctx_output6_ctx_output6/relu_0_split_2
I0513 03:00:44.374063   649 net.cpp:572] ctx_output6/relu_mbox_priorbox <- data_data_0_split_6
I0513 03:00:44.374069   649 net.cpp:542] ctx_output6/relu_mbox_priorbox -> ctx_output6/relu_mbox_priorbox
I0513 03:00:44.374092   649 net.cpp:260] Setting up ctx_output6/relu_mbox_priorbox
I0513 03:00:44.374100   649 net.cpp:267] TEST Top shape for layer 105 'ctx_output6/relu_mbox_priorbox' 1 2 32 (64)
I0513 03:00:44.374109   649 layer_factory.hpp:172] Creating layer 'mbox_loc' of type 'Concat'
I0513 03:00:44.374114   649 layer_factory.hpp:184] Layer's types are Ftype:FLOAT Btype:FLOAT Fmath:FLOAT Bmath:FLOAT
I0513 03:00:44.374127   649 net.cpp:200] Created Layer mbox_loc (106)
I0513 03:00:44.374135   649 net.cpp:572] mbox_loc <- ctx_output1/relu_mbox_loc_flat
I0513 03:00:44.374143   649 net.cpp:572] mbox_loc <- ctx_output2/relu_mbox_loc_flat
I0513 03:00:44.374150   649 net.cpp:572] mbox_loc <- ctx_output3/relu_mbox_loc_flat
I0513 03:00:44.374161   649 net.cpp:572] mbox_loc <- ctx_output4/relu_mbox_loc_flat
I0513 03:00:44.374166   649 net.cpp:572] mbox_loc <- ctx_output5/relu_mbox_loc_flat
I0513 03:00:44.374172   649 net.cpp:572] mbox_loc <- ctx_output6/relu_mbox_loc_flat
I0513 03:00:44.374177   649 net.cpp:542] mbox_loc -> mbox_loc
I0513 03:00:44.374202   649 net.cpp:260] Setting up mbox_loc
I0513 03:00:44.374207   649 net.cpp:267] TEST Top shape for layer 106 'mbox_loc' 10 69200 (692000)
I0513 03:00:44.374213   649 layer_factory.hpp:172] Creating layer 'mbox_conf' of type 'Concat'
I0513 03:00:44.374217   649 layer_factory.hpp:184] Layer's types are Ftype:FLOAT Btype:FLOAT Fmath:FLOAT Bmath:FLOAT
I0513 03:00:44.374223   649 net.cpp:200] Created Layer mbox_conf (107)
I0513 03:00:44.374228   649 net.cpp:572] mbox_conf <- ctx_output1/relu_mbox_conf_flat
I0513 03:00:44.374233   649 net.cpp:572] mbox_conf <- ctx_output2/relu_mbox_conf_flat
I0513 03:00:44.374236   649 net.cpp:572] mbox_conf <- ctx_output3/relu_mbox_conf_flat
I0513 03:00:44.374240   649 net.cpp:572] mbox_conf <- ctx_output4/relu_mbox_conf_flat
I0513 03:00:44.374245   649 net.cpp:572] mbox_conf <- ctx_output5/relu_mbox_conf_flat
I0513 03:00:44.374251   649 net.cpp:572] mbox_conf <- ctx_output6/relu_mbox_conf_flat
I0513 03:00:44.374256   649 net.cpp:542] mbox_conf -> mbox_conf
I0513 03:00:44.374274   649 net.cpp:260] Setting up mbox_conf
I0513 03:00:44.374277   649 net.cpp:267] TEST Top shape for layer 107 'mbox_conf' 10 69200 (692000)
I0513 03:00:44.374282   649 layer_factory.hpp:172] Creating layer 'mbox_priorbox' of type 'Concat'
I0513 03:00:44.374286   649 layer_factory.hpp:184] Layer's types are Ftype:FLOAT Btype:FLOAT Fmath:FLOAT Bmath:FLOAT
I0513 03:00:44.374291   649 net.cpp:200] Created Layer mbox_priorbox (108)
I0513 03:00:44.374295   649 net.cpp:572] mbox_priorbox <- ctx_output1/relu_mbox_priorbox
I0513 03:00:44.374300   649 net.cpp:572] mbox_priorbox <- ctx_output2/relu_mbox_priorbox
I0513 03:00:44.374303   649 net.cpp:572] mbox_priorbox <- ctx_output3/relu_mbox_priorbox
I0513 03:00:44.374308   649 net.cpp:572] mbox_priorbox <- ctx_output4/relu_mbox_priorbox
I0513 03:00:44.374321   649 net.cpp:572] mbox_priorbox <- ctx_output5/relu_mbox_priorbox
I0513 03:00:44.374326   649 net.cpp:572] mbox_priorbox <- ctx_output6/relu_mbox_priorbox
I0513 03:00:44.374330   649 net.cpp:542] mbox_priorbox -> mbox_priorbox
I0513 03:00:44.374346   649 net.cpp:260] Setting up mbox_priorbox
I0513 03:00:44.374349   649 net.cpp:267] TEST Top shape for layer 108 'mbox_priorbox' 1 2 69200 (138400)
I0513 03:00:44.374356   649 layer_factory.hpp:172] Creating layer 'mbox_conf_reshape' of type 'Reshape'
I0513 03:00:44.374359   649 layer_factory.hpp:184] Layer's types are Ftype:FLOAT Btype:FLOAT Fmath:FLOAT Bmath:FLOAT
I0513 03:00:44.374368   649 net.cpp:200] Created Layer mbox_conf_reshape (109)
I0513 03:00:44.374374   649 net.cpp:572] mbox_conf_reshape <- mbox_conf
I0513 03:00:44.374379   649 net.cpp:542] mbox_conf_reshape -> mbox_conf_reshape
I0513 03:00:44.374398   649 net.cpp:260] Setting up mbox_conf_reshape
I0513 03:00:44.374402   649 net.cpp:267] TEST Top shape for layer 109 'mbox_conf_reshape' 10 17300 4 (692000)
I0513 03:00:44.374408   649 layer_factory.hpp:172] Creating layer 'mbox_conf_softmax' of type 'Softmax'
I0513 03:00:44.374413   649 layer_factory.hpp:184] Layer's types are Ftype:FLOAT Btype:FLOAT Fmath:FLOAT Bmath:FLOAT
I0513 03:00:44.374429   649 net.cpp:200] Created Layer mbox_conf_softmax (110)
I0513 03:00:44.374433   649 net.cpp:572] mbox_conf_softmax <- mbox_conf_reshape
I0513 03:00:44.374439   649 net.cpp:542] mbox_conf_softmax -> mbox_conf_softmax
I0513 03:00:44.374486   649 net.cpp:260] Setting up mbox_conf_softmax
I0513 03:00:44.374490   649 net.cpp:267] TEST Top shape for layer 110 'mbox_conf_softmax' 10 17300 4 (692000)
I0513 03:00:44.374496   649 layer_factory.hpp:172] Creating layer 'mbox_conf_flatten' of type 'Flatten'
I0513 03:00:44.374500   649 layer_factory.hpp:184] Layer's types are Ftype:FLOAT Btype:FLOAT Fmath:FLOAT Bmath:FLOAT
I0513 03:00:44.374505   649 net.cpp:200] Created Layer mbox_conf_flatten (111)
I0513 03:00:44.374509   649 net.cpp:572] mbox_conf_flatten <- mbox_conf_softmax
I0513 03:00:44.374514   649 net.cpp:542] mbox_conf_flatten -> mbox_conf_flatten
I0513 03:00:44.376672   649 net.cpp:260] Setting up mbox_conf_flatten
I0513 03:00:44.376682   649 net.cpp:267] TEST Top shape for layer 111 'mbox_conf_flatten' 10 69200 (692000)
I0513 03:00:44.376690   649 layer_factory.hpp:172] Creating layer 'detection_out' of type 'DetectionOutput'
I0513 03:00:44.376695   649 layer_factory.hpp:184] Layer's types are Ftype:FLOAT Btype:FLOAT Fmath:FLOAT Bmath:FLOAT
I0513 03:00:44.376720   649 net.cpp:200] Created Layer detection_out (112)
I0513 03:00:44.376725   649 net.cpp:572] detection_out <- mbox_loc
I0513 03:00:44.376731   649 net.cpp:572] detection_out <- mbox_conf_flatten
I0513 03:00:44.376735   649 net.cpp:572] detection_out <- mbox_priorbox
I0513 03:00:44.376739   649 net.cpp:542] detection_out -> detection_out
F0513 03:00:44.377161   649 detection_output_layer.cpp:98] Check failed: num_test_image_ <= names_.size() (1151 vs. 850) 
*** Check failure stack trace: ***
    @     0x7f71b69234dd  google::LogMessage::Fail()
    @     0x7f71b692b071  google::LogMessage::SendToLog()
    @     0x7f71b6922ecd  google::LogMessage::Flush()
    @     0x7f71b692476a  google::LogMessageFatal::~LogMessageFatal()
    @     0x7f71b44af475  caffe::DetectionOutputLayer<>::LayerSetUp()
    @     0x7f71b46e7e7b  caffe::Net::Init()
    @     0x7f71b46e9af3  caffe::Net::Net()
    @     0x55ca876b2241  test_detection()
    @     0x55ca876ad6f9  main
    @     0x7f71b26fbb97  __libc_start_main
    @     0x55ca876ae5da  _start
    @              (nil)  (unknown)
